train_pth/best_model_epochs100_batches32.pth (torch, 250377 bytes, 10 tensors)

conv1.weight f4 [6, 1, 5, 5]
-0.49591634 -2.223796 -3.1757915 -0.96020406 -0.59432256 1.0444912 1.5430259 1.0452315
1.4151994 0.22330412 0.83157045 7.845212 11.625795 4.08902 -0.74814457 0.02676534
1.5331185 6.149684 1.9004883 -0.5186258 -0.89766824 -1.9291158 -0.550059 -0.23997833
-0.515639 1.3499514 -0.24899907 -1.0488622 -0.5089189 0.40813774 1.2294699 -0.47163257
-1.065998 -0.6247567 0.16264541 1.4147768 -0.54588073 -1.38725 -1.1691523 0.054523073
1.3937023 -0.36055633 -1.3491155 -0.6216907 0.43323 1.3572794 0.2430707 -0.62565255
-0.67034954 0.36545327 1.130962 0.49884805 0.020298338 0.31656024 0.83854514 0.5658405
-2.7466464 -4.913198 -0.017312687 1.6880224 0.783045 -4.37261 -9.36387 -0.5348585
1.1453737 1.3229631 -0.4800219 -1.9580172 -0.31448975 0.34824213 1.6803155 0.14014536
-0.1351401 -0.5445515 0.304016 -0.7378387 0.22601332 1.8196518 1.0766006 0.26993805
-0.36319226 4.775768 11.594156 7.484383 -0.2034577 -0.5805842 2.3886707 12.458542
6.5612597 -0.51811117 -0.7905654 -0.11684332 0.9488423 0.6908568 -0.24392414 -1.442162
-0.57236 0.0055510346 -0.04954901 -0.3911067 0.8121134 -0.29166004 -1.1686853 -0.6929304
0.3052015 1.3102871 -0.2176434 -1.2821516 -0.75803524 0.079519 1.6285186 -0.31603405
-1.1909963 -1.1924298 -0.2899112 1.3570311 -0.17488734 -0.615283 -0.75521004 0.19165583
1.9456828 0.45533442 -0.645304 -0.56657594 -0.1702799 -0.6222209 0.6540923 0.5822956
-0.22502154 -1.7268536 -0.9215037 1.4434413 1.4937456 0.38804778 -1.2912678 -1.2257886
1.4762837 2.1993399 0.7651907 -0.614619 -1.1921602 1.1196424 1.2086679 0.4543745
-0.49243462 -1.8259995 0.6316449 0.5847136 0.14319232 -0.60041565
00000000: bfe8 fdbe ac52 0ec0 2b40 4bc0 efcf 75bf
00000010: 8625 18bf e3b1 853f df81 c53f 25ca 853f
00000020: 4125 b53f d6a9 643e cde1 543f fa0b fb40
00000030: 4203 3a41 40d9 8240 6786 3fbf fc42 db3c
00000040: 3a3d c43f 36ca c440 3343 f33f a9c4 04bf
00000050: 96cd 65bf 44ed f6bf abd0 0cbf e1bc 75be
00000060: eb00 04bf 35cb ac3f 9df9 7ebe 1e41 86bf
00000070: 8248 02bf 6ef7 d03e 455f 9d3f d379 f1be
00000080: 9f72 88bf 0ef0 1fbf 858c 263e 6817 b53f
00000090: d7be 0bbf 6891 b1bf c8a6 95bf 9653 5f3d
000000a0: d664 b23f d79a b8be d1af acbf 1f27 1fbf
000000b0: 53d0 dd3e 55bb ad3f 87e7 783e c42a 20bf
000000c0: 079c 2bbf b11c bb3e 5dc3 903f 0369 ff3e
000000d0: b348 a63c 2f14 a23e e5aa 563f ecda 103f
000000e0: 0ec9 2fc0 eb38 9dc0 56d3 8dbc 1e11 d83f
000000f0: a375 483f 6cec 8bc0 69d2 15c1 7dec 08bf
00000100: 9b9b 923f db56 a93f 6ec5 f5be 4fa0 fabf
00000110: cd04 a1be cb4c b23e 9414 d73f 4482 0f3e
00000120: 2b62 0abe ba67 0bbf fca7 9b3e ffe2 3cbf
00000130: 0970 673e 5aea e83f 0cce 893f 5235 8a3e
00000140: 56f4 b9be 17d3 9840 aa81 3941 1180 ef40
00000150: 3757 50be 2ba1 14bf fbdf 1840 3056 4741
00000160: d7f5 d140 efa2 04bf 7e62 4abf 8d4b efbd
00000170: 54e7 723f fedb 303f 40c7 79be c498 b8bf
00000180: 2f86 12bf 74e5 b53b e7f3 4abd 233f c8be
00000190: aae6 4f3f 7754 95be 7b97 95bf e363 31bf
000001a0: 5f43 9c3e 7db7 a73f e9dd 5ebe 8b1d a4bf
000001b0: 990e 42bf dcda a23d 4c73 d03f 37cf a1be
000001c0: 9172 98bf 8aa1 98bf 3e6f 94be 32b3 ad3f
000001d0: ab15 33be 3083 1dbf 7255 41bf 6d41 443e
000001e0: 220c f93f 9821 e93e a532 25bf 1f0b 11bf
000001f0: db5d 2ebe de49 1fbf 9872 273f 5311 153f
00000200: 0c6c 66be 8a09 ddbf abe7 6bbf afc2 b83f
00000210: 0e33 bf3f 33ae c63e 4348 a5bf a4e6 9cbf
00000220: ddf6 bc3f fcc1 0c40 8ae3 433f ac57 1dbf
00000230: b598 98bf 7150 8f3f a1b5 9a3f c6a3 e83e
00000240: 6420 fcbe 5aba e9bf 7bb3 213f caaf 153f
00000250: 02a1 123e d7b4 19bf

conv1.bias f4 [6]
-1.0408857 0.49162665 0.2207791 -1.2150712 0.8106977 -1.3846873
00000000: be3b 85bf 7db6 fb3e eb13 623e 7487 9bbf
00000010: e289 4f3f 6f3d b1bf

conv2.weight f4 [16, 6, 5, 5]
0.44200426 0.0386808 -0.11187437 -0.36401182 -0.7507331 0.021382948 -0.20551556 -0.035896584
-0.07430657 -0.24396908 -0.0075905873 -0.117888875 0.07586726 0.014094504 0.26895347 0.044417553
-0.061020013 -0.030197645 0.070571505 0.14506938 -0.011371318 -0.894561 -0.565568 0.19384569
0.50788665 0.52833277 1.1742319 1.7974789 1.6098691 0.6512508 0.94769466 1.3914539
1.076478 1.2839934 0.5283377 0.35394502 0.2727445 -0.18113756 -0.09515152 -0.103949055
-0.21178536 -0.3980974 -1.0683404 -1.344267 -0.19996391 -0.40723088 0.28396216 -0.8693099
-2.1368303 -0.8570828 -0.67299736 0.30883318 2.215475 1.9274454 1.6209451 -0.13721785
0.21123122 0.7040198 0.5491344 0.31411505 -0.27204472 -0.32220244 -0.4586514 -0.47527662
-1.0424918 -0.1319012 -0.9794815 -1.189471 -1.0199511 -1.0457036 -0.04724795 0.92057437
0.105596684 -1.1033956 -1.4926766 0.22786266 -0.17631257 -0.2243456 -0.5291846 -0.54561716
0.05677678 -0.17032225 -0.07076369 -0.10423962 -0.25465786 -0.12422082 -0.14024009 -0.0031539253
0.023623632 0.21862818 -0.20317519 -0.17742772 -0.017672902 0.094965644 0.32242137 -0.14539956
-0.2044548 -0.01776328 0.11436139 0.3718062 0.023337623 0.5626696 1.2024685 1.1346058
0.25872108 0.867999 1.0015907 0.8056904 1.4144534 0.55850637 0.14661828 0.14111698
-0.1142771 0.16235031 0.18956868 -0.32662243 -0.5831072 -1.0752045 -1.1157578 -0.12058429
-0.56825566 -0.027717106 -1.1887208 -2.1075838 -0.72736055 -0.27397183 -0.7431719 -0.858771
-0.99471503 -0.6741975 -0.10074235 -0.7092231 -0.12673587 -0.5461758 -0.53956175 0.21072933
0.0072208405 0.4856886 0.4074029 -0.20578976 0.32185024 0.36780658 0.6753635 1.1829684
0.25804564 0.62840587 -0.12864515 0.1187543 1.5375423 0.92631894 -0.35623145 -0.1195073
0.19456075 0.2108999 0.0657804 -0.1343871 0.049115103 0.2985274 0.18259324 -0.106981926
-0.0023174775 0.14885326 0.41466454 0.024704935 0.0066376324 0.057624057 0.22152808 0.35375682
0.06368397 -0.033051185 0.0023032378 -0.079781346 -0.22074349 -0.08204321 -0.08698209 -0.12243954
-0.15738109 -0.39969906 -0.12233753 0.1360827 -0.31229076 -0.39054948 -0.6750304 -0.27458674
0.1280444 -0.33854443 -0.43776986 -0.6674248 -0.10496498 0.3300087 -0.3449425 -0.36417708
-0.6512851 -0.0559839 0.25752264 -0.12971385 0.014846993 -0.4971153 0.039929375 0.21448532
0.38268283 0.048668366 -0.3768624 -0.84812003 -0.19581242 0.12110481 -0.24155843 -0.780392
-1.0447751 -0.34922287 0.13142614 -0.32146847 -1.0072463 -0.19233118 0.06872819 -0.08258113
-0.37067914 -1.4507147 -0.29865757 -0.10020719 -0.0020826627 -0.07322192 -0.7969581 -0.23278058
-0.24445735 -0.36043584 -0.19223543 0.17689745 0.24740599 -0.111081086 -0.02793787 0.16512865
0.50591093 0.32677323 -0.019291906 0.019623652 0.22934079 0.27112103 0.1155791 -0.0075170947
0.14096552 0.48311502 0.46683326 0.21879695 0.16512375 0.02179733 0.32899025 0.33067793
0.22843805 0.09314056 -0.019441517 0.010038976 -0.17348227 0.07148126 0.32942736 -0.28225338
00000000: 624e e23e c26f 1e3d 641e e5bd c25f babe
00000010: 0b30 40bf 4b2b af3c ac72 52be 4c08 13bd
00000020: 0b2e 98bd 08d3 79be 76ba f8bb b96f f1bd
00000030: 4b60 9b3d a2ec 663c 45b4 893e 2eef 353d
00000040: 1ff0 79bd 0d61 f7bc cb87 903d 118d 143e
00000050: c44e 3abc f301 65bf 10c9 10bf 7c7f 463e
00000060: dc04 023f d140 073f 3b4d 963f ca13 e63f
00000070: 3110 ce3f 5fb8 263f 1e9c 723f 291b b23f
00000080: 08ca 893f e559 a43f 2441 073f 4838 b53e
00000090: 2ba5 8b3e 207c 39be cdde c2bd 3ee3 d4bd
000000a0: 43de 58be 6cd3 cbbe 61bf 88bf f110 acbf
000000b0: 57c3 4cbe 9180 d0be 7d63 913e 188b 5ebf
000000c0: d4c1 08c0 c769 5bbf 8e49 2cbf 621f 9e3e
000000d0: 58ca 0d40 88b6 f63f 217b cf3f d682 0cbe
000000e0: ff4c 583e a43a 343f 1294 0c3f b0d3 a03e
000000f0: 7249 8bbe b8f7 a4be 5bd4 eabe 7557 f3be
00000100: 5f70 85bf 1c11 07be 4dbf 7abf 9640 98bf
00000110: c28d 82bf 9ed9 85bf 1187 41bd c3aa 6b3f
00000120: 1343 d83d 113c 8dbf 0710 bfbf d454 693e
00000130: 488b 34be daba 65be a478 07bf 91ad 0bbf
00000140: c58e 683d f568 2ebe 8eec 90bd 957b d5bd
00000150: 8462 82be 7c67 febd 199b 0fbe 16b2 4ebb
00000160: 5986 c13c 11e0 5f3e 280d 50be 9daf 35be
00000170: c3c6 90bc 597d c23d 6a14 a53e 9fe3 14be
00000180: 995c 51be 4c84 91bc 4e36 ea3d 625d be3e
00000190: 8b2e bf3c 1d0b 103f 7dea 993f c33a 913f
000001a0: 1777 843e 2f35 5e3f 2034 803f ba41 4e3f
000001b0: cf0c b53f 46fa 0e3f 1a23 163e f880 103e
000001c0: 1d0a eabd 293f 263e 4b1e 423e 0e3b a7be
000001d0: 8346 15bf 4da0 89bf 27d1 8ebf e5f4 f6bd
000001e0: 3479 11bf fc0e e3bc 0128 98bf a7e2 06c0
000001f0: 4d34 3abf 0946 8cbe 8340 3ebf 6bd8 5bbf
00000200: a5a5 7ebf 3598 2cbf 0152 cebd a58f 35bf
00000210: 0cc7 01be 2dd2 0bbf b820 0abf 6ec9 573e
00000220: cd9c ec3b 2dac f83e 1d97 d03e 8dba 52be
00000230: 8ec9 a43e 2551 bc3e 9fe4 2c3f 826b 973f
00000240: 8f1e 843e 35df 203f 8ebb 03be 7435 f33d
00000250: 30ce c43f 3d23 6d3f f863 b6be 3ec0 f4bd
00000260: ef3a 473e 25f6 573e e0b7 863d c69c 09be
00000270: eb2c 493d 95d8 983e b9f9 3a3e 5719 dbbd
00000280: d2e0 17bb fd6c 183e e94e d43e 0162 ca3c
00000290: 7f80 d93b 3407 6c3d 42d8 623e 9d1f b53e
000002a0: be6c 823d ae60 07bd ebf1 163b 6764 a3bd
000002b0: 950a 62be 4506 a8bd aa23 b2bd 95c1 fabd
000002c0: 8228 21be 5ba5 ccbe 198c fabd 4359 0b3e
000002d0: 93e4 9fbe 1af6 c7be cbce 2cbf a296 8cbe
000002e0: 121e 033e b255 adbe 5f23 e0be 5adc 2abf
000002f0: e1f7 d6bd e6f6 a83e 4e9c b0be 6b75 babe
00000300: 9fba 26bf 604f 65bd 02da 833e b5d3 04be
00000310: cd40 733c e685 febe fc8c 233d 0aa2 5b3e
00000320: 01ef c33e 7b58 473d 1cf4 c0be 651e 59bf
00000330: 0d83 48be cc05 f83d 185b 77be c5c7 47bf
00000340: 31bb 85bf 57cd b2be 9394 063e 8497 a4be
00000350: 72ed 80bf 77f2 44be 5ec1 8c3d 4c20 a9bd
00000360: a8c9 bdbe 05b1 b9bf a5e9 98be 6d39 cdbd
00000370: 487d 08bb 60f5 95bd 7205 4cbf 085e 6ebe
00000380: 0753 7abe 0c8b b8be 5dd9 44be 9b24 353e
00000390: ff57 7d3e 7b7e e3bd f6dd e4bc 7c17 293e
000003a0: 6183 013f d24e a73e 0f0a 9ebc c8c1 a03c
000003b0: 50d8 6a3e 60d0 8a3e bcb4 ec3d f651 f6bb
000003c0: 4459 103e da5a f73e c504 ef3e 4f0c 603e
000003d0: 3316 293e 5090 b23c 6971 a83e 9e4e a93e
000003e0: aaeb 693e 7ac0 be3d d143 9fbc 847a 243c
000003f0: 56a5 31be c464 923d b4aa a83e 8483 90be

conv2.bias f4 [16]
0.027850553 -0.118470505 0.10267963 -0.06333464 -0.057296135 0.28799003 -0.10265851 0.08730563
-0.008549959 -0.00656391 -0.08038183 0.07196299 0.0481722 0.035200134 0.070255816 0.106541134
00000000: d826 e43c aaa0 f2bd b349 d23d 97b5 81bd
00000010: 5aaf 6abd 6e73 933e a03e d2bd 4bcd b23d
00000020: 2115 0cbc 1116 d7bb 3b9f a4bd 5561 933d
00000030: 3650 453d 042e 103d 48e2 8f3d 3d32 da3d

fc1.weight f4 [120, 400]
0.039273765 0.2617328 0.21813023 0.2748571 0.2616306 -0.16283466 -0.13359676 0.09239209
0.023652583 0.16311751 -0.052199494 -0.30694574 0.2341591 0.6796587 0.35670638 -0.061154038
-0.35909846 0.122445546 0.022927187 0.03852231 0.42120454 0.08310428 1.2141397 -0.15194447
0.15664312 -0.52804184 0.5963766 0.41351745 0.008202813 -0.18846062 -1.1332264 0.8462334
0.3066638 0.031473562 0.05386245 0.5908782 0.52677745 0.09229327 0.15995754 0.17441481
0.28482988 0.11769267 0.066835746 0.20171453 0.2167019 0.3040631 0.029849358 -0.2309577
-0.07411366 0.3186989 -0.24550174 0.0069423984 0.0012701927 -0.26039138 -0.11139508 -0.17003228
-0.6266669 -0.20721531 -0.022451855 -0.31242058 -0.06073539 -0.7730528 -0.46250284 0.7586191
-0.25905263 0.012652539 0.06467275 0.24317604 -0.09668905 -0.2650927 -0.06425106 -0.3422175
1.1519492 -0.07295577 -0.21376857 -0.028661417 -0.09280144 0.124315985 0.19788843 0.2443979
-0.020998195 -0.18426399 0.10641001 0.4040042 0.39764586 -0.011934927 -0.21172565 0.06484021
0.029637083 -0.07460896 -0.009032947 -0.12157158 0.109004885 0.11721127 0.21729673 -0.02290985
-0.15616174 -0.050216902 -0.15062758 -0.021396417 -0.057933375 -0.08737097 0.16297372 0.10848478
0.12462542 -0.014555065 -0.36727569 -0.08720205 0.3804233 -0.18976831 -0.20759335 -0.434294
0.402804 -0.21085717 -0.118005395 0.23278208 -0.45525348 0.33376443 -0.6164046 0.08245371
0.287517 -0.61081034 0.7533208 -0.21254008 0.028452903 0.017061295 -0.58751905 -0.5844391
0.30593506 -0.049195323 -0.26518574 -0.9508613 -0.6586863 0.2372752 -0.054512 -0.11087992
0.42118993 1.3250736 -0.58029157 0.16680469 -0.22452924 0.51480126 0.7432135 0.4032018
0.04416163 -0.43378907 0.121645175 0.42974842 0.3583928 -0.28360143 0.44863787 -0.041527316
0.054371227 -0.53764826 -0.012335727 -0.20411098 0.4534876 -0.13438533 -0.6735836 -0.3860479
0.5818228 0.13940534 0.17177929 -0.13172945 -0.051382706 0.75713724 0.11273994 0.2363338
-0.22830397 -0.08719801 -0.12706427 -0.34450877 -0.08802402 0.54112816 1.0243417 -0.16053566
-0.097024135 -0.16150646 -0.08712779 0.018698987 -0.32962877 -0.559497 0.022788055 -0.12771742
-0.051355086 -0.63704556 -0.551937 -0.40877613 -0.39097738 0.119555615 -0.004529354 0.19129798
-0.17130806 -0.64406955 0.13339217 -0.34324154 0.407065 0.9945244 -0.011588496 -0.024643632
0.075661406 0.7560065 -0.31232545 0.50136244 0.0014439861 -0.022366924 0.27872688 -0.13404447
-0.19194736 -0.2689216 -0.30663842 0.05813197 -0.3344224 -0.21105842 -0.4966482 0.60814273
-0.24254623 -0.1352966 1.1646684 -0.1406406 0.24963348 0.18608384 0.40337795 0.781065
1.0914545 -0.25398764 0.22470792 -0.16626334 0.06221873 0.17336635 -0.18172085 -0.43465364
0.26045212 0.1389814 0.19130312 -0.30985466 -0.6019747 0.52393454 0.6310812 0.18919244
-0.4412198 0.6269822 1.4975059 0.020724647 0.45910266 -0.50169337 2.179678 0.81831706
-0.019874929 0.43892628 0.052570913 -0.0048429035 0.046267048 0.1573021 0.15033634 -0.013930147
00000000: 87dd 203d d701 863e 885d 5f3e 12ba 8c3e
00000010: 72f4 853e 21be 26be 97cd 08be 1038 bd3d
00000020: 10c3 c13c 4708 273e 23cf 55bd fe27 9dbe
00000030: 67c7 6f3e 1dfe 2d3f 38a2 b63e a87c 7abd
00000040: c1db b7be bbc4 fa3d ccd1 bb3c 92c9 1d3d
00000050: 1fa8 d73e 9432 aa3d ee68 9b3f 5597 1bbe
00000060: 0e67 203e c02d 07bf 23ac 183f 8fb8 d33e
00000070: 1765 063c d2fb 40be 900d 91bf c1a2 583f
00000080: 0a03 9d3e 6cea 003d df9e 5c3d cb43 173f
00000090: e3da 063f 4104 bd3d e9cb 233e cc99 323e
000000a0: 39d5 913e db08 f13d 2ee1 883d 418e 4e3e
000000b0: 1ae7 5d3e 29ae 9b3e a486 f43c 2d80 6cbe
000000c0: e7c8 97bd 812c a33e cf64 7bbe 0f7d e33b
000000d0: 987c a63a 0552 85be 1b23 e4bd f11c 2ebe
000000e0: 3e6d 20bf 4030 54be f4ec b7bc 97f5 9fbe
000000f0: acc5 78bd cae6 45bf 2ccd ecbe dd34 423f
00000100: 8ca2 84be 984c 4f3c 2673 843d 2403 793e
00000110: e904 c6bd 3bba 87be 0f96 83bd 2237 afbe
00000120: 1273 933f d669 95bd 26e6 5abe 59cb eabc
00000130: ae0e bebd 6199 fe3d 44a3 4a3e 7143 7a3e
00000140: 6804 acbc b3af 3cbe 7eed d93d a3d9 ce3e
00000150: 3d98 cb3e b68a 43bc 9cce 58be f2ca 843d
00000160: 78c9 f23c 95cc 98bd edfe 13bc 85fa f8bd
00000170: f43d df3d 760c f03d 0983 5e3e 70ad bbbc
00000180: dde8 1fbe 3db0 4dbd 1e3e 1abe 8a47 afbc
00000190: 8c4b 6dbd 8def b2bd 95e2 263e 452d de3d
000001a0: 9d3b ff3d 5e78 6ebc 8f0b bcbe fd96 b2bd
000001b0: d8c6 c23e a052 42be 5a93 54be c85b debe
000001c0: 533c ce3e f1ea 57be d0ac f1bd 6d5e 6e3e
000001d0: fc16 e9be 2ce3 aa3e b1cc 1dbf 7edd a83d
000001e0: 6e35 933e 115e 1cbf a2d9 403f 1ba4 59be
000001f0: 1016 e93c 21c4 8b3c a667 16bf cd9d 15bf
00000200: 85a3 9c3e 0981 49bd 6dc6 87be a56b 73bf
00000210: aa9f 28bf 45f8 723e fa47 5fbd 0315 e3bd
00000220: 35a6 d73e 039c a93f fd8d 14bf d9ce 2a3e
00000230: feea 65be 04ca 033f 3d43 3e3f 7770 ce3e
00000240: d3e2 343d 9a19 debe 1b21 f93d fc07 dc3e
00000250: 437f b73e 3534 91be ddb3 e53e 8c18 2abd
00000260: 5db4 5e3d 51a3 09bf ca1b 4abc 7802 51be
00000270: 872f e83e 4f9c 09be fa6f 2cbf 12a8 c5be
00000280: 57f2 143f 46c0 0e3e e9e6 2f3e 16e4 06be
00000290: ac76 52bd bfd3 413f 33e4 e63d 7d01 723e
000002a0: 84c8 69be df94 b2bd 231d 02be 7463 b0be
000002b0: f045 b4bd 6087 0a3f a11d 833f 7663 24be
000002c0: 97b4 c6bd f361 25be 0e70 b2bd 9e2e 993c
000002d0: 1ac5 a8be 323b 0fbf 04ae ba3c 5bc8 02be
000002e0: b659 52bd 6b15 23bf be4b 0dbf 1b4b d1be
000002f0: 302e c8be 93d9 f43d fa6a 94bb 9ee3 433e
00000300: 616b 2fbe bee1 24bf f597 083e 5bbd afbe
00000310: d36a d03e 2799 7e3f addd 3dbc 71e1 c9bc
00000320: 5ef4 9a3d a489 413f 1fe9 9fbe 4a59 003f
00000330: 2244 bd3a d73a b7bc 4ab5 8e3e f442 09be
00000340: d98d 44be 18b0 89be b6ff 9cbe ca1b 6e3d
00000350: 6a39 abbe b31f 58be ac48 febe 3eaf 1b3f
00000360: 0a5e 78be 318b 0abe db13 953f 1704 10be
00000370: eb9f 7f3e c38c 3e3e 8e87 ce3e e0f3 473f
00000380: c8b4 8b3f ab0a 82be d519 663e f040 2abe
00000390: 11d9 7e3d f386 313e 0815 3abe ec8a debe
000003a0: fb59 853e 2451 0e3e f7e4 433e 45a5 9ebe
000003b0: 041b 1abf 9320 063f 8a8e 213f aabb 413e
000003c0: 90e7 e1be e881 203f 46ae bf3f bcc6 a93c
000003d0: 810f eb3e fa6e 00bf d87f 0b40 3a7d 513f
000003e0: bfd0 a2bc f2ba e03e 9954 573d 38b1 9ebb
000003f0: 8482 3d3d cd13 213e c5f1 193e 453b 64bc

fc1.bias f4 [120]
0.11755495 -0.20132181 -0.14338164 0.08322008 -0.081045255 -0.06322521 -0.0386765 0.07507104
-0.04467497 -0.15293562 -0.03181838 -0.096622944 -0.11619541 -0.112629466 -0.033231437 -0.084179744
0.04401268 -0.018661933 0.028710663 0.1465639 0.003481471 0.1374898 -0.19123255 0.12384232
0.19520889 -0.17107324 0.1130234 0.119971186 0.0051277364 0.0033552225 0.17377208 -0.040262338
0.04182448 -0.13127573 0.18791504 -0.087122925 0.119486324 -0.009060164 -0.103917696 0.03749159
-0.010904571 0.09554769 -0.008346713 -0.11750279 0.013809856 -0.18476024 -0.060232338 0.118450925
-0.10312685 -0.007494695 0.07429607 0.020382129 0.17567758 0.098590225 0.13248976 0.1881098
0.11035603 -0.07806365 -0.10032179 0.04931579 -0.13123737 -0.07099455 -0.12322816 0.17830196
-0.08497266 -0.11387861 -0.20366478 0.2076203 -0.016501572 0.09234863 0.12673178 -0.12079121
-0.071071886 -0.016455835 0.11428778 0.0006835705 -0.015801681 0.029889073 -0.16540919 -0.03028692
-0.0028681003 -0.02796256 0.063814305 -0.168436 -0.14673229 -0.21473017 0.07166561 -0.1353876
-0.058642495 -0.19420809 -0.19392048 -0.090827756 -0.06373541 -0.07075052 -0.09858401 -0.024337534
-0.18228538 0.058651157 0.033080578 0.12868 0.1871347 0.03291814 -0.069304064 -0.13946716
0.13898419 -0.10754247 0.008839737 -0.15999618 0.0030626343 -0.03081673 0.14934109 0.09107672
0.21129943 -0.27360907 -0.04106393 0.026022581 0.059370443 -0.11677914 -0.0122279525 0.0455945
00000000: a6c0 f03d 4e27 4ebe a3d2 12be 4a6f aa3d
00000010: 0efb a5bd 387c 81bd 406b 1ebd d8be 993d
00000020: 1afd 36bd 289b 1cbe fd53 02bd 40e2 c5bd
00000030: dcf7 edbd 47aa e6bd b01d 08bd 6e66 acbd
00000040: a446 343d e9e0 98bc a032 eb3c d914 163e
00000050: 6429 643b 20ca 0c3e 77d2 43be 0ba1 fd3d
00000060: d7e4 473e d32d 2fbe d078 e73d 74b3 f53d
00000070: 9206 a83b 4be3 5b3b 4ff1 313e 1fea 24bd
00000080: 2550 2b3d 256d 06be cd6c 403e 816d b2bd
00000090: 3fb5 f43d 1571 14bc cdd2 d4bd c890 193d
000000a0: 16a9 32bc 82ae c33d a7c0 08bc 4ea5 f0bd
000000b0: bc42 623c ca31 3dbe 2fb6 76bd 6696 f23d
000000c0: 2c34 d3bd 0f96 f5bb 8a28 983d 6cf8 a63c
000000d0: d3e4 333e ace9 c93d 65ab 073e db9f 403e
000000e0: 5802 e23d d6df 9fbd 8375 cdbd 5bff 493d
000000f0: 1763 06be 9765 91bd 0c5f fcbd ca94 363e
00000100: 2506 aebd 3039 e9bd 808d 50be 6a9a 543e
00000110: 4e2e 87bc 4721 bd3d fac5 013e 6261 f7bd
00000120: 238e 91bd 63ce 86bc b60f ea3d a431 333a
00000130: 8772 81bc eed9 f43c 0761 29be 461c f8bc
00000140: bdf6 3bbb bd11 e5bc 13b1 823d 7d7a 2cbe
00000150: fd40 16be 3ae2 5bbe 6bc5 923d 0ca3 0abe
00000160: 1d33 70bd 7cde 46be 1793 46be e703 babd
00000170: b687 82bd a6e5 90bd 6ae6 c9bd 825f c7bc
00000180: 05a9 3abe 323c 703d 807f 073d b1c4 033e
00000190: 3da0 3f3e 2cd5 063d 4aef 8dbd 7bd0 0ebe
000001a0: df51 0e3e 3a3f dcbd 8bd4 103c 0ad6 23be
000001b0: 7ab6 483b 5e73 fcbc dfec 183e 6e86 ba3d
000001c0: e15e 583e 7d16 8cbe a732 28bd 4f2d d53c
000001d0: 6c2e 733d e729 efbd c057 48bc 4cc1 3a3d

fc2.weight f4 [84, 120]
-0.12139713 -0.48836166 -0.58122635 0.27026877 -0.52444667 1.3203237 0.55459225 0.16098772
-0.81640667 0.015908143 -0.17228496 -0.9621754 0.23314558 0.25733414 -0.84744483 -0.78079927
-0.2369478 1.435191 0.029259922 0.45543092 0.5941675 -0.22779775 0.57868564 -0.4873802
-0.14575222 0.4797428 0.7536232 0.14113456 0.364064 -1.1848224 -0.29504094 0.8196698
0.27226287 0.10897228 0.11316613 -0.05625074 1.2995577 -0.40701726 -0.009297106 0.29537565
-0.2680574 -0.07683152 -0.59130186 -0.87955827 0.35436052 -0.3074527 0.6203314 -0.2519848
0.75657594 -1.2333646 -0.2962899 0.11527762 -0.36457184 0.35430366 0.6939268 -0.34420246
0.40986168 0.9600022 0.02031193 -0.18761837 0.34259436 0.5899614 -0.23523377 0.016478874
-0.46563864 -0.34338126 0.5329148 0.185718 0.039163634 0.31470767 0.2926887 0.042914014
-0.9933446 0.17008188 -0.008665623 0.084798835 0.113781296 0.57783014 -0.4955322 0.6673911
-0.1297393 -0.15790653 0.15979172 -0.5128498 -1.8693255 0.58528167 0.42351666 -0.0004393136
0.021829326 0.7467768 -0.920545 0.03686735 -0.09273626 0.42779237 0.676288 0.15736555
0.077219404 1.0038824 -1.036191 -0.030383538 0.26978603 -0.05696435 0.3833168 -0.022058705
-0.05126753 0.056454644 -0.2335319 0.75822365 -0.027340341 1.0641919 -0.28375483 -0.031641595
0.16341577 -0.82053345 -0.7147977 0.09602841 -0.010043479 -0.5396492 0.292466 0.37084347
-0.31783697 0.2894969 0.54887414 -0.1527915 0.4665864 0.48793146 0.068807594 0.7372942
-0.08773706 -0.17632641 0.7730707 0.11429784 0.211266 0.020557592 -1.4738883 0.025903253
0.16614804 -1.3926764 0.26220125 -0.3882593 0.10311139 0.20472561 0.56260085 0.16519241
-0.2528351 0.09806034 -0.75198203 -0.26061377 -0.13214712 0.051502164 -0.40050226 0.38795146
0.5526506 1.2017813 -0.29434505 0.6419602 -0.90597034 -0.56568193 0.8869921 -0.14347485
-0.31323698 -0.41728014 -0.31004688 -0.1975132 -0.4183942 0.6355278 0.31675288 -0.36603957
0.2388153 -0.21343572 -0.5168197 -0.6959793 -0.16223404 -0.28538802 -0.12495001 -0.26749018
0.67957884 0.59640765 -0.035271186 -0.4137467 0.76638114 0.09409262 1.0017681 -0.5448447
0.17018972 0.43855536 0.5360924 -0.44632572 0.4367192 -0.5145667 0.13392961 -0.089743026
-0.014428565 -0.36374772 -0.12925693 0.12981789 0.57157046 -1.1251758 0.4825841 0.6114745
-0.4448231 0.11872999 0.5236435 -0.10770923 0.22082306 0.12922838 0.32412967 0.3769555
0.00622197 0.90270466 -0.0010487724 0.75131804 0.4148717 0.49625522 0.4328102 0.3210118
0.7386705 -0.082085334 -1.261988 -0.08543306 -1.4144601 -0.029473832 0.91494596 0.76602143
-0.19704886 -0.39458114 0.059809424 0.5852805 -0.0402066 -0.33436492 -0.08540646 -0.045211766
-0.15724923 0.1662699 0.06656619 0.20669402 0.3462263 0.55821604 -0.38077644 0.15621315
0.14635183 -0.096950285 0.1077495 -0.4445134 0.05660308 -0.7947448 -0.3760991 -0.59951085
0.3373121 0.4021629 -0.2609424 0.50043046 0.6379781 -0.2460636 -0.9161734 -0.32506904
00000000: 0f9f f8bd 8a0a fabe 40cb 14bf ab60 8a3e
00000010: 2342 06bf 5e00 a93f c2f9 0d3f f7d9 243e
00000020: 0700 51bf cb51 823c 786b 30be 2151 76bf
00000030: b7bd 6e3e 4dc1 833e 25f2 58bf 76e2 47bf
00000040: 72a2 72be 57b4 b73f 81b2 ef3c 3e2e e93e
00000050: 5c1b 183f d043 69be be24 143f e689 f9be
00000060: 1240 15be d9a0 f53e 73ed 403f 9485 103e
00000070: 9966 ba3e 43a8 97bf 9b0f 97be e1d5 513f
00000080: 0a66 8b3e dc2c df3d a5c3 e73d 2d67 66bd
00000090: e857 a63f 9164 d0be e452 18bc 7a3b 973e
000000a0: d23e 89be d859 9dbd 8f5f 17bf bb2a 61bf
000000b0: be6e b53e 716a 9dbe 0ace 1e3f 2704 81be
000000c0: f6ae 413f e4de 9dbf 4fb3 97be ac16 ec3d
000000d0: 29a9 babe 4a67 b53e 30a5 313f 4e3b b0be
000000e0: 64d9 d13e b4c2 753f 3465 a63c 081f 40be
000000f0: 8768 af3e b607 173f 1fe1 70be b4fe 863c
00000100: 3068 eebe abcf afbe 1b6d 083f dc2c 3e3e
00000110: 0c6a 203d 5d21 a13e 4bdb 953e 9bc6 2f3d
00000120: d54b 7ebf f229 2e3e 42fa 0dbc 03ab ad3d
00000130: 2b06 e93d adec 133f 66b6 fdbe 25da 2a3f
00000140: 61da 04be 40b2 21be 71a0 233e 204a 03bf
00000150: 0f46 efbf 05d5 153f 2dd7 d83e ac53 e6b9
00000160: 6ad3 b23c c42c 3f3f d6a8 6bbf 3802 173d
00000170: 82ec bdbd 9a07 db3e 3621 2d3f 6f24 213e
00000180: 3525 9e3d 387f 803f e8a1 84bf e6e6 f8bc
00000190: 6521 8a3e 7353 69bd 1a42 c43e 75b4 b4bc
000001a0: e7fd 51bd fc3c 673d fd22 6fbe f21a 423f
000001b0: daf8 dfbc 7137 883f 5048 91be 9e9a 01bd
000001c0: 7756 273e 7b0e 52bf fbfc 36bf 8baa c43d
000001d0: 678d 24bc 7326 0abf 1bbe 953e 32df bd3e
000001e0: 87bb a2be f038 943e 0483 0c3f 6075 1cbe
000001f0: 6ae4 ee3e 27d2 f93e ffea 8c3d 50bf 3c3f
00000200: 7daf b3bd e98e 34be f6e7 453f fc14 ea3d
00000210: 1d56 583e 6568 a83c 5fa8 bcbf 0f33 d43c
00000220: b622 2a3e 3843 b2bf 3e3f 863e ecc9 c6be
00000230: 102c d33d 97a3 513e 9c06 103f 3328 293e
00000240: 9a73 81be dcd3 c83d e581 40bf 2b6f 85be
00000250: 9351 07be eff3 523d a20e cdbe 93a1 c63e
00000260: 827a 0d3f f8d3 993f 65b4 96be 8157 243f
00000270: aced 67bf 88d0 10bf ea11 633f 12eb 12be
00000280: 9960 a0be bea5 d5be 77be 9ebe e640 4abe
00000290: c437 d6be f3b1 223f 6f2d a23e 8a69 bbbe
000002a0: ff8b 743e e58e 5abe 4c4e 04bf b32b 32bf
000002b0: ae20 26be 611e 92be cae5 ffbd 79f4 88be
000002c0: e1f8 2d3f 2cae 183f 8578 10bd 9cd6 d3be
000002d0: 8e31 443f a2b3 c03d f039 803f f17a 0bbf
000002e0: 3746 2e3e 548a e03e 5a3d 093f ce84 e4be
000002f0: a999 df3e a5ba 03bf d824 093e 31cb b7bd
00000300: ca65 6cbc 243d babe ee5b 04be fbee 043e
00000310: 7152 123f c305 90bf 4315 f73e 9889 1c3f
00000320: dabf e3be b628 f33d 800d 063f a896 dcbd
00000330: 711f 623e 7254 043e 53f4 a53e 5000 c13e
00000340: abe1 cb3b a717 673f f676 89ba 6156 403f
00000350: 106a d43e 2a15 fe3e 4c99 dd3e a95b a43e
00000360: 8319 3d3f 5b1c a8bd d388 a1bf 87f7 aebd
00000370: 070d b5bf 1b73 f1bc e639 6a3f fb19 443f
00000380: 2dc7 49be 8a06 cabe bafa 743d f1d4 153f
00000390: adaf 24bd e131 abbe 95e9 aebd f92f 39bd
000003a0: f105 21be a842 2a3e db53 883d 99a7 533e
000003b0: 9344 b13e 3fe7 0e3f 21f5 c2be 57f6 1f3e
000003c0: 41dd 153e df8d c6bd c5ab dc3d 4397 e3be
000003d0: a2d8 673d 6574 4bbf 1090 c0be 8b79 19bf
000003e0: 2cb4 ac3e 4ce8 cd3e 3e9a 85be 361c 003f
000003f0: 8852 233f 19f8 7bbe 578a 6abf 736f a6be

fc2.bias f4 [84]
0.00054097036 -0.0151778655 -0.071396716 -0.06668689 -0.05881289 0.08179249 0.095892735 0.09539105
-0.052863378 -0.05729006 -0.03948492 0.06891674 0.054231595 -0.0593487 -0.09814749 -0.022561135
0.0063565993 -0.03782587 0.0356239 0.02590102 -0.027080975 -0.0006691252 0.009563513 0.020037983
0.025519997 -0.11381163 -0.06757096 -0.016885951 0.12949209 0.0548127 -0.011199963 -0.055397965
-0.07414599 -0.013884657 -0.011892746 -0.08233139 -0.0041459193 -0.12689501 -0.01789007 0.13679853
0.06213831 0.07084433 -0.05287242 -0.0048983423 0.1161632 0.07152835 -0.005874597 -0.05653598
0.0023968625 -0.05048927 0.081232384 0.027979884 0.07505596 -0.04101346 0.11737356 -0.11629646
-0.09483699 -0.027420627 0.10152774 -0.07772449 -0.005338843 -0.06323455 0.02797538 0.098566934
-0.040326517 0.037311234 0.08990978 -0.029293744 -0.039999023 0.07178992 -0.04618198 0.07364304
-0.089880906 0.117409416 0.042594675 0.11367029 -0.04785045 -0.048640285 -0.06804615 0.039591294
-0.048960276 -0.03470443 -0.010685532 -0.110796794
00000000: e8cf 0d3a 95ac 78bc 7138 92bd 2393 88bd
00000010: c9e5 70bd d282 a73d 6963 c43d 625c c33d
00000020: 4587 58bd fba8 6abd f1ba 21bd 3824 8d3d
00000030: f321 5e3d 9f17 73bd 8d01 c9bd 21d2 b8bc
00000040: 054b d03b 4def 1abd 5eea 113d 602e d43c
00000050: ecd8 ddbc 3b68 2fba 48b0 1c3c b226 a43c
00000060: 500f d13c 1216 e9bd a562 8abd 6854 8abc
00000070: 9399 043e 4883 603d 0d80 37bc fae8 62bd
00000080: dad9 97bd 797c 63bc cbd9 42bc 5c9d a8bd
00000090: 7eda 87bb c4f0 01be 328e 92bc ea14 0c3e
000000a0: be84 7e3d d516 913d c090 58bd 4682 a0bb
000000b0: f9e6 ed3d 757d 923d b17f c0bb 4692 67bd
000000c0: ae14 1d3b d6cd 4ebd 2a5d a63d 1236 e53c
000000d0: f0b6 993d bbfd 27bd 8d61 f03d d72c eebd
000000e0: e539 c2bd 39a1 e0bc c7ed cf3d 042e 9fbd
000000f0: 76f1 aebb 1e81 81bd a02c e53c 76dd c93d
00000100: 6b2d 25bd aad3 183d 9e22 b83d 6ff9 efbc
00000110: 04d6 23bd 9806 933d 5129 3dbd 2ad2 963d
00000120: 7b13 b8bd 5974 f03d c177 2e3d f8cb e83d
00000130: d5fe 43bd 093b 47bd c85b 8bbd 7b2a 223d
00000140: 928a 48bd 3b26 0ebd 5f12 2fbc 6ee9 e2bd

fc3.weight f4 [10, 84]
-0.11231869 -0.44331348 0.14434949 -1.0832003 -1.1993892 0.21385376 0.020156445 -0.4562166
0.18878809 -0.19487546 0.29004845 0.14658818 -0.6613036 0.23479715 -0.68177295 0.16622539
0.055782087 -1.5255117 0.8198105 -1.6549706 -1.048685 0.06293607 -0.093474895 -0.3760859
1.3296838 -1.0036079 -1.2866096 0.5851077 -0.1384357 0.36182332 0.27197665 0.22396113
-0.02316682 0.79149246 0.23569432 0.20943624 0.37794295 0.20761102 -0.76123315 0.23403445
-0.4126427 0.30152968 0.1440871 0.1690377 0.29979315 0.43160167 -0.2191448 0.014780615
0.1378258 -0.5907463 -4.248894 -0.48915875 0.3598786 -0.77562577 -0.4221736 0.28772107
-0.31856495 -0.77883035 0.35329115 0.08617027 0.45713025 -0.006310025 -0.31897026 0.1731171
1.0591915 -0.6727096 1.1376101 -0.96667373 0.15522471 1.1316326 -0.046310898 0.2621573
0.20052297 -0.06770494 0.95405626 -0.038670953 0.62531614 -1.2118912 -0.9631098 -1.0449337
0.18677674 0.5195234 0.27941176 0.42882246 0.13764387 0.17636871 -0.0073263003 1.0991349
1.0096235 -0.4409397 0.1589237 -0.47923988 -0.862626 -0.36125764 0.12287987 0.14570926
0.30906147 -1.7626708 -0.36901164 0.74456376 -2.1648529 0.8494229 0.45009154 0.3507602
-0.036216665 -0.39654 1.0520554 0.89462453 0.71090484 -2.5343196 1.001404 -0.031773694
0.7032434 -1.1938083 0.13362662 0.24769767 0.2214346 -0.5117423 0.15523237 -0.30518094
-0.5569944 -0.5149468 0.02524022 0.06277417 -2.7571177 0.19382478 -1.0941341 -0.49816036
-0.8016873 0.11601937 -0.8422968 -0.5916542 -0.50913316 -0.5517202 -3.6007986 0.022807479
0.5985441 0.09903733 0.19073047 -0.1655514 0.35119537 0.25454822 0.19050154 0.46922076
-1.4286662 0.08139722 -0.009382218 0.5019961 1.2148564 0.19083282 -0.1057448 0.5196127
0.30902007 -0.95890206 -0.27464876 -0.98612493 -0.42607594 0.2906156 -1.729478 -0.0062561175
0.5476955 -0.7678192 -0.3724783 2.3489347 -0.34948456 -1.4230499 -0.589968 0.37638044
-0.9518606 -0.14898613 0.8798391 0.34898093 -1.4115462 0.049262427 0.089894615 -0.68551475
0.1899241 0.31557804 -1.5572655 0.66752976 0.31225872 0.15279084 -0.34215945 0.30045435
0.31409952 -0.7602766 -0.63025624 -0.4394909 0.24984738 -0.68331486 -0.20586145 0.11401371
-0.027567156 0.5161509 -0.58941776 0.15032792 0.5618272 0.39049864 -1.43243 0.14316328
0.22913173 -0.69948745 -0.031145206 -0.82592887 -0.07001319 0.2093627 -0.47805116 0.6012724
0.17745624 1.1282494 0.16082606 -0.036303036 0.06993865 -1.0033672 -0.085548304 -0.027185647
-1.0627505 0.5101861 -2.1000204 -0.87691534 0.31545427 -0.86853653 0.27883965 -0.029723667
-0.60530144 0.39230466 0.09877467 0.03127032 -1.6963301 0.014610482 0.7407695 0.18892974
-0.4895531 0.44070384 -0.5946475 -0.2448115 0.23225008 -1.4012172 0.24666557 0.2983009
-0.91279733 0.5802468 -0.8969253 -1.3257718 0.3103157 -0.2983576 0.19305286 -1.4212523
0.19996369 -0.028134486 -0.7243498 -1.182614 0.14201815 0.40583628 -0.05262847 -0.49804187
00000000: 5707 e6bd fcf9 e2be 5ad0 133e 4fa6 8abf
00000010: 9685 99bf 7bfc 5a3e 211f a53c 3995 e9be
00000020: aa51 413e 6f8d 47be 3b81 943e 361b 163e
00000030: 314b 29bf aa6e 703e ac88 2ebf fd36 2a3e
00000040: c27b 643d f843 c3bf 1adf 513f 14d6 d3bf
00000050: 4f3b 86bf a0e4 803d c46f bfbd 558e c0be
00000060: 1433 aa3f 3976 80bf a0af a4bf 9ec9 153f
00000070: 17c2 0dbe e840 b93e 8640 8b3e 1156 653e
00000080: 58c8 bdbc 409f 4a3f da59 713e 7476 563e
00000090: bd81 c13e fc97 543e 2de0 42bf baa6 6f3e
000000a0: e745 d3be 1962 9a3e 928b 133e 3818 2d3e
000000b0: 7d7e 993e e5fa dc3e 7f67 60be 652a 723c
000000c0: 3522 0d3e 263b 17bf f1f6 87c0 0473 fabe
000000d0: 0242 b83e 698f 46bf 2327 d8be 2d50 933e
000000e0: f21a a3be 6d61 47bf 94e2 b43e 0a7a b03d
000000f0: fa0c ea3e 54c4 cebb 1250 a3be 9c45 313e
00000100: 9693 873f b236 2cbf 359d 913f ee77 77bf
00000110: 3af3 1e3e 56d9 903f 7fb0 3dbd 7b39 863e
00000120: e555 4d3e e3a8 8abd 083d 743f 6f65 1ebd
00000130: b814 203f 401f 9bbf 5d8e 76bf 63c0 85bf
00000140: 6742 3f3e 7cff 043f 0f0f 8f3e 9e8e db3e
00000150: 84f2 0c3e 009a 343e 7611 f0bb 74b0 8c3f
00000160: 583b 813f d9c2 e1be e5bc 223e ee5e f5be
00000170: 0fd5 5cbf c3f6 b8be 71a8 fb3d cf34 153e
00000180: 4e3d 9e3e 329f e1bf 18ef bcbe bb9b 3e3f
00000190: f38c 0ac0 c773 593f 6672 e63e d796 b33e
000001a0: ed57 14bd 4a07 cbbe c0a9 863f 1d06 653f
000001b0: dcfd 353f 4b32 22c0 022e 803f 2225 02bd
000001c0: c207 343f b6ce 98bf 6bd5 083e 75a4 7d3e
000001d0: c0bf 623e 8b01 03bf 3cf5 1e3e ad40 9cbe
000001e0: 2f97 0ebf 8ed3 03bf 94c4 ce3c be8f 803d
000001f0: 9e74 30c0 017a 463e 960c 8cbf e00e ffbe
00000200: 613b 4dbf 909b ed3d c3a0 57bf a676 17bf
00000210: 8d56 02bf 893d 0dbf 7c73 66c0 c0d6 ba3c
00000220: 303a 193f 15d4 ca3d d94e 433e 4e86 29be
00000230: e1cf b33e 2554 823e d612 433e b43d f03e
00000240: 89de b6bf 96b3 a63d e0b7 19bc d182 003f
00000250: 6a80 9b3f ae69 433e bb90 d8bd 5705 053f
00000260: e137 9e3e 9b7a 75bf c39e 8cbe af72 7cbf
00000270: a026 dabe 91cb 943e 895f ddbf 1e00 cdbb
00000280: c635 0c3f cd8f 44bf 7ab5 bebe f254 1640
00000290: a4ef b2be 8026 b6bf 2508 17bf f0b4 c03e
000002a0: 23ad 73bf d28f 18be 233d 613f a1ad b23e
000002b0: 8cad b4bf 66c7 493d ab1a b83d e57d 2fbf
000002c0: 777b 423e 7293 a13e 7a54 c7bf 3be3 2a3f
000002d0: 60e0 9f3e 3475 1c3e 862f afbe 27d5 993e
000002e0: a7d1 a03e 7da1 42bf 7958 21bf f404 e1be
000002f0: fed7 7f3e b9ed 2ebf 58cd 52be 0580 e93d
00000300: 84d4 e1bc 7722 043f 15e4 16bf 90ef 193e
00000310: e8d3 0f3f 70ef c73e de59 b7bf 6599 123e
00000320: 82a1 6a3e 9c11 33bf 3b24 ffbc 1370 53bf
00000330: 1363 8fbd 2d63 563e 1fc3 f4be fdec 193f
00000340: 17b7 353e 7a6a 903f 96af 243e 7eb2 14bd
00000350: ff3b 8f3d 566e 80bf f333 afbd 6fb4 debc
00000360: 3508 88bf 8e9b 023f bc66 06c0 867d 60bf
00000370: 3983 a13e 6958 5ebf 12c4 8e3e 0c7f f3bc
00000380: 09f5 1abf 28dc c83e 604a ca3d 4f15 003d
00000390: 5821 d9bf ce60 6f3c 12a3 3d3f cc76 413e
000003a0: b4a6 fabe efa3 e13e d23a 18bf deaf 7abe
000003b0: f7d2 6d3e 165b b3bf e695 7c3e e5ba 983e
000003c0: 16ad 69bf 0e8b 143f e59c 65bf e4b2 a9bf
000003d0: b3e1 9e3e 54c2 98be a6af 453e 98eb b5bf
000003e0: 48c3 4c3e 4b7a e6bc fd6e 39bf e55f 97bf
000003f0: 356d 113e c6c9 cf3e f390 57bd 58ff febe

fc3.bias f4 [10]
-0.018876819 -0.03273735 0.036856793 -0.01978249 -0.014433508 0.03102806 -0.050918344 0.023801547
-0.101455346 0.013851803
00000000: 8fa3 9abc 9917 06bd 26f7 163d e30e a2bc
00000010: 857a 6cbc 8f2e fe3c c18f 50bd 76fb c23c
00000020: d2c7 cfbd acf2 623c
