train_pth/best_model_epochs50_batches64.pth (torch, 250377 bytes, 10 tensors)

conv1.weight f4 [6, 1, 5, 5]
00000000: 2242 2abe 30ba 3fbf d0b5 cebe dfa0 393f
00000010: 0167 293f 2e62 84be a21e 4fbf b16d 26bf
00000020: 6212 003f a9f4 4e3f f93f 13be 93d3 adbf
00000030: b5c9 41bf 7e41 c03d 419e 3c3f 52c9 3c3e
00000040: 97c9 4cbf a5c9 7bbf a713 ecbc ac3c 0f3f
00000050: 2f0f 303f a3f3 f3be d668 0fbf 79c5 b53d
00000060: 1c72 0a3f 9dfa c33f e4e9 4340 6d69 4a40
00000070: f464 f23e 440b fbbe 60d9 1040 9bf2 ef40
00000080: a341 e240 586a 1940 6674 66be 1163 273f
00000090: b554 e340 d771 0841 ec0c 2040 2518 65bf
000000a0: 83de 33bf e167 523f a940 3040 1270 083f
000000b0: 6ef1 86bf bfdc a2bf 4040 1dbf b37b 0ebe
000000c0: f3a5 25bd 83f0 d2be 3148 c63e 818e 7c3f
000000d0: a687 a13f ced0 783f c88b 7c3f 6c0d 19bf
000000e0: 8cdf 30c0 23b9 c4c0 dac7 6fc0 00e7 053e
000000f0: 8f28 23bf 2e7f 6fc0 f4e3 17c1 00d6 dec0
00000100: 5ace 08bf 9cd8 9f3e b589 943e 04e1 1cbf
00000110: bf16 2ebf 7a1c 58be c353 503f 4dfe 803f
00000120: ec82 753f 7ff1 413f be78 9e3e f66e 063f
00000130: fd79 843f 01b3 703f bf22 a23f cd3e 823f
00000140: 1ea0 f33c 11ac b1bf de14 18c0 0675 35bf
00000150: 2386 533f 4d05 663e 394c 8ac0 a1b0 2ac1
00000160: 9fcd 22c0 ca71 6d3f ced6 f83e 680a 1dbf
00000170: ff3c 87c0 1bd6 b2bf fac2 233f 14d4 893f
00000180: 10b6 6d3f 2a8c 0dbe cb93 f8be 72bd 0d3e
00000190: 56bf f03e 0f35 3ebf de32 91bf c491 ecbe
000001a0: 6819 fc3e 344d 813f fdf0 4dbf e0c7 c8bf
000001b0: 2bfe 03bf 0591 553f d538 763f 6321 d3be
000001c0: c424 b7bf b4d5 04bf 30cf 1b3f bd9e 803f
000001d0: 6b26 acbd 1abf 4bbf c915 16bf ea62 353f
000001e0: 6b3f a53f 25c3 63bd fbe5 28bf 7e0d afbe
000001f0: 0a3c 1f3f 860a a7bf 712c 59bf b8ab 6d3e
00000200: 17f5 5b3f f741 893e 7da4 44bf 4c93 18bf
00000210: 3cb9 d83e 5790 983f 9edb d23e 52dc 9cbf
00000220: 7ab3 71bf a697 c93e 440c f03f afe8 683f
00000230: 780c a7bf 7460 70bf c735 9c3e faf7 c13f
00000240: c1ad 003f 5cb3 bebf 8ffb 94bf 0771 513e
00000250: 44ac b03f 32b7 333f
-0.1662679 -0.74893475 -0.40373087 0.72511095 0.66172796 -0.25856155 -0.80906117 -0.65011126
0.5002805 0.8084207 -0.14379872 -1.3580192 -0.75698406 0.09387492 0.73678976 0.18436173
-0.799951 -0.9835456 -0.028817965 0.5595195 0.6877317 -0.47646818 -0.5601934 0.088755555
0.5408037 1.5310856 3.0611506 3.1626847 0.47342646 -0.49032032 2.2632675 7.498365
7.0705123 2.3971157 -0.2250534 0.6538554 7.10409 8.527793 2.5007887 -0.89489967
-0.702614 0.82189757 2.7539465 0.53296006 -1.0542428 -1.2723616 -0.6142616 -0.13914375
-0.040441465 -0.4119912 0.38726953 0.98654944 1.2619522 0.9719361 0.9865079 -0.59786105
-2.7636442 -6.1475997 -3.746573 0.13076401 -0.6373376 -3.7421374 -9.493153 -6.963623
-0.5343987 0.31219947 0.29011312 -0.61280847 -0.6800346 -0.21104613 0.8137781 1.0077606
0.95902896 0.7575912 0.30951494 0.5251306 1.0349728 0.9402314 1.2666854 1.0175415
0.029739436 -1.3880635 -2.3762736 -0.7088169 0.8262655 0.2246296 -4.3218045 -10.668122
-2.5438 0.92751753 0.48601383 -0.61344004 -4.226196 -1.397159 0.63969386 1.0767846
0.9285593 -0.13823 -0.48550257 0.13841799 0.47020978 -0.7429971 -1.1343648 -0.4620496
0.49238133 1.0101686 -0.80445844 -1.5685997 -0.51559705 0.8342441 0.9618047 -0.4123641
-1.4308095 -0.51888585 0.6086302 1.0048443 -0.08405765 -0.7958847 -0.5862699 0.70854056
1.2909979 -0.055606026 -0.6597592 -0.3418998 0.6220099 -1.3050086 -0.8483344 0.23210037
0.8592085 0.2680814 -0.7681349 -0.5959976 0.42328823 1.1919049 0.4118318 -1.2254736
-0.94414485 0.3937351 1.8753743 0.90980047 -1.305068 -0.93897176 0.3050978 1.5153801
0.5026513 -1.4898486 -1.163927 0.20453273 1.3802571 0.7020141

conv1.bias f4 [6]
00000000: 44fd 1f3f ebc9 55bf 5b5c 213f f1d1 9c3e
00000010: 69f0 99bc 1e02 d6be
0.6249583 -0.8351123 0.6303155 0.30628923 -0.018791394 -0.4179849

conv2.weight f4 [16, 6, 5, 5]
00000000: d8c4 74bb 3e27 4a3e 13de 223e 975b 61bf
00000010: 2e1f 6bbf c68f 163e 32c7 a23e 0260 c53e
00000020: 1bdb 45be 2e5a dfbe b510 b9be 7961 a8be
00000030: cdad 8bbd fc37 833e 016b e23b e7f6 bebe
00000040: 0b37 fcbe b4e1 95be 5710 b13e 5ccb d23e
00000050: 2b8e 09be 0484 a6bd d40d 2cbe b861 8b3e
00000060: a827 e73e 3faa 1ebd 8acb 67bd 6aad 8fbd
00000070: 0c10 b13e 70ee ae3e b047 0dbd b80c 25be
00000080: 2b4c 00be c285 febd d79a 743e e020 61bd
00000090: 07f3 45be 92a9 c0be 503e ffbe 638a 35be
000000a0: 7b91 883d 8572 d3bd 0ad3 13bf 8a4d 42bf
000000b0: bd20 d7be b3c2 5f3e 6239 0bbe 7290 c7be
000000c0: ce68 c2be 4ff0 f8be b48c bc3c 63e8 a03d
000000d0: f4b8 28be 0492 6ebf 8a53 90be e991 ca3d
000000e0: 0612 9a3e 8aef 513e c783 44bd 7eb0 05be
000000f0: 8470 11be eeee bd3d 413f 453f 7afa 623f
00000100: d465 563e 1ba1 1abf bd5d 7e3c fa03 333f
00000110: 2dc0 963f 2d0d 8f3e b361 4ebe a464 a53e
00000120: 9a59 143f 9689 3e3f 7ff6 0e3f b3d5 073e
00000130: e34e bb3e 350a 663e 7886 6ebf b5b9 7dbe
00000140: b79a 6c3e 5730 f13e 567b 1d3f 75f0 343e
00000150: eecc 663c ed9b c5be 3968 f6bc b425 293f
00000160: 4484 923f 6f48 573e 8bd5 4abf 7074 40be
00000170: bd07 f43e 84a0 993f d337 ac3e d73d 4abe
00000180: aa20 a33e 25a7 073f 01f2 573f 6eff 283f
00000190: 498f 113d dc0d 6b3e 934d a8bd 0394 b0bf
000001a0: ab70 1cbe df94 593e af21 d03d 91d5 be3d
000001b0: db3c 3cbf f3f1 3abd ce5b 9e3c 096b c5bd
000001c0: 89ad 9b3e 97f5 413e 7534 f23a d78f fbbe
000001d0: 8a11 1ebf 5c35 0cbe 0105 273f 247f b6bd
000001e0: 07e9 0fbe 54f6 93be 9b4e 0ebd afac 563f
000001f0: 2430 833e e1da 8b3d 4bf7 993e eed1 733f
00000200: 42b7 ad3e 50f2 0fbf e218 4fbd 7a16 3cbe
00000210: 6a18 123e 2724 1d3e d5c9 b4be 43f7 d83d
00000220: c954 78be 8cb9 f6be 72f4 d5bd 5afa e53e
00000230: 5a86 7c3e 345d 3abe 2361 56bf 02bf b3be
00000240: ae1e 1f3f d05b 113e dd22 263e a1a0 01bf
00000250: 655f 24bf f160 c83e 3184 173e 2c4d d9bd
00000260: 5ca7 893e 80e6 9b3e 5867 31be fd21 d93d
00000270: e2c4 843d 0c5c a23d e07b b5bd aa39 e0be
00000280: b587 0bbd b8c5 4f3e 5d19 1b3e 762c 213e
00000290: 914f a0be ab05 37be db47 b63e 02c8 ea3e
000002a0: 8601 9e3e e354 9dbd 7156 9ebe b6f4 863e
000002b0: 4b4c 283f 9dda 1c3f de7b 13bc c9a5 03bd
000002c0: 3643 cebd 0fa7 06bf 0e70 8fbe 1abf 56be
000002d0: e2c9 5dbe a0d8 25be 9a57 53be f3a7 96bc
000002e0: 7b56 96bd d5e8 85be 92bf 32be 7e7d 75be
000002f0: 005a aebd a73e 70be 8b69 39be ab65 0abe
00000300: db78 01be a299 68be 27f2 9dbe b5d5 75be
00000310: 4d40 87be a7c2 56be 3cc5 85be b16c bebe
00000320: f266 5bbf 9c6c e7bd 7173 e03f 8712 3a3f
00000330: c211 93be f69d 73be e654 4ebf 415a a9bf
00000340: a91e c7bf 4274 31bf 7c12 383d bc2c 26bf
00000350: 590b 7cbf 2f45 b0be 5b56 713d 6ee8 9c3e
00000360: 940f a4bf 9f81 aebf da08 f93e 6f72 213f
00000370: f1d3 f13e f0bc f33e 6abc 89bd 717a f13e
00000380: 1a80 fe3e dc76 43be 070a 94bd 0c60 be3f
00000390: 0a58 163f 31d9 323c 5c82 aabd 7a7d 15bf
000003a0: afe4 84bf fc48 b4bf f0c6 14bf c817 cf3e
000003b0: 173c 163f 33dd 743e 6b60 183f ea25 a93e
000003c0: cecc ac3e 439c 553f 22cd 913f 1354 953f
000003d0: 625b 3f3f 4e71 d13e b6d8 0940 eaeb d33f
000003e0: 0053 3b3f 6d59 983e 5af1 a1bd e293 7a3d
000003f0: 61a4 9a3f 0dee 603f ce32 653e efbc 253e
-0.0037348773 0.19741532 0.15905027 -0.8803038 -0.9184445 0.14703283 0.317926 0.3854981
-0.19321863 -0.4362349 -0.3614556 -0.32886866 -0.06820259 0.2562865 0.0069097285 -0.37297747
-0.49260744 -0.2927376 0.3458278 0.41170776 -0.13433139 -0.08130649 -0.1680215 0.2722299
0.45147443 -0.038736578 -0.056590594 -0.07015498 0.34582555 0.34166288 -0.034492195 -0.16118133
-0.12529056 -0.12427856 0.23887192 -0.054962993 -0.19330989 -0.37629372 -0.49852228 -0.17728572
0.06668373 -0.10324577 -0.57743895 -0.75899565 -0.42017165 0.21851616 -0.13596109 -0.3897739
-0.37970585 -0.4862084 0.023016311 0.07856824 -0.16476804 -0.9319155 -0.28188735 0.098911114
0.30091876 0.20501533 -0.047977235 -0.13055608 -0.14203078 0.09274088 0.7704964 0.88663447
0.20937282 -0.6040208 0.015525279 0.6992794 1.1777397 0.2793974 -0.20154457 0.32303345
0.5794922 0.7442869 0.55844873 0.13265114 0.36583623 0.22464831 -0.93173933 -0.24777873
0.23105894 0.47107193 0.6151632 0.17669852 0.014086945 -0.38595524 -0.030078994 0.66073155
1.1446614 0.21023725 -0.7923209 -0.18794417 0.47662154 1.200211 0.3363634 -0.19750153
0.31860858 0.5298942 0.84353644 0.66014755 0.035537038 0.22954506 -0.08217921 -1.379517
-0.15277354 0.21248196 0.10162675 0.09318078 -0.7353036 -0.045640897 0.019330885 -0.09639556
0.30405834 0.18941341 0.0018478768 -0.4913318 -0.6174551 -0.1369223 0.6524201 -0.08910969
-0.14053737 -0.2889887 -0.034742933 0.83857244 0.25622666 0.06828857 0.30071482 0.952422
0.33928877 -0.56229115 -0.05056084 -0.18367949 0.14267126 0.15345822 -0.35310236 0.105940364
-0.24251093 -0.48188436 -0.10447015 0.44917566 0.24660626 -0.18199617 -0.8374197 -0.35106665
0.6215619 0.1419518 0.16224237 -0.50635725 -0.6420806 0.3913646 0.14796521 -0.106104225
0.26885498 0.30449295 -0.17324579 0.10602186 0.06482865 0.07927713 -0.08861518 -0.43793994
-0.034064967 0.20290267 0.15146394 0.15739617 -0.31310704 -0.17873256 0.35601696 0.4585572
0.30860537 -0.076822065 -0.30925325 0.26358575 0.65741414 0.6127108 -0.0090017 -0.032140527
-0.10071413 -0.5259866 -0.28015178 -0.20971337 -0.21659043 -0.16195917 -0.20638886 -0.018390631
-0.073407136 -0.261542 -0.17455891 -0.23973653 -0.0851326 -0.234614 -0.18106668 -0.13515346
-0.12643759 -0.22714856 -0.3084881 -0.24007304 -0.26416245 -0.20972691 -0.2612704 -0.371923
-0.8570396 -0.113000125 1.753523 0.7268452 -0.28724486 -0.23790726 -0.80598295 -1.3230668
-1.5556232 -0.6931802 0.044939503 -0.6491201 -0.98454815 -0.34427783 0.058920246 0.3064608
-1.2817254 -1.3633307 0.48639566 0.63065237 0.4723201 0.47605085 -0.0672539 0.47163728
0.4970711 -0.1908831 -0.07228475 1.4873061 0.58728087 0.01091604 -0.08325645 -0.5839459
-1.0382289 -1.4084773 -0.58116055 0.4044783 0.5868544 0.23912506 0.5952212 0.3303674
0.33750004 0.8344156 1.1390727 1.1666282 0.74748814 0.40906757 2.153852 1.655637
0.7317352 0.29755726 -0.07907362 0.06117619 1.2081414 0.87863237 0.22382662 0.16185354

conv2.bias f4 [16]
00000000: 0d67 963c 0c97 57bc 232c 07be d1ab 14be
00000010: 5fb2 fabd 38c5 35bc 2b4d e33d 6333 0b3e
00000020: 7408 233e d8d6 97bd 3bea ccbd 9b3b 37bc
00000030: 4298 503d f20c cf3d 91b9 f1bd 9520 2bbe
0.018359685 -0.013158571 -0.1320043 -0.14518668 -0.12241053 -0.011094384 0.11098703 0.13593821
0.15921193 -0.07414025 -0.100056134 -0.011183645 0.050926454 0.10109891 -0.11802972 -0.16711648

fc1.weight f4 [120, 400]
00000000: 150e e5be a659 003e 9370 ff3c 32ac 073f
00000010: f737 a3bd 4fb9 7cbe 91bf 243f 2dbf 943f
00000020: f9c8 e9be 9cc4 853e 349d 713e db3f d1bc
00000030: 02cc db3e 1c42 95be 7648 cabe e38d 083f
00000040: 3ac6 8b3f b55c 223f 1d1b e13a 0ec0 6bbf
00000050: 0b5a 3dbd 328b d13e ae76 c3bd 896c 5b3f
00000060: cae9 05be 9185 0a3e ad87 8c3e 06bb 5fbe
00000070: d618 2f3e 2752 eabc ff45 ed3d 0553 1f3e
00000080: 4058 953e 081d 8ebd 19fc 423e 1965 2f3c
00000090: 333f ba3e e6f1 db3e 3efb f1bc b56b bf3c
000000a0: fdf5 d3bd 8d6e 0e3f ef97 e13e a2fa fe3d
000000b0: ba11 d0bc 860e 0fbf 523d 9abe fbee 54be
000000c0: f9fc 953a b9b3 45be 5aa7 d4bd 6409 a8be
000000d0: 6752 67bd af99 a9be 8878 fa3d 9d33 85bd
000000e0: a9d2 74be 1e5d 82bd 6a42 dfbd a6e8 8dbd
000000f0: 7d52 563d 3442 18bd ddb9 07bd 8c6f 633d
00000100: bac5 5d3d 909a 8a3d 26c9 143e 259e 853c
00000110: 4fd8 a73d 5cef 443e d1f6 dfbd 3f93 cabd
00000120: f47f 91bd 8b3b caba bdd2 863e 1922 cf3d
00000130: c138 8abd 5e79 643d a620 bbbe 1242 d23e
00000140: 03af b73e 20ad 1abf b18c 463f e33a debc
00000150: 9ed4 c9be e54e d23d fb8c 25bf f91b d13e
00000160: 7cf3 7e3e 2d15 cbbe a101 baba 65db dbbd
00000170: 9bbf bd3e 817a 943e ed30 98be bddc 86bd
00000180: c2b4 3f3e 0236 bf3e dcea ac3e d38e 8fbd
00000190: 5a7c 2abe 5afc 943e f5f7 503d c217 423e
000001a0: a7eb 273f dba2 dcbd c442 84bd 7c20 6dbe
000001b0: bcb0 83bb 872c 18bc 1637 dd3d 7765 96be
000001c0: b0c2 67be 114e e33c 8e69 67bd 2b4d b23d
000001d0: a6b1 8bbd b1b1 95be 9a4d 5bbe 77ac 1fbe
000001e0: 90ca ee3e 0099 b73e d8cd 77be 9840 b83c
000001f0: c508 acbe 6048 fbbd c256 37be 0d25 df3d
00000200: 498e d9bd 125f 63bd 49ad cb3c e874 54bd
00000210: e050 0bbe b810 b8bb cdcb 9f3d 0f0e bb3d
00000220: 9cf5 1abc aea9 723c aa08 403d 2502 113e
00000230: e440 3a3d ecb7 fc3c 23de 913d 841e c33c
00000240: 2f1f 7e3e 4c6b 563e fba6 6ebd 16e9 3a3d
00000250: a6e4 80bc 132a 313e 0319 1fbf 7348 133f
00000260: bd6b 63be 6a58 3a3f 8d64 02be 5268 6abf
00000270: 69ad bf3c 9501 373c 9a83 333c f69f 823e
00000280: 7344 42be 3b29 e43e bc6f a23e 21c1 b3be
00000290: ebde 3bbd d9d2 0bbe 38c0 ac3e 2d3f ce3e
000002a0: 5bb7 8a3e 3657 58be cb3a 2c3d 0d0f 0a3f
000002b0: ea05 9cbe 1ae6 3c3f aa38 c9bd c79a a83d
000002c0: b497 1abe 40ea 0fbf f2bc 11be 02fa 93be
000002d0: 9920 91be a112 523e 08f2 8fbd 9f6f cdbd
000002e0: 6502 95be 0a07 8c3d cfa2 353e f00d 82be
000002f0: 0f00 1fbb 09f0 0cbf eb2f 233c 05a9 863d
00000300: bb57 e1be e874 09be e081 b7be 257c 323f
00000310: 2328 323e 54c2 a8bd 3fd9 aa3e 744f 3e3f
00000320: f065 01bf e2e6 203f 6d21 35bf 32d2 073e
00000330: ff6c 54bf 4eff 3fbd d1b8 0d3f 28fb b73e
00000340: 326c 93bd d680 fdbe 3bc9 15be 3e08 013f
00000350: b597 b13e 3441 6dbd 8c14 34bf 9d9c bfbd
00000360: ccdd 003f 4490 973e 94bb 6f3e de8b 1cbf
00000370: f0e4 c9be a298 b6bc 42f8 193e 425c d63e
00000380: 82e4 53bb 87de d5bc 7fc0 5b3d 4f3b f63d
00000390: a4a5 e53d f901 ba3d b14f f63e c55a 17bd
000003a0: de9d 1abe 07aa 2dbe 92fe 353e 423d 6e3e
000003b0: a070 19be b64b f1bd 45b9 ff3c 6267 613e
000003c0: 06e8 d63d 7aea 3cbd 8444 e1bd b399 953d
000003d0: 6a38 a63d b283 89bd 78e9 b33d ce49 67be
000003e0: c3e3 0cbd f4a8 d83c a7a3 bc3d 353e d2bd
000003f0: ef21 a3be 90e8 cc3d c340 32bd c7d3 413e
-0.44737306 0.12534198 0.03118161 0.52997124 -0.07969659 -0.24680065 0.6435481 1.1620842
-0.45661142 0.26126564 0.23595124 -0.025543144 0.42929083 -0.29152 -0.39508408 0.533415
1.0919869 0.6342271 0.0017174218 -0.9208993 -0.04622845 0.4092651 -0.09544121 0.85712487
-0.13077465 0.13527514 0.27447262 -0.21848688 0.17099318 -0.028603626 0.11585616 0.15559013
0.29168892 -0.06939131 0.1904148 0.010705256 0.36376342 0.4295799 -0.029538747 0.023366788
-0.10349653 0.5563744 0.4406123 0.12450148 -0.025399078 -0.55881536 -0.3012491 -0.20794289
0.001144319 -0.1930684 -0.10383482 -0.32819664 -0.05647507 -0.33125064 0.12230021 -0.06503985
-0.23908485 -0.06365417 -0.10901339 -0.0692914 0.05232476 -0.03717251 -0.033136237 0.0555263
0.054143645 0.06767762 0.14529857 0.01631076 0.081955545 0.19231933 -0.10935748 -0.09891366
-0.07104483 -0.0015429122 0.26332656 0.101139255 -0.06749106 0.055779807 -0.36548346 0.41066033
0.3587571 -0.6042042 0.7755843 -0.027127689 -0.39420027 0.10268954 -0.64668244 0.40841654
0.2489757 -0.39664593 -0.0014191159 -0.107352056 0.37060246 0.28999713 -0.29724827 -0.06585071
0.18721297 0.37345892 0.33772933 -0.070096634 -0.16648999 0.2909878 0.05101772 0.18954375
0.6559395 -0.1077325 -0.06458047 -0.23156923 -0.004018871 -0.00928796 0.108015224 -0.29374287
-0.22632861 0.027747186 -0.05649715 0.08706125 -0.06820993 -0.2923713 -0.21416321 -0.15593134
0.46638918 0.35858917 -0.24199617 0.022491738 -0.3360044 -0.12269664 -0.17904189 0.10895739
-0.10622842 -0.055510588 0.024862902 -0.051869303 -0.1360507 -0.0056172274 0.07802544 0.09133541
-0.009457972 0.014810963 0.046883263 0.14160974 0.04547204 0.03084942 0.07122447 0.023818262
0.24816583 0.20939368 -0.058264714 0.045632444 -0.015734028 0.17301206 -0.6214754 0.57532424
-0.22209068 0.7279116 -0.1273367 -0.9156543 0.023398118 0.011169811 0.010956669 0.25512666
-0.18971424 0.44562706 0.31725872 -0.35108283 -0.045866888 -0.13654651 0.337404 0.40282574
0.27093014 -0.21127018 0.042048257 0.53929216 -0.30473262 0.7378861 -0.09825261 0.082326464
-0.15096933 -0.5621681 -0.14232233 -0.28901678 -0.28345183 0.20514919 -0.07028586 -0.10031056
-0.2910339 0.0683728 0.17737888 -0.25401258 -0.002426151 -0.55053765 0.009960155 0.06575207
-0.44012246 -0.13423502 -0.35841274 0.6972068 0.17398123 -0.0824019 0.3336887 0.74339986
-0.5054617 0.628523 -0.7075413 0.13263777 -0.82978815 -0.046874337 0.5536013 0.35933805
-0.07198371 -0.49512357 -0.14627545 0.504032 0.34686056 -0.05792351 -0.7034385 -0.093560435
0.50338435 0.29602253 0.23411399 -0.6115092 -0.39432478 -0.022289578 0.15036109 0.41867262
-0.0032332246 -0.026107086 0.053650375 0.12023031 0.11213234 0.090824075 0.48107675 -0.0369518
-0.15099284 -0.16959392 0.17772892 0.23265556 -0.1498437 -0.11782019 0.031216273 0.22012094
0.10493474 -0.04612205 -0.109993964 0.073047064 0.08116229 -0.06714572 0.08784765 -0.22586748
-0.034396898 0.02644775 0.09210902 -0.10265771 -0.31861827 0.10005295 -0.043518793 0.18928443

fc1.bias f4 [120]
00000000: 5db5 353d d33e ef3c 25c6 913d 8259 fe3d
00000010: b1eb 473d f3f0 363d bd7a b7bc 497d 6bbb
00000020: 8b05 7fbd 04bb fb3b aabc 36bc da12 b1bc
00000030: 7f05 99bd b181 923b e200 33bc 5acf 42bd
00000040: f022 c73c b6d9 273d 924d 2cbd 013f f93c
00000050: e495 4e3d c789 ecbd 7dc0 eb3c 2da8 babc
00000060: 480a c13c f36d 583d a8f2 e7bb fe2a 4b3d
00000070: 4fc3 e43c e4d7 c4bb 3cc0 673d 03bf 193d
00000080: 8454 913d 3248 5c3d c59a e13c d841 06bd
00000090: ba6d c3bc d55d 8fbc f1d7 503d 8cab 8e3d
000000a0: f33e 55ba 1373 6fbd 1023 683d 6ceb 2ebd
000000b0: d58b 263c b456 053d 608a 5a3d b30d 9f3d
000000c0: cba3 783d 2af0 2c3d f7ca 823c d36d e8bd
000000d0: 3823 35bb ec34 303d d5a6 1c3d 97c2 14bd
000000e0: 30d4 cabc 0f2d a43d 0349 93bc 5900 9b3c
000000f0: 3730 3e3d 1f28 87bb 6ce0 ddbc f6c4 e93c
00000100: d6c2 ffbc df43 d6bc e5fc e53c dad0 94bd
00000110: 2643 be3d b4a7 19ba b444 ae3b 7519 fabd
00000120: 690f be3d 9edb 4cbc 9a03 75bd 1d56 b23c
00000130: 1b69 afbd ace1 8b3b 7c85 36ba a823 5cbc
00000140: 8082 1b3d 3f4d c4bd db62 8c3d 8ece 483d
00000150: 1731 5eb9 f8d6 843d 7d7f 85bd 4ae0 29bc
00000160: c715 483d 3fb0 e1bd 0ddd e73c b324 33bd
00000170: 778f 46bd 1520 163d bd40 12bc 397c 25bd
00000180: 6ff8 913d fec2 64bd 283a 30bd 5741 f4bc
00000190: 5c68 60bc bc80 4bbc 60c1 91bc 677d 193d
000001a0: 544a be3d cb99 6ebd 8b72 c5bd 44ce 0e3d
000001b0: 3a7b b23b 9e31 683d 25bb 7dbd bde6 03bd
000001c0: 9320 023d c0c8 97bd 9efd 043d 2754 6d3b
000001d0: 2abf 873d 56d8 bebc 7a35 543b 35eb 293d
0.044362415 0.029204762 0.07117871 0.12419416 0.048808757 0.04466338 -0.022397393 -0.003593283
-0.062261146 0.007682206 -0.011153379 -0.021615434 -0.074717514 0.004471027 -0.010925503 -0.047561027
0.024308652 0.04097911 -0.042066164 0.03042555 0.050435916 -0.115497164 0.028778309 -0.02278527
0.023564473 0.05283923 -0.0070784874 0.049601547 0.027925162 -0.0060071815 0.056579813 0.03753568
0.07096198 0.05377979 0.02753962 -0.032777637 -0.023856033 -0.017500797 0.050987188 0.06966314
-0.00081346853 -0.058459353 0.056674063 -0.042704985 0.0101651745 0.03255339 0.05335462 0.07766285
0.06070308 0.042221226 0.015965922 -0.11349072 -0.00276394 0.04301922 0.03824504 -0.036318388
-0.024759382 0.08016407 -0.01797915 0.018921064 0.0464327 -0.004124656 -0.027084552 0.028536301
-0.031220835 -0.02615541 0.028074691 -0.07266398 0.09290151 -0.00058614765 0.0053182486 -0.12211887
0.09280283 -0.012503533 -0.059817888 0.021769578 -0.08564969 0.0042688455 -0.000696264 -0.0134362355
0.03796625 -0.09585046 0.06854793 0.04902511 -0.00021189857 0.064863145 -0.06518457 -0.010368416
0.048848893 -0.110199444 0.028303647 -0.04373617 -0.048476662 0.03665169 -0.008926568 -0.04040167
0.07127463 -0.05585002 -0.043024212 -0.029816313 -0.013696756 -0.012420829 -0.017792404 0.03747311
0.09291521 -0.058252137 -0.09640988 0.03486468 0.0054468187 0.056687944 -0.061946053 -0.03220247
0.031769346 -0.07411337 0.03246843 0.0036213489 0.066282585 -0.023296516 0.0032380507 0.041484077

fc2.weight f4 [84, 120]
00000000: b449 eb3d 838a 0c3f 1c7d 613d 9862 8b3e
00000010: 5bf6 0c3e e9bd 8d3d 1ff8 77ba 2b07 b7bd
00000020: 6531 95be 67fc 06bf 435f 00be afff 0d3e
00000030: dd36 873e 4bc4 7e3e a9a0 28bc af7c e0be
00000040: ad84 4f3e 3bce 8ebd 1d4c de3e 1a0c 0d3a
00000050: 9870 b7bd 2e6d d6bd e868 5bbe cc46 ee3d
00000060: d50b 4bbe 31eb 89be 5dc7 f73e a0a6 213e
00000070: 8696 e43e 067b 1cbf ae68 693d d14b be3d
00000080: b1e4 503e 3360 353d ecba 53be 425c c5bd
00000090: 43dd 09be 5a23 07bf c522 f4be 1f28 9bbd
000000a0: 35d2 39be 37d4 b3be b486 463d 35ae bd3e
000000b0: 7117 ad3e cffb 583f fa5d d53d 82ea 3b3e
000000c0: 5503 423e 5ef2 b63d 2d19 07be 290c aebf
000000d0: 08da 3d3e 4df0 143e 347b 4cbd 97fc b93e
000000e0: e846 3cbf 649d 1ebd 5a6d b73e d02c f83d
000000f0: d4d3 813e 5bb9 f43c 09d4 69bd 543d 87be
00000100: 04b3 b23d 557a 81be 212d 453e 91bc 963e
00000110: c20a f23d bb2c 3b3e c8aa 413c 5412 58bf
00000120: e21d 8a3e f62d 39be 5fa6 d6bf c9e0 76be
00000130: 5023 98bf dc75 10bf df07 fcbd d457 5e3b
00000140: eadd 4abd 8ce6 60bf 8db8 463e 602c 25be
00000150: 030e dbbd e043 0f3f 1569 8bbe a25e b6be
00000160: 569a 143e 5508 d2bf cd6a 863e 289a b73e
00000170: bd64 f5bf de19 edbd 39f0 133f d395 4fbe
00000180: ce75 1a3e b5ff e93c e084 82bf 91ba c6bd
00000190: 2a5c 333e 4056 00be f8c5 c63e 9cc6 903d
000001a0: 6af8 ae3e 8aae efbe c43c a33d 39cc 2f3c
000001b0: f32f 5cbe d2ac 9d3e b5b8 82bd ac80 3d3e
000001c0: 32a3 453e d8e8 2d3e 5cdd 8cbd efcf ca3d
000001d0: 1f15 9b3e ae67 003e 9d92 bdbe dfaa 69bd
000001e0: 5207 3fbe b4d5 473f 2d04 0e3f 91ef f83e
000001f0: 0c9e 1dbe d8aa 123d d8cb 28be 0fc8 4f3d
00000200: 278b 403f b728 443f 5233 09be 3f0a 763e
00000210: a0db ebbd e231 2b3e 2a53 8ebe 807d 063d
00000220: be9f 80be 5f37 36be fccb 9abe 9b3d 56bb
00000230: 84ac 38bf ae9d 94bf 4c04 81be 3a02 f0be
00000240: eb44 eb3e ae4a 773d 3794 333e 32e5 13be
00000250: 3993 97be 5d61 27bf be2d c23c cd7a 01bc
00000260: f61e 143e ea9d 10be 8946 b4be 4ae1 323e
00000270: 995a a3bd 175d b9be 6053 eebe e479 1bbe
00000280: 5a45 74bf de3d a83d dce1 41be e83c dd3e
00000290: 7b4f 563f 938d a5bf 464a db3b d0df 0a3d
000002a0: dd22 253d 85c7 8b3e 6950 d4be 8ab3 2c3f
000002b0: 9b17 bebd bced 28bd 227c a9bd fcde 8d3e
000002c0: a587 d43e 858d 4c3e b5a6 753d a7a9 a03e
000002d0: ba58 a93e 7165 653c 5a5f a03f dc58 873d
000002e0: 6f4b 213f 1e9b c5be a902 2dbd 18ae d4bd
000002f0: fa5b e03d 1842 97be 6da5 96be 7da0 933e
00000300: c751 e13d 8704 db3d 4948 7d3f b13d d53e
00000310: ba68 883e 33cc 2dbe 61e9 6c3d aa4c a6bd
00000320: ccc5 dbbd 6379 683e efc8 0c3e 85a9 7c3c
00000330: aa05 4ebe 5b9b b43d 8ffd 55be 807e 24bf
00000340: efcf fc3d 3b25 60b9 8767 f8be c339 e9bd
00000350: 70cf 313e 24eb ccbe 7aaf df3e cbba ce3e
00000360: 7814 2e3e ed39 b4bd 305e 99bd cb1b a23d
00000370: 4594 193f f1d7 983d 8709 493f de19 01bf
00000380: 0dcd a9be 6e77 32be 45e1 e83e 1f09 983f
00000390: 7d1f 1f3f bbb3 983f afac 713e bae9 90be
000003a0: aa42 63bd 4100 5cbf e284 e13e 5c40 433f
000003b0: baf6 2ebe e7eb ecbd b630 15be fb93 0d3e
000003c0: 4dda 14be d93f fc3e b08d 27be 3a7c 093e
000003d0: f4ee 493e 0cfa 6abe 5cb1 373e e222 86bd
000003e0: 8f85 b2be c99f 963e 6cfb 323e ea15 b23e
000003f0: 791b 5e3e 60a5 19bf 3738 e93d ddbc 5cbf
0.11488667 0.5489885 0.055050954 0.2722366 0.13765852 0.06920988 -0.0009459275 -0.08936914
-0.29139248 -0.52728885 -0.1253634 0.13867067 0.26409045 0.24879567 -0.010292211 -0.43845126
0.20265456 -0.06972929 0.43417445 0.00053805264 -0.089570224 -0.10470043 -0.21426737 0.11634597
-0.19828732 -0.2693725 0.4839429 0.15786219 0.4464609 -0.6112522 0.056984596 0.092918046
0.20399739 0.044281196 -0.20676774 -0.096367374 -0.13463311 -0.5278832 -0.47682777 -0.07576012
-0.18146594 -0.35122845 0.048468307 0.37046972 0.33806947 0.8475923 0.10418315 0.18351176
0.18946584 0.089329466 -0.13193198 -1.3597461 0.18540204 0.14544792 -0.049922183 0.36325523
-0.73545694 -0.03872432 0.35825616 0.12117922 0.25356925 0.02987354 -0.057086978 -0.26413977
0.08725551 -0.25288644 0.19255497 0.2944074 0.11818458 0.18278782 0.011820503 -0.84402966
0.26975924 -0.18083939 -1.6769522 -0.24109186 -1.1885777 -0.5642984 -0.12306189 0.0033926861
-0.04952804 -0.87851787 0.19406338 -0.16130209 -0.10696032 0.55962944 -0.2722861 -0.35619074
0.14512 -1.6408793 0.26253358 0.358598 -1.9171368 -0.115771994 0.57788426 -0.20271997
0.15084001 0.028564313 -1.01968 -0.097035535 0.17515627 -0.12532902 0.38822913 0.07069132
0.341739 -0.4681285 0.079705745 0.010729843 -0.21502666 0.30795914 -0.06382886 0.18506116
0.19300535 0.16983354 -0.068781585 0.099029414 0.30289552 0.1253955 -0.3702592 -0.05704772
-0.18655136 0.7806046 0.5547512 0.48620275 -0.15392321 0.03580746 -0.1648401 0.0507279
0.7521233 0.76624626 -0.13398483 0.24027346 -0.115164995 0.16718248 -0.27797824 0.03283453
-0.25121874 -0.1779456 -0.30233753 -0.0032690528 -0.7213824 -1.161062 -0.2519859 -0.468767
0.45951018 0.060373954 0.17537008 -0.144429 -0.2960451 -0.6538294 0.023703452 -0.007902813
0.14464936 -0.1412274 -0.35210064 0.17468753 -0.079762645 -0.36203834 -0.46547985 -0.15183216
-0.9541832 0.08214925 -0.18933815 0.4321053 0.8371503 -1.293383 0.0066922037 0.03390485
0.04031645 0.2730066 -0.41467598 0.67461455 -0.09281846 -0.041242346 -0.082756296 0.27709186
0.4150974 0.1997586 0.059973437 0.31379434 0.33075505 0.014001236 1.2529099 0.066087455
0.6300573 -0.38594908 -0.042238865 -0.10384768 0.10955043 -0.29542613 -0.29423085 0.2883338
0.11001926 0.10694223 0.98938423 0.4164863 0.266424 -0.16972427 0.057839755 -0.08120091
-0.10731086 0.22702555 0.13748525 0.015421276 -0.20119348 0.08818694 -0.20897506 -0.64255524
0.12344348 -0.00021376174 -0.48516485 -0.1138797 0.17364287 -0.40023148 0.43688565 0.40376887
0.16999996 -0.08800111 -0.07488668 0.07915457 0.59991866 0.074630626 0.7853016 -0.50430095
-0.33164254 -0.17428371 0.45484367 1.1877784 0.6215742 1.1929849 0.2360103 -0.2830332
-0.055483498 -0.8593789 0.44046694 0.7627008 -0.17086306 -0.11568432 -0.14569363 0.13825981
-0.145364 0.49267462 -0.16362643 0.13426295 0.1972006 -0.22946948 0.17938751 -0.06549622
-0.34867522 0.2941878 0.17478722 0.34782344 0.21690167 -0.6001797 0.11387675 -0.8622568

fc2.bias f4 [84]
00000000: 3c07 953d 5b73 d93d 53e5 4b3d 890c b8bb
00000010: 2ce4 04bd 3297 f0bc 93c3 1dbe bd8a f7bc
00000020: c125 8fbc 6376 3d3c 721b 96bd 1708 0d3e
00000030: 9964 a13d 46d9 90bd ae03 93bc 3674 21be
00000040: 859c adbd aadd ca3d f99d d33c 01b8 0f3d
00000050: 8270 dabd e3ce 5a3c f0b1 e13c 19bc 083d
00000060: 6e95 d03d 4faa b63d 4445 36bd 0a19 013d
00000070: 4d58 c0bc 397f edbc d791 b0bc 7ebf 1e3d
00000080: 9916 923d ea68 f1bd 99c7 9b3b 886c 53bd
00000090: 9d8c 5c3d 1e51 47bd 4790 d2bc a358 8c3d
000000a0: 7162 173a 0aab 613d e6c9 983d 40f3 81bd
000000b0: ecda 0fbe 2ccb 3dbd f40f a73d 3a25 5f3d
000000c0: 587b 74bd 7fa5 24bc 00bf abbd e8e1 af3d
000000d0: 5579 c23d 3aed 163d aef5 843d d874 3dbd
000000e0: b033 26bd c9d0 9d3d abd1 c7bd 3a15 2c3d
000000f0: 20eb 8f3d b550 e93d a7ac 233d 8766 953d
00000100: 84f5 45be 5035 823d 4775 e93c d821 963d
00000110: 0674 2c3c 8143 8d3d 4c25 733d b94c 8bbd
00000120: 8b14 863d 9f45 4dbd 7f15 5b3d 3457 dfbb
00000130: 9b53 2a3d cf04 bc3d 766c afbd cb1f 94bc
00000140: edd1 0e3d 4cbf cdbd ac59 56bb 3ea9 d03d
0.072767705 0.106177054 0.049779247 -0.0056167287 -0.032444164 -0.02936897 -0.15406637 -0.030217523
-0.017474057 0.01156387 -0.073294535 0.13772617 0.078805156 -0.070726916 -0.01794609 -0.15766987
-0.08477119 0.0990556 0.025832163 0.03508759 -0.106659904 0.01335499 0.027550668 0.03338251
0.101847515 0.089192025 -0.04449965 0.03151802 -0.023479605 -0.028991329 -0.021553917 0.03875684
0.071332164 -0.11787589 0.0047540185 -0.051617175 0.053845037 -0.048661344 -0.025703562 0.068528436
0.0005774862 0.055094756 0.07460384 -0.063452244 -0.14048356 -0.046336338 0.0815734 0.05447886
-0.059687942 -0.010049223 -0.0838604 0.0858801 0.094957985 0.03684733 0.06492172 -0.04625401
-0.040576637 0.07705838 -0.09756788 0.04201243 0.070272684 0.11392347 0.039959576 0.07294946
-0.19331938 0.06357825 0.028498305 0.07330674 0.010525709 0.06897641 0.05936174 -0.06801743
0.06546887 -0.050115224 0.053487297 -0.0068158153 0.04158364 0.09180605 -0.08565609 -0.018081566
0.03486817 -0.100462526 -0.0032707257 0.101885304

fc3.weight f4 [10, 84]
00000000: 4e00 763f a8f1 77bf 398e a83e 0e4e d4be
00000010: c2b8 903d b8be a53e ae3b 8a3e 773a 41bf
00000020: 62c7 023e 1b71 803e b3f9 08bf 1f04 e4bd
00000030: e4ec 08bf 5a46 33bf 2d1a c13e 592c 933e
00000040: cd23 443e f9fc 24bf a060 ad3d 28e9 043f
00000050: 4348 a23c 4f7d 663e 0797 c7bd 59c8 073f
00000060: b866 4dbf ecf3 3c3f d7b3 2b3f 6c6a 57bf
00000070: c2d8 3f3e 3510 0dbf bf85 993e 075a 653e
00000080: df7a 1c3e a95d dcbd 5aeb b73e ed85 ec3e
00000090: 77d6 10bf 50b8 ac3e b9bf 163f c451 963e
000000a0: 5735 773e 100d 8abf a1fd b0bd 5e43 2cbf
000000b0: d34f 9d3e 48a0 7d3e d864 93bf d02f 1d3e
000000c0: 9d88 c73d b21a 35bf 0863 6c3d f8da e73c
000000d0: 972b 27bf 9fc0 74be 61c7 60be 1652 4d3e
000000e0: f917 2f3e 2088 93bf b515 673e 1817 c33e
000000f0: cba6 1ebf dd3b d7bf a3b8 a9be 4720 9e3e
00000100: 919d 203e 0d45 ccbd c574 13bf 909a 10be
00000110: 3390 77bd 39dc 2ebd 78f9 593e 62d6 e33d
00000120: 5c45 e4bf aeda 393e a2a8 9a3e 9906 023e
00000130: 161d 163d 1cfd b13d 45b6 cfbe 0a09 113e
00000140: 4301 33bf a3c4 0bbf b2e5 afbf e817 f9be
00000150: 0b15 21be cb75 40be 2f3c 92bd d14a 553f
00000160: ac68 593e 6775 7cbf e204 493d 6ca4 10bf
00000170: 88da 4e3d eb5e 81ba 3f7d 2e3e 1552 5c3f
00000180: 6d09 94bf c37d acbd ee64 12bf 9787 13bf
00000190: 3c6e 2bbe f77b 353e 15cd fcbd 0941 2e3e
000001a0: 2c70 083e f7f0 4abb 9dfb 2e3f 84a9 39be
000001b0: 7fbb febe beca 91bf ad03 bdbe 0e7f ad3d
000001c0: 34f3 2e3e cfc3 923e 3f59 283e a422 1a3f
000001d0: dfff 023e fa0f 3d3d 8f30 853e fe05 a53c
000001e0: f9ce 2bbf ded4 53bf c541 1abe b544 e83e
000001f0: 9df0 adbe 4148 513e 44cf 70bf 608f 133f
00000200: 54d8 82bf ac3f 18be afa6 9d3e ce44 103e
00000210: 4247 043e c40a ba3f cd27 043d 3efa 80bf
00000220: 5525 3dbf 87c6 b53e 9770 fbbe b022 9c3d
00000230: 4491 67bf 25c6 dabf 2b0d 01bd 3a39 e03d
00000240: 9a92 df3e 549c 87bf 52ba 333f 0978 fc3e
00000250: a76f 60bf cfea 58bf 77e1 f73e cf14 0f3f
00000260: 4f3b 023e fb3d 72bf a38c 27be 4a38 123e
00000270: 32bd e1be d51d 8f3e 58e7 25bf 3dac 44bf
00000280: 1c80 edbc 3b1b 14be 3d6e 99bd 1082 37bf
00000290: 4597 2b3f 7f60 cebb 5acc 8d3f 5a5a cebf
000002a0: 61ce fc3c bedd 983e 0ea6 23bf 55fe 7abe
000002b0: e9b5 323e 5120 3a3e b7f8 a6bf 3b9b 4c3e
000002c0: d258 b93e 033e afbf 9e52 893e 1943 1dbf
000002d0: fb3b 2cbf ca8b 923e c9f1 77bf a528 4f3e
000002e0: 70d8 3cbd 8170 04bf 4274 27bd e865 d1be
000002f0: 4c4e 423e e0fb 713f 46bc 36bf b22e 6a3e
00000300: 82d4 02bf e90c d9be b507 d23c d669 80bf
00000310: 2309 693e abea 753e eef3 7ebe 89a7 61bf
00000320: 1453 9fbf c7cd a03d 979d 243e 295f 36bf
00000330: 1a09 723d fb2e 4c3e c1cc 78be 729b 633f
00000340: 645a 63bc 6a78 783e 988b dd3e c2f9 0fbf
00000350: 0e3e 6a3e ec49 a33e 0d7f bb3e 8376 283e
00000360: 59a8 b03d c041 05be b316 bb3d 5e3e bbbe
00000370: 0195 ae3e b622 653e bc06 58bf e135 a93e
00000380: e731 593e b922 17bf dad1 323e cc45 67bf
00000390: 234c 0ebf fbd1 923e ac4a 21be 0868 323f
000003a0: 5965 423e 4da0 10be dc9d 8a3e 0601 bebe
000003b0: 194b a13e a9a8 1ebf 55d1 283e c37a 163e
000003c0: 4114 12bf 9b38 2b3e 89a0 6b3e 15ef c33d
000003d0: 116c a13d 17a6 eb3e b223 90bf 4f2b 3e3e
000003e0: 3bc9 c9be 883e 8dbe 60b0 debe eed7 9dbe
000003f0: 3185 04be 17c2 96bd e6be 633e 6b7c 5bbf
0.96094215 -0.96853113 0.32921007 -0.414658 0.0706649 0.3237207 0.26998657 -0.75479835
0.12771371 0.25086293 -0.5350601 -0.111335985 -0.53486466 -0.7002922 0.37715283 0.28744772
0.19154282 -0.64448506 0.084656954 0.5191827 0.019809848 0.22508739 -0.09745603 0.5304008
-0.8023486 0.73809695 0.6707129 -0.8414676 0.1873503 -0.55102855 0.29984853 0.22397624
0.15281247 -0.10760052 0.35921746 0.46195927 -0.5657725 0.3373437 0.58886296 0.29359257
0.24141441 -1.0785236 -0.08642126 -0.67290294 0.30724964 0.24768174 -1.151515 0.1535027
0.09742854 -0.7074386 0.05771163 0.028302655 -0.6530089 -0.23901604 -0.21951057 0.20050845
0.17098989 -1.1525917 0.22566874 0.38103557 -0.61973256 -1.6815144 -0.3314868 0.30884
0.15685107 -0.09974108 -0.5760005 -0.14121461 -0.060440253 -0.04269049 0.21286571 0.11124875
-1.7833667 0.18149826 0.30206782 0.1269783 0.036648832 0.08690855 -0.40568748 0.14163604
-0.699238 -0.5459692 -1.3741972 -0.48651052 -0.15730684 -0.18794934 -0.07140385 0.83317286
0.21231335 -0.9861664 0.049076922 -0.5650089 0.050501376 -0.0009870207 0.17039965 0.8606275
-1.1565377 -0.08422425 -0.57185256 -0.5762877 -0.1674127 0.1772307 -0.12343804 0.17016996
0.1332404 -0.003096638 0.6835268 -0.18131071 -0.49752423 -1.1389997 -0.36916867 0.084714994
0.17084962 0.28665015 0.16440295 0.6020911 0.1279292 0.046157815 0.2601361 0.020144459
-0.6711269 -0.82746685 -0.15064152 0.4536492 -0.33972636 0.20437719 -0.9406626 0.5764065
-1.0222268 -0.14868039 0.30791232 0.14088747 0.12917808 1.4534535 0.03226452 -1.0076368
-0.7388509 0.35503027 -0.49109337 0.076238036 -0.9045603 -1.7091719 -0.0315067 0.10948415
0.43666536 -1.0594583 0.7020618 0.4931033 -0.8767037 -0.8473329 0.48414204 0.55891126
0.12717937 -0.94625825 -0.16362242 0.14279285 -0.44089657 0.27952448 -0.6480613 -0.76825315
-0.028991751 -0.14463513 -0.074917294 -0.71682835 0.67027694 -0.0062981243 1.1077988 -1.6121323
0.030860128 0.29856676 -0.63925254 -0.24511082 0.17452206 0.1817639 -1.3044652 0.1998109
0.36200577 -1.36908 0.26820844 -0.6143051 -0.6727902 0.28622276 -0.9685331 0.20230348
-0.04610485 -0.5173417 -0.040882356 -0.4089806 0.1897518 0.94524956 -0.7138103 0.22869375
-0.5110551 -0.42392662 0.02563844 -1.0032299 0.22757392 0.240153 -0.2489774 -0.88146263
-1.2447228 0.07851749 0.16075741 -0.7123895 0.05909071 0.19939797 -0.24296857 0.88909066
-0.013876531 0.24264684 0.43270564 -0.56240475 0.22875234 0.31892335 0.3662037 0.16451459
0.0862586 -0.13013363 0.09135189 -0.3657102 0.34098056 0.22376522 -0.84385276 0.3304892
0.21210442 -0.5903736 0.17462865 -0.90340877 -0.55584925 0.28675827 -0.15751141 0.6968999
0.18983974 -0.1412365 0.27073562 -0.37110156 0.31502607 -0.61976105 0.16486104 0.14695267
-0.57062155 0.16720812 0.23010458 0.09567086 0.0788194 0.46025154 -1.1260893 0.18571208
-0.3941134 -0.2758677 -0.43493938 -0.30828804 -0.12941433 -0.073612384 0.2224079 -0.8573672

fc3.bias f4 [10]
00000000: d103 98bd 22fc d63d e0d7 1d3e 9e36 02be
00000010: 117a 423d 98fd 25bd f8d4 9d3d 2217 18bd
00000020: 06b7 e3b8 281d 393c
-0.07422603 0.10497309 0.15414381 -0.12716147 0.047479693 -0.04052505 0.07706636 -0.037131436
-0.00010858294 0.011298455
