train_pth/best_model_epochs5_batches32.pth (torch, 250910 bytes, 10 tensors)

conv1.weight f4 [6, 1, 5, 5]
-0.14956053 0.6037795 0.12916471 -0.61886704 -0.86248565 -0.15250106 0.6956878 0.4055308
-0.3991378 -0.7284545 0.39593008 0.99876505 0.92474616 0.08081887 -0.67784184 0.0052222377
1.4362562 0.9891932 -0.082175635 -0.7983891 -0.057311427 1.0793402 0.7500793 -0.2868941
-0.66798323 -0.45231777 0.49935848 0.4218429 -0.12681124 -0.4411607 -0.2778223 0.7071932
1.1106275 0.27689186 -0.3557514 -0.23708823 1.030938 1.381428 0.31986073 -0.5616518
-0.5791796 0.53384924 0.9379999 -0.11905241 -0.5629579 -0.6568334 0.07602233 0.3726547
-0.15909258 -0.8152775 -0.14293575 -0.19478182 0.16211313 -0.18422784 -0.20739114 0.33617303
1.2821968 1.3875022 0.45085773 0.15166773 0.7670607 2.3770413 2.2077518 0.75081515
-0.14309038 0.2050351 1.0072398 1.5198003 0.8042445 0.07519701 -0.25939238 0.037742898
0.5015691 0.27523795 -0.21681227 -0.21740223 -0.38439214 -0.6202013 -0.6281274 -0.1500307
-0.52681255 -1.5419848 -1.7890202 -1.7664263 -0.52599275 -0.6381133 -1.8918337 -2.4331193
-2.0847776 -0.35310075 -0.0003344402 -0.8349472 -1.5421546 -1.0366517 -0.21935149 0.45111114
0.12694849 -0.2903754 -0.2228058 0.30630893 -0.027556641 0.13758345 0.3112851 -0.06865413
-0.31659368 -0.1649914 0.8534773 2.2151666 1.2859015 0.3161455 -0.090200305 0.8208739
2.5844617 1.8381519 0.24063382 -0.7053337 0.07772402 0.91312945 0.77982706 -0.2769766
-0.9157898 -0.5920626 -0.008149116 -0.12782152 -0.46910465 0.38684413 -0.16665834 -0.46488333
-0.5172727 -0.38474104 0.39372307 0.1370595 -0.47674102 -0.61700577 -0.2914096 0.52013457
0.24619345 -0.28024545 -0.31696963 -0.53255594 0.61195475 0.38669956 -0.2764378 -0.41598886
-0.14139639 0.47669527 0.3899299 0.1594594 -0.18415946 -0.34555355
00000000: 6526 19be 4b91 1a3f c143 043e 126e 1ebf
00000010: dccb 5cbf 3d29 1cbe 9818 323f bca1 cf3e
00000020: ca5b ccbe fe7b 3abf 59b7 ca3e 11af 7f3f
00000030: 2abc 6c3f 5d84 a53d 0b87 2dbf 4e1f ab3b
00000040: 3ed7 b73f c43b 7d3f b34b a8bd 3a63 4cbf
00000050: 63bf 6abd d227 8a3f 3205 403f c9e3 92be
00000060: f300 2bbf 3296 e7be eaab ff3e cbfb d73e
00000070: ceda 01be d1df e1be b93e 8ebe 9d0a 353f
00000080: 0b29 8e3f c5c4 8d3e 0c25 b6be 42c7 72be
00000090: c7f5 833f a2d2 b03f c9c4 a33e 6ac8 0fbf
000000a0: 1d45 14bf 58aa 083f c320 703f c0d1 f3bd
000000b0: 021e 10bf 3c26 28bf 98b1 9b3d 99cc be3e
000000c0: 2ae9 22be 07b6 50bf c05d 12be e374 47be
000000d0: fc00 263e 39a6 3cbe 585e 54be df1e ac3e
000000e0: 061f a43f ac99 b13f d3d6 e63e c94e 1b3e
000000f0: 175e 443f 7221 1840 ce4b 0d40 6c35 403f
00000100: 4986 12be b9f4 513e 3ced 803f d188 c23f
00000110: f8e2 4d3f e400 9a3d 14cf 84be 4c98 1a3d
00000120: d566 003f fdeb 8c3e 0904 5ebe b19e 5ebe
00000130: 0ccf c4be 83c5 1ebf f5cc 20bf a6a1 19be
00000140: 30dd 06bf c25f c5bf 9dfe e4bf 421a e2bf
00000150: 76a7 06bf 655b 23bf 9b27 f2bf 3ab8 1bc0
00000160: ff6c 05c0 9fc9 b4be ce57 afb9 1abf 55bf
00000170: 5265 c5bf 01b1 84bf ad9d 60be 0af8 e63e
00000180: c9fe 013e 16ac 94be 3427 64be 86d4 9c3e
00000190: 77be e1bc ade2 0c3e c360 9f3e 899a 8cbd
000001a0: 9118 a2be 81f3 28be 7d7d 5a3f 4ac5 0d40
000001b0: 6c98 a43f d3dd a13e f0ba b8bd cb24 523f
000001c0: d267 2540 9048 eb3f b668 763e c090 34bf
000001d0: c52d 9f3d dac2 693f bfa2 473f e0cf 8dbe
000001e0: 3371 6abf 6a91 17bf df83 05bc a5e3 02be
000001f0: 7c2e f0be 6f10 c63e 7ca8 2abe 3005 eebe
00000200: fc6b 04bf c7fc c4be 1296 c93e 5359 0c3e
00000210: 6617 f4be 17f4 1dbf a433 95be 8a27 053f
00000220: 231a 7c3e 557c 8fbe d849 a2be 9655 08bf
00000230: 11a9 1c3f 7cfd c53e 4189 8dbe 7efc d4be
00000240: 37ca 10be 6711 f43e e4a4 c73e 5349 233e
00000250: 4c94 3cbe 65ec b0be

conv1.bias f4 [6]
-1.0482516 -0.46880868 -0.3073555 0.34121403 -0.25788656 0.08313758
00000000: 1c2d 86bf b107 f0be b35d 9dbe 9bb3 ae3e
00000010: b509 84be 0944 aa3d

conv2.weight f4 [16, 6, 5, 5]
0.0412652 -0.11953949 0.13342561 -0.023353247 -0.41497958 0.13117239 -0.033246007 0.23500171
0.21294107 -0.20540054 0.0308064 -0.26262227 -0.0867019 0.20740955 -0.15371525 0.106514946
-0.22367913 0.0541813 0.386698 0.20379199 0.21749192 -0.26254088 0.13325049 0.63447297
0.3469086 -0.18318751 -0.25547585 -0.28211585 -0.34807342 -0.6013092 0.05520341 -0.04095713
-0.054118797 -0.1885541 -0.28339085 0.100403346 -0.12723279 -0.08543552 -0.0008515325 -0.16795471
0.068856634 -0.19457962 -0.10803635 0.046049796 -0.04302799 0.035645753 -0.14745732 0.10903639
0.3738107 0.14054914 -0.057845943 -0.11545987 -0.081930086 -0.30071285 -0.31265262 0.014096383
0.027761528 -0.0007940389 -0.06503904 -0.17407249 -0.04490088 -0.13529952 0.056273293 0.024695557
-0.0006961796 0.05756143 -0.0646014 -0.024811625 0.14942873 0.10933275 -0.041214705 -0.10785556
0.124057055 0.22724462 0.118169405 0.17089467 0.24584725 0.5302034 0.8673207 1.0728902
-0.026961423 0.23713145 0.15176608 0.38438928 0.58747274 0.13491166 0.23644081 0.07574784
0.044234578 0.15330717 0.21345584 0.2934235 0.044745304 -0.110025845 0.016049216 0.16837537
0.2436571 -0.17710055 -0.3188794 -0.13628335 -0.16722839 -0.22343968 -0.28585693 -0.52198654
-0.51337594 0.1009029 -0.048376553 -0.112818226 -0.17214566 -0.20066269 -0.041134328 -0.08804583
-0.009076693 -0.052505184 0.029564839 -0.0692343 -0.12041428 -0.025232846 0.091870524 0.031475827
0.031957917 0.012063962 0.21135335 0.10429729 0.14728506 0.29219788 0.22848901 0.21328856
0.53654104 0.107454725 0.25504822 0.003803946 0.038071707 0.43970636 0.230926 0.092208624
-0.17299218 -0.45157745 0.15888096 -0.0107001625 0.29366183 -0.047940828 -0.40477374 0.0614976
0.049765848 0.10879948 -0.24150139 -0.7264342 -0.159168 0.011940474 0.41315612 0.24254282
-0.31028235 -0.2865628 -0.016847333 0.447115 0.38731605 -0.0002441949 -0.2479135 0.17341428
0.24774405 0.26272845 -0.17577638 -0.11429346 0.058879312 0.3689126 0.16221526 -0.08207278
-0.111032955 0.16586553 0.40648523 0.11770847 -0.015733277 0.07170157 0.4211701 0.17825122
-0.13568844 -0.5127485 -0.47824392 -0.2806885 0.16449371 0.08596947 -0.35538566 -0.24416284
-0.10964 0.2807508 0.0049588913 -0.23808575 -0.17529954 0.017878909 0.26866773 -0.0185059
-0.17842855 -0.19097294 0.13826765 0.24413805 -0.083346866 -0.010746494 0.087488554 0.24893369
0.15768704 -0.025178425 -0.17045443 -0.24156132 -0.09235938 0.2737749 0.13578385 -0.19353159
-0.1822474 -0.07932456 0.1891473 -0.02107069 -0.15021524 -0.12494534 0.04679769 0.036940083
0.01157648 -0.09299201 -0.06933177 0.03278786 0.16866845 -0.1095619 -0.17001508 -0.11466349
0.05499411 -0.21424226 -0.053411447 0.57284224 0.6033492 0.23802418 -0.3043801 -0.07436187
0.39258695 0.35534623 0.10345021 -0.34408605 -0.021752926 0.27213186 0.085049205 0.002663301
-0.16474347 0.10707252 0.3116909 0.23665786 0.0706559 -0.054596443 0.18318392 0.47097933
0.34388566 0.05039664 0.041004892 -0.23608002 -0.41751823 -0.36901388 -0.20447958 0.21207915
00000000: b305 293d 1fd1 f4bd b9a0 083e 4f4f bfbc
00000010: 3478 d4be 0e52 063e f72c 08bd 4aa4 703e
00000020: 390d 5a3e 8554 52be b45d fc3c 6d76 86be
00000030: c490 b1bd 2b63 543e 8867 1dbe 8224 da3d
00000040: 240c 65be 36ed 5d3d 48fd c53e d9ae 503e
00000050: 34b6 5e3e c26b 86be d172 083e d26c 223f
00000060: 019e b13e 8295 3bbe bbcd 82be 7d71 90be
00000070: ae36 b2be 66ef 19bf f91c 623d aac2 27bd
00000080: acab 5dbd 5314 41be 9b18 91be 45a0 cd3d
00000090: 5049 02be d1f8 aebd 6139 5fba 52fc 2bbe
000000a0: b504 8d3d e13f 47be 2942 ddbd b69e 3c3d
000000b0: 1e3e 30bd 4801 123d 0dff 16be 794e df3d
000000c0: 1e64 bf3e 1dec 0f3e deef 6cbd 3976 ecbd
000000d0: f6ca a7bd 09f7 99be 0114 a0be 84f4 663c
000000e0: 256c e33c 0c27 50ba 3033 85bd 0f40 32be
000000f0: fce9 37bd f58b 0abe d37e 663d 564e ca3c
00000100: d27f 36ba 89c5 6b3d bd4d 84bd c041 cbbc
00000110: d803 193e d9e9 df3d c0d0 28bd 60e3 dcbd
00000120: a011 fe3d d0b2 683e cd02 f23d 03ff 2e3e
00000130: 62bf 7b3e 69bb 073f bb08 5e3f 7754 893f
00000140: 34de dcbc 96d2 723e 9168 1b3e acce c43e
00000150: 9d64 163f 4826 0a3e 8a1d 723e af21 9b3d
00000160: 512f 353d 8efc 1c3e 2b94 5a3e 9b3b 963e
00000170: da46 373d 3b55 e1bd a579 833c 986a 2c3e
00000180: 3f81 793e d959 35be 2944 a3be dd8d 0bbe
00000190: eb3d 2bbe 5fcd 64be d75b 92be e9a0 05bf
000001a0: 9b6c 03bf 2ea6 ce3d 7e26 46bd 3e0d e7bd
000001b0: f446 30be 857a 4dbe 787c 28bd 5f51 b4bd
000001c0: 69b6 14bc ad0f 57bd f631 f23c b6ca 8dbd
000001d0: c39b f6bd 1db5 cebc 9d26 bc3d ccec 003d
000001e0: 4ee6 023d eda7 453c 036d 583e d199 d53d
000001f0: e5d1 163e f69a 953e 06f9 693e 5168 5a3e
00000200: c15a 093f 3911 dc3d ae95 823e a04b 793b
00000210: 14f1 1b3d 3121 e13e de77 6c3e e0d7 bc3d
00000220: dd24 31be 2935 e7be b1b1 223e bc4f 2fbc
00000230: d85a 963e 9a5d 44bd 813e cfbe e8e4 7b3d
00000240: 46d7 4b3d 43d2 de3d 244c 77be 97f7 39bf
00000250: f0fc 22be faa1 433c 3389 d33e 255d 783e
00000260: 54dd 9ebe 5cb8 92be 6b03 8abc 42ec e43e
00000270: 4a4e c63e 4907 80b9 09dd 7dbe 8393 313e
00000280: 9eb0 7d3e 5884 863e b9fe 33be b112 eabd
00000290: 6f2b 713d 1de2 bc3e c21b 263e c615 a8bd
000002a0: 3f65 e3bd a7d8 293e d51e d03e 2311 f13d
000002b0: 13e3 80bc 46d8 923d 9ba3 d73e 7d87 363e
000002c0: e9f1 0abe 7c43 03bf 63dc f4be 67b6 8fbe
000002d0: 0a71 283e c310 b03d 1cf5 b5be d305 7abe
000002e0: f08a e0bd 92be 8f3e 327e a23b c0cc 73be
000002f0: b981 33be ca76 923c d18e 893e af99 97bc
00000300: f9b5 36be 698e 43be 0996 0d3e 53ff 793e
00000310: c3b1 aabd 1012 30bc 332d b33d 79e8 7e3e
00000320: b678 213e fc42 cebc 9b8b 2ebe da5b 77be
00000330: ea26 bdbd 392c 8c3e ec0a 0b3e 252d 46be
00000340: 109f 3abe ea74 a2bd d4af 413e 719c acbc
00000350: 06d2 19be 58e3 ffbd efae 3f3d 7c4e 173d
00000360: 47ab 3d3c 9872 bebd d1fd 8dbd 904c 063d
00000370: 6cb7 2c3e fd61 e0bd 6f18 2ebe b1d4 eabd
00000380: 8141 613d 5362 5bbe f6c5 5abd caa5 123f
00000390: 1875 1a3f 9cbc 733e b5d7 9bbe 094b 98bd
000003a0: 2801 c93e f1ef b53e b4dd d33d 0c2c b0be
000003b0: 3133 b2bc de54 8b3e 472e ae3d c78a 2e3b
000003c0: 83b2 28be d648 db3d f395 9f3e 7056 723e
000003d0: 0ab4 903d 85a0 5fbd 9194 3b3e 3424 f13e
000003e0: c811 b03e b56c 4e3d bff4 273d f6be 71be
000003f0: f3c4 d5be 63ef bcbe 1863 51be 472b 593e

conv2.bias f4 [16]
0.118861414 0.09440509 0.024597414 0.03840127 0.045348216 -0.046621323 0.19015615 0.13914193
0.07570459 0.122359715 0.17649676 -0.050798383 0.089366615 -0.14380549 -0.052928526 0.076337434
00000000: 9d6d f33d 7557 c13d 8480 c93c a64a 1d3d
00000010: 0dbf 393d 00f6 3ebd 4bb8 423e 397b 0e3e
00000020: 020b 9b3d bb97 fa3d 91bb 343e f711 50bd
00000030: d805 b73d bf41 13be 95cb 58bd cd56 9c3d

fc1.weight f4 [120, 400]
0.19242896 0.54386777 0.51437074 0.35148117 -0.15419523 -0.008060508 0.38521713 0.11613166
0.25254104 -0.39488533 -0.18946373 0.09523993 -0.2513361 0.021768881 -0.39550465 -0.014558815
0.031113964 -0.15164658 0.14358927 -0.20791078 -0.001759035 -0.122650534 -0.061139494 0.20555003
-0.17454219 0.24699838 0.40761912 0.32906663 0.32165366 -0.11826376 0.33747903 -0.021869995
0.056024697 -0.11938263 -0.094825596 0.26839256 -0.12128551 -0.03604402 -0.4607669 0.039099853
0.23546478 -0.075923026 -0.08712963 -0.32356066 0.056247663 -0.054530032 -0.046419535 -0.041671127
-0.0841072 0.05391594 -0.005026277 0.29768002 0.11322142 -0.081880525 0.06966109 0.21139953
0.026472101 0.16876173 -0.41362014 0.22166644 0.18433453 0.023550717 0.1359667 -0.35510975
0.18400112 0.025814766 -0.09373149 0.13007721 -0.26173887 -0.021962207 0.011550062 -0.52465177
-0.04755264 -0.0118384985 -0.036079574 0.12883739 0.4384088 0.23802224 0.31302574 -0.15709998
0.06545723 0.16164309 0.08976119 -0.0068040662 0.010018606 0.14418541 0.111948386 0.009482929
-0.16552618 0.07521463 0.14686683 0.005396307 -0.015921956 -0.15894777 0.01836113 -0.021356093
-0.045761794 -0.006824915 -0.02866777 0.09616149 0.22830194 0.27471307 0.27799982 0.06868884
-0.10336488 0.2905373 -0.07303292 -0.07372961 -0.12915377 -0.2071101 0.1992911 -0.18019415
-0.20284851 -0.26054415 -0.10260331 0.08090539 -0.061684273 -0.21803418 -0.110983536 -0.05607307
-0.13108306 -0.18443772 -0.16037676 -0.10284283 -0.01173408 -0.11364317 -0.14220017 -0.13351785
-0.096432865 -0.010453802 -0.04733534 -0.103772655 0.007091896 0.018362833 -0.054607116 -0.060457483
0.051421493 0.031978097 0.1298326 0.025674284 0.0067195306 0.084300116 0.045416642 0.13488227
0.07989194 0.1538978 0.046674322 0.021630263 0.09926787 0.050700407 0.08178939 0.30423912
0.18560159 0.12647493 -0.28473118 0.098679006 0.06840864 -0.13395636 0.061752234 -0.3016727
0.02332519 0.01569887 -0.25133717 0.008964784 -0.21112932 -0.014122308 -0.09622407 -0.113225244
-0.010063484 -0.13871364 -0.11026804 -0.34717447 -0.16813296 -0.030774541 0.0015097784 0.16733909
0.15128723 0.08020266 0.0792788 -0.22549234 0.19230424 -0.06853133 -0.11904904 -0.056331433
-0.26075697 0.20421202 -0.102298655 -0.16062683 -0.11484446 -0.13508892 -0.028659798 -0.18050995
-0.14440966 -0.06651508 -0.1104652 -0.13630366 -0.5423112 -0.21278581 -0.1042888 -0.009017007
-0.26132807 0.16616015 0.076226875 -0.08228466 0.47337058 -0.22630721 0.40330538 0.025929417
0.014264808 0.050891496 -0.13575222 0.24223599 0.040916074 0.06157991 -0.087035276 -0.060777936
0.045337796 0.034436464 -0.07254848 -0.07196265 0.15167622 0.06891037 -0.16914068 -0.13442865
-0.11510346 0.25410014 0.37834972 0.2543347 0.44393247 -0.209846 0.23124555 0.26279983
0.03451676 0.26516435 -0.314712 0.13484456 0.11502414 -0.050601438 0.07330962 -0.18013468
0.070843704 0.060147725 -0.051999368 0.047070693 -0.047939736 -0.15791386 0.008336677 -0.054292936
-0.09237157 0.030943813 0.12902664 0.35381538 0.2600957 0.20902953 -0.17677823 0.1199775
00000000: 190c 453e eb3a 0b3f cdad 033f 57f5 b33e
00000010: 5be5 1dbe 3910 04bc 2e3b c53e 70d6 ed3d
00000020: 0f4d 813e 692e cabe c802 42be 270d c33d
00000030: 20af 80be a754 b23c 967f cabe 1988 6ebc
00000040: b6e2 fe3c 3e49 1bbe 1109 133e 90e6 54be
00000050: 6c8f e6ba 3430 fbbd 686d 7abd b57b 523e
00000060: 30bb 32be 25ed 7c3e 74b3 d03e 6c7b a83e
00000070: caaf a43e 4534 f2bd 0dca ac3e b428 b3bc
00000080: 277a 653d e17e f4bd ec33 c2bd c06a 893e
00000090: 8a64 f8bd e5a2 13bd a4e9 ebbe 2b27 203d
000000a0: ae1d 713e 887d 9bbd 0571 b2bd bea9 a5be
000000b0: f363 663d e25a 5fbd 6922 3ebd 58af 2abd
000000c0: 6540 acbd f6d6 5c3d 78b3 a4bb 8469 983e
000000d0: a2e0 e73d fab0 a7bd 79aa 8e3d 1e79 583e
000000e0: 05dc d83c e0cf 2c3e 05c6 d3be 87fc 623e
000000f0: 31c2 3c3e 6fed c03c db3a 0b3e f2d0 b5be
00000100: ca6a 3c3e 7d79 d33c 4cf6 bfbd f632 053e
00000110: a302 86be 16ea b3bc 793c 3d3c 944f 06bf
00000120: 8fc6 42bd 43f6 41bc 2dc8 13bd f3ed 033e
00000130: 1e77 e03e 1abc 733e e944 a03e d1de 20be
00000140: 710e 863d c485 253e b7d4 b73d a5f4 debb
00000150: 1425 243c 57a5 133e 3245 e53d 495e 1b3c
00000160: b27f 29be 210a 9a3d 4264 163e 81d3 b03b
00000170: c36e 82bc 34c3 22be 156a 963c f9f2 aebc
00000180: b870 3bbd 89a3 dfbb acd8 eabc 51f0 c43d
00000190: fcc7 693e 31a7 8c3e fe55 8e3e bcac 8c3d
000001a0: f7b0 d3bd 4ec1 943e 4992 95bd 8dff 96bd
000001b0: e340 04be ac14 54be f712 4c3e d184 38be
000001c0: 85b7 4fbe 0b66 85be af21 d2bd bab1 a53d
000001d0: a6a8 7cbd 5a44 5fbe 564b e3bd e0ac 65bd
000001e0: a33a 06be 3edd 3cbe ce39 24be 439f d2bd
000001f0: 4c40 40bc c0bd e8bd ec9c 11be e7b8 08be
00000200: 987e c5bd 6c46 2bbc b4e2 41bd c286 d4bd
00000210: 2363 e83b a76d 963c b6ab 5fbd 44a2 77bd
00000220: 589f 523d 77fb 023d d6f2 043e e052 d23c
00000230: 822f dc3b 8aa5 ac3d cd06 3a3d 941e 0a3e
00000240: 639e a33d 6397 1d3e 932d 3f3d f331 b13c
00000250: f44c cb3d 3bab 4f3d 3281 a73d 3bc5 9b3e
00000260: 580e 3e3e a582 013e 49c8 91be 3818 ca3d
00000270: d419 8c3d db2b 09be e9ef 7c3d d874 9abe
00000280: 7814 bf3c eb9a 803c 44af 80be 08e1 123c
00000290: 4932 58be 4161 67bc 2011 c5bd a3e2 e7bd
000002a0: 50e1 24bc f30a 0ebe 36d4 e1bd dac0 b1be
000002b0: 0c2b 2cbe e41a fcbc c2e3 c53a f05a 2b3e
000002c0: 0aeb 1a3e 4b41 a43d ec5c a23d 77e7 66be
000002d0: 67eb 443e 275a 8cbd fccf f3bd cabb 66bd
000002e0: f081 85be f51c 513e f581 d1bd 5c7b 24be
000002f0: 9233 ebbd c054 0abe f4c7 eabc 9ad7 38be
00000300: 20e0 13be 0f39 88bd 943b e2bd 3093 0bbe
00000310: e8d4 0abf 86e4 59be 5e95 d5bd 12bc 13bc
00000320: cbcc 85be e325 2a3e d61c 9c3d dc84 a8bd
00000330: a15d f23e 14bd 67be 0b7e ce3e ee69 d43c
00000340: f1b6 693c 9a73 503d a102 0bbe b60c 783e
00000350: 9d97 273d 373b 7c3d 8d3f b2bd 49f2 78bd
00000360: 20b4 393d 400d 0d3d 4c94 94bd 2761 93bd
00000370: 0351 1b3e e120 8d3d 3733 2dbe aaa7 09be
00000380: 5dbb ebbd 6a19 823e 0eb7 c13e 2838 823e
00000390: 1e4b e33e dfe1 56be a2cb 6c3e b38d 863e
000003a0: 7261 0d3d 9fc3 873e ee21 a1be b114 0a3e
000003b0: c791 eb3d 7443 4fbd 5b23 963d 3a75 38be
000003c0: 8116 913d 765d 763d 4afd 54bd 33cd 403d
000003d0: 755c 44bd 2cb4 21be 8f96 083c 4562 5ebd
000003e0: 4e2d bdbd e17d fd3c 8f1f 043e 4a27 b53e
000003f0: 432b 853e d60b 563e 5a05 35be c3b6 f53d

fc1.bias f4 [120]
0.06965005 0.062209297 0.054963022 -0.008352491 -0.015197935 0.05984867 0.010745593 0.004626657
-0.012982673 0.03928574 0.040504355 0.022514505 -0.03599012 0.037249453 -0.036908854 -0.05498584
-0.022603814 -0.013441255 -0.0005296028 -0.010278243 0.053165924 0.044249754 -0.016354308 -0.01906314
0.054504983 -0.07543267 0.04440797 -0.0043649394 0.09310888 0.009414275 0.030826617 -0.02931548
0.049636945 -0.0016205417 -0.025651727 -0.016495269 -0.0731298 0.013556828 0.06397281 0.01667405
-0.018867377 0.028592244 0.043329418 0.013236819 0.03034905 -0.068615936 -0.012357408 0.009424646
-0.0057853526 0.03527924 -0.081422634 -0.0077066855 -0.05459444 -0.023260115 -0.02248543 0.011231863
0.038863946 -0.006261944 0.007960715 0.021627136 0.10934354 0.06738076 0.015146588 0.057434395
0.009357163 -0.017844547 0.09175714 -0.012374289 0.020000227 -0.009081188 0.051318113 -0.06124881
-0.04058618 -0.019222429 -0.08972822 0.0012181372 0.031630293 0.023072343 0.057808124 -0.020893821
0.0063622543 0.014461751 0.029607872 -0.015927885 -0.020593492 -0.03420835 0.017689534 0.016703216
0.09671188 0.07572509 0.058909763 0.04660934 0.08176504 0.031010233 -0.018309398 0.0032105702
-0.049013536 0.026113944 -0.0298543 0.02682776 -0.07077713 -0.079439566 0.047446296 -0.014782925
-0.00018617409 -0.01267916 0.0073696654 0.020898255 -0.031776704 -0.04045619 -0.003416886 -0.011522082
-0.009750007 0.058784105 0.071351536 0.09724384 0.07264504 -0.08768985 0.03547504 -0.002650819
00000000: afa4 8e3d 2dcf 7e3d e820 613d e3d8 08bc
00000010: c200 79bc e123 753d 490e 303c 369b 973b
00000020: 47b5 54bc 16ea 203d e5e7 253d 5770 b83c
00000030: 606a 13bd e292 183d bd2d 17bd d538 61bd
00000040: a22b b9bc b638 5cbc 0bd5 0aba 1366 28bc
00000050: 83c4 593d 3b3f 353d 78f9 85bc 4d2a 9cbc
00000060: 9e40 5f3d 727c 9abd 22e5 353d c407 8fbb
00000070: deaf be3d 553e 1a3c 1a88 fc3c 0427 f0bc
00000080: 1c50 4b3d 5b68 d4ba 9223 d2bc 1621 87bc
00000090: 14c5 95bd 751d 5e3c 2d04 833d 0498 883c
000000a0: c28f 9abc 483a ea3c 307a 313d 3edf 583c
000000b0: 929e f83c 8386 8cbd ba76 4abc d569 1a3c
000000c0: 0e93 bdbb f780 103d e9c0 a6bd 5d88 fcbb
000000d0: 6b9e 5fbd ff8b bebc 5d33 b8bc d905 383c
000000e0: cd2f 1f3d fe30 cdbb a96d 023c 642b b13c
000000f0: 82ef df3d edfe 893d 6529 783c 5440 6b3d
00000100: c94e 193c ba2e 92bc 2beb bb3d 88bd 4abc
00000110: 84d7 a33c 43c9 14bc f132 523d 08e0 7abd
00000120: b23d 26bd 5b78 9dbc 6ec3 b7bd e7a9 9f3a
00000130: c48e 013d 3602 bd3c 36c8 6c3d 8529 abbc
00000140: 757a d03b fbf0 6c3c 358c f23c 327b 82bc
00000150: afb3 a8bc 0e1e 0cbd a4e9 903c 2fd5 883c
00000160: e110 c63d c215 9b3d 5d4b 713d 6fe9 3e3d
00000170: 6e74 a73d 2c09 fe3c 97fd 95bc 6e68 523b
00000180: 6bc2 48bd e9ec d53c 0191 f4bc e4c5 db3c
00000190: 9af3 90bd 36b1 a2bd 0c57 423d 1534 72bc
000001a0: ba37 43b9 40bc 4fbc 3c7d f13b d132 ab3c
000001b0: 4a28 02bd 64b5 25bd d6ed 5fbb 1dc7 3cbc
000001c0: 7ebe 1fbc 9ac7 703d c120 923d c727 c73d
000001d0: ecc6 943d bc96 b3bd 474e 113d 5db9 2dbb

fc2.weight f4 [84, 120]
-0.26245743 -0.42046544 0.06301417 0.6163972 -0.32114476 0.013952836 -0.26327446 -0.48511443
-0.43010882 -0.05099045 -0.14236124 0.07912333 0.028423982 0.19001247 0.35341588 0.30049524
-0.15207613 0.060559716 -0.011171436 -0.14616422 0.027404107 -0.047471955 -0.24170612 0.262577
-0.33209732 -0.18053159 -0.15884715 0.099495806 -0.26179895 -0.12175644 -0.16494782 -0.19594276
-0.031953897 -0.042532373 -0.15880787 -0.43148535 0.024902945 -0.050664295 0.104293585 -0.18303205
-0.11060442 0.1119017 -0.41200534 0.23914456 -0.028920213 0.1288066 0.0005821907 -0.16173889
0.24315125 0.010206981 0.29212916 -0.14758943 -0.10001634 -0.17313053 -0.1965069 -0.30682123
-0.05524026 0.11876242 -0.099043325 0.33749637 -0.34192473 -0.2021464 0.15405357 -0.2555723
-0.45479047 -0.10804935 0.17213179 -0.17111702 -0.27181846 -0.050097127 -0.3532255 -0.3255915
-0.0464209 -0.31198913 0.2278951 0.09355257 0.086210445 0.22594608 0.1307059 0.05068582
-0.05840104 0.2231325 -0.07833874 -0.33458304 0.1229789 0.19342539 0.14346299 0.1408422
-0.1141101 -0.19216959 -0.057939976 -0.16600493 0.10332175 0.20230037 -0.22884569 0.006219441
-0.029715184 0.26407486 -0.00886892 -0.11746971 -0.5117623 0.3030161 0.21652289 0.13368721
-0.35018396 -0.07709801 -0.22052573 -0.10028751 0.038170986 -0.06616968 -0.18180378 0.35387295
0.003427997 0.26479784 -0.16946363 -0.4599903 -0.33255297 0.18597849 -0.059769697 0.18869227
0.15099849 -0.03338508 0.10980487 -0.894033 -0.26876333 0.08522565 -0.08879409 -0.029197114
0.01946925 0.28742465 -0.14532036 -0.0610127 -0.4687313 -0.06273189 -0.16718572 -0.073755525
-0.1735638 -0.014857936 0.3384898 0.17669643 0.27462876 -0.03130476 -0.14523128 -0.121435255
-0.44357556 -0.26978436 0.9827611 -0.31504714 -0.026093515 -0.41530517 -0.28254297 0.15393525
-0.59882534 0.11396033 -0.2523074 -0.10618956 -0.4318631 -0.3559012 0.13723034 -0.09997298
0.017304923 0.16777536 -0.109815665 0.044290062 0.25950378 -0.14380307 -0.37774694 -0.38380235
-0.1167816 -0.44505325 -0.31545424 0.16677666 -0.069408305 -0.045784872 -0.10742497 -0.11572485
-0.2617019 0.11040084 -0.5627399 0.1289964 0.16621026 0.33728397 0.043985553 0.11957252
-0.18513201 0.38264817 0.15728335 0.16732529 0.18530953 0.38884893 -0.10229058 -0.29076368
0.55863976 -0.20408797 -0.0763957 0.112002306 -0.08751517 -0.32228628 -0.0887581 -0.02367175
-0.36948973 0.07036425 0.8573781 -0.29781118 -0.15612967 0.04787331 0.10094323 0.112753764
-0.15204671 -0.16800377 0.39652792 0.73991877 -0.034903634 0.111931145 0.23690018 0.16476873
-0.2625641 -0.18416563 0.24903472 0.5051455 -0.09388897 -0.1263981 -0.08169 0.054366365
0.2326385 -0.22478293 -0.33408564 0.10656958 -0.09339802 -0.23929192 0.060687512 -0.09785289
0.4080114 0.031248976 -0.017981652 -0.09074211 -0.06315314 0.059107587 -0.18013574 0.049800057
0.17783284 0.01291383 -0.047117427 -0.5402255 -0.055333354 -0.41187996 -0.100608625 -0.047324788
-0.13410336 -0.33314013 -0.3191821 -0.08478181 0.10599406 -0.14885466 0.046294678 -0.0063597336
00000000: d260 86be 3f47 d7be 930d 813d 35cc 1d3f
00000010: 166d a4be 709a 643c e9cb 86be eb60 f8be
00000020: 3937 dcbe 5ddb 50bd 25c7 11be 6a0b a23d
00000030: 69d9 e83c a192 423e edf2 b43e 83da 993e
00000040: d8b9 1bbe 770d 783d 6608 37bc 13ac 15be
00000050: 947e e03c f471 42bd cf81 77be 7e70 863e
00000060: a908 aabe 46dd 38be d4a8 22be 75c4 cb3d
00000070: 830a 86be 715b f9bd 15e8 28be 38a5 48be
00000080: 17e2 02bd 6d36 2ebd 889e 22be a6eb dcbe
00000090: 4301 cc3c 5d85 4fbd e097 d53d c16c 3bbe
000000a0: 9284 e2bd b82c e53d 5df2 d2be 50e2 743e
000000b0: 15ea ecbc e1e5 033e 289e 183a e19e 25be
000000c0: a4fc 783e 2e3b 273c f491 953e af21 17be
000000d0: 5ed5 ccbd 2149 31be 1b39 49be ac17 9dbe
000000e0: 9c43 62bd b639 f33d 3ad7 cabd 53cc ac3e
000000f0: c210 afbe 77ff 4ebe 38c0 1d3e 5fda 82be
00000100: 4cda e8be fa48 ddbd 5143 303e 4d39 2fbe
00000110: ca2b 8bbe a532 4dbd f9d9 b4be eeb3 a6be
00000120: d723 3ebd 0abd 9fbe 555d 693e 7d98 bf3d
00000130: 1a8f b03d 695e 673e c4d7 053e ef9b 4f3d
00000140: ee35 6fbd d97c 643e 1070 a0bd 784e abbe
00000150: 5ddc fb3d 4e11 463e f6e7 123e f038 103e
00000160: 8eb2 e9bd 1bc8 44be 7852 6dbd 32fd 29be
00000170: 5b9a d33d d427 4f3e 8656 6abe 74cc cb3b
00000180: 426d f3bc d234 873e f24e 11bc f693 f0bd
00000190: db02 03bf ed24 9b3e 2db8 5d3e 4de5 083e
000001a0: 504b b3be 90e5 9dbd 7fd1 61be 8a63 cdbd
000001b0: 2e59 1c3d f883 87bd c52a 3abe d62e b53e
000001c0: 3fa8 603b 9593 873e e087 2dbe d983 ebbe
000001d0: 6244 aabe 2571 3e3e 12d1 74bd 8c38 413e
000001e0: 599f 1a3e cbbe 08bd 60e1 e03d 59df 64bf
000001f0: 599b 89be c98a ae3d add9 b5bd c92e efbc
00000200: fa7d 9f3c 5329 933e dcce 14be 74e8 79bd
00000210: 8dfd efbe 9479 80bd bc32 2bbe 230d 97bd
00000220: b5ba 31be b36e 73bc 894e ad3e e9ef 343e
00000230: 249c 8c3e 6c39 00bd 82b7 14be 0cb3 f8bd
00000240: 561c e3be 2d21 8abe 3b96 7b3f dc4d a1be
00000250: 11c2 d5bc e1a2 d4be 79a9 90be 34a1 1d3e
00000260: 9e4c 19bf 0964 e93d 6f2e 81be e979 d9bd
00000270: 291d ddbe af38 b6be 1c86 0c3e a2be ccbd
00000280: 0ec3 8d3c 4ecd 2b3e 09e7 e0bd 7f69 353d
00000290: aedd 843e 1d41 13be 0c68 c1be be81 c4be
000002a0: 312b efbd 05de e3be 3883 a1be 80c7 2a3e
000002b0: f125 8ebd eb88 3bbd 9f01 dcbd 2601 edbd
000002c0: cbfd 85be d619 e23d b90f 10bf a217 043e
000002d0: 0633 2a3e 7cb0 ac3e 322a 343d 70e2 f43d
000002e0: 3f93 3dbe 76ea c33e e30e 213e 5257 2b3e
000002f0: c8c1 3d3e 3517 c73e b97d d1bd fade 94be
00000300: 0403 0f3f 70fc 50be 5975 9cbd 7761 e53d
00000310: 273b b3bd b502 a5be cfc6 b5bd 42eb c1bc
00000320: c22d bdbe 221b 903d 227d 5b3f b57a 98be
00000330: 75e0 1fbe ce16 443d 53bb ce3d 72eb e63d
00000340: 22b2 1bbe 2e09 2cbe b505 cb3e 516b 3d3f
00000350: 1df7 0ebd 283c e53d f695 723e 22b9 283e
00000360: cd6e 86be ea95 3cbe f502 7f3e 3751 013f
00000370: dc48 c0bd 816e 01be 164d a7bd 44af 5e3d
00000380: c938 6e3e 7f2d 66be 460d abbe 2741 da3d
00000390: 7647 bfbd f108 75be 7893 783d 1967 c8bd
000003a0: dfe6 d03e dafd ff3c 424e 93bc 00d7 b9bd
000003b0: 6f56 81bd cc1a 723d 8175 38be 25fb 4b3d
000003c0: d019 363e 8794 533c 34fe 40bd 384c 0abf
000003d0: 3aa5 62bd eee1 d2be e50b cebd a3d7 41bd
000003e0: 6452 09be 5891 aabe d66b a3be 16a2 adbd
000003f0: 6a13 d93d 5b6d 18be 7d9f 3d3d 5065 d0bb

fc2.bias f4 [84]
0.10608694 -0.06329321 0.08562326 -0.096011855 0.06780687 0.052073885 0.046940316 0.042057574
-0.12737891 0.109855734 -0.06440636 -0.13329808 0.02211121 -0.011944062 0.07115903 0.056532685
-0.01123245 0.015330468 0.0152713545 -0.025717244 -0.08976004 0.078538716 0.09355028 -0.022865478
-0.026320351 0.06356556 0.03768423 -0.038760517 -0.025564892 -0.0005469808 -0.06468259 0.053420946
-0.123373024 -0.10879323 -0.017741669 -0.007844159 -0.03146408 0.008828145 0.075289235 -0.103842944
0.18428598 -0.012258637 0.06103859 0.022352558 -0.0002886858 -0.026399486 -0.041727845 -0.0645762
0.0009186963 0.015523076 0.007956177 -0.044891488 -0.018241141 -0.061821487 0.0043918123 -0.07073873
-0.0348245 -0.08126575 0.031280242 0.014854008 0.0042573772 0.023904849 -0.065749414 -0.06571408
0.029659808 0.030768706 -0.024899485 0.03268785 0.008616283 -0.06971344 -0.05188548 -0.020403136
0.0047001042 0.048727974 0.052504446 0.024649726 0.021172736 0.122705184 -0.028537149 -0.075092256
-0.1299138 0.01553584 0.0073255757 -0.035535134
00000000: 1c44 d93d df9f 81bd 3f5b af3d dda1 c4bd
00000010: 54de 8a3d 6d4b 553d 7d44 403d 9044 2c3d
00000020: 9e6f 02be 0bfc e03d 7be7 83bd 4b7f 08be
00000030: 9122 b53c 07b1 43bc d3bb 913d d18e 673d
00000040: 4f08 38bc a52c 7b3c b434 7a3c f8ac d2bc
00000050: 1dd4 b7bd e8d8 a03d 4a97 bf3d 6250 bbbc
00000060: c79d d7bc a92e 823d c75a 1a3d 59c3 1ebd
00000070: 776d d1bc 4363 0fba 4e78 84bd eccf 5a3d
00000080: ffaa fcbd fcce debd fa56 91bc ca84 00bc
00000090: 7be0 00bd eda3 103c 3e31 9a3d 9cab d4bd
000000a0: 77b5 3c3e 73d8 48bc 9a03 7a3d b61c b73c
000000b0: c15a 97b9 bc43 d8bc d1ea 2abd 8740 84bd
000000c0: aad4 703a 8054 7e3c a05a 023c 23e0 37bd
000000d0: 726e 95bc 8738 7dbd 31e9 8f3b 78df 90bd
000000e0: 23a4 0ebd a86e a6bd b61f 003d 3a5e 733c
000000f0: 7881 8b3b 1ad4 c33c a1a7 86bd 1b95 86bd
00000100: 20f9 f23c a70e fc3c 01fa cbbc b2e3 053d
00000110: 4f2b 0d3c ecc5 8ebd de85 54bd 7a24 a7bc
00000120: 5503 9a3b fc96 473d e70e 573d 39ee c93c
00000130: 7272 ad3c db4c fb3d bdc6 e9bc f8c9 99bd
00000140: 2008 05be 098a 7e3c 620b f03b 4a8d 11bd

fc3.weight f4 [10, 84]
0.015719717 -0.5383165 0.23873779 0.013734243 -0.4904472 -0.15471703 -0.23868681 0.36361173
0.25033692 0.027962625 0.33493245 0.1728952 0.11779313 0.12862822 -0.3690813 0.06409102
0.036746208 -0.6747899 -0.0203031 -0.63905394 0.21303567 0.21193081 0.20198095 -0.27034605
0.052307047 -0.14003004 0.19642468 0.22307882 0.030158548 -0.054248758 0.21988472 0.013340181
0.38414237 -0.34374368 0.13131452 0.26296267 0.009726267 -0.4425723 -0.4960567 -0.39907303
-0.42540425 0.35243064 -0.15834484 0.06152902 0.055129714 0.11488132 0.30342114 0.09914025
0.10887462 0.026705412 -0.14151333 -0.007231061 -0.4042493 -0.27779755 -0.022755532 0.096665315
0.08872958 0.14500216 0.10124858 0.04622524 -0.40591374 0.04408272 -0.15760426 0.048754103
-0.20921938 -0.00077739125 -0.48825103 0.07890651 0.1981206 -0.022478312 0.0052913916 0.13936345
0.25110236 0.084106825 -0.34404045 -0.41292378 -0.3737025 0.041199096 -0.2631237 -0.039040647
0.35963035 -0.49873367 -0.13921389 0.2630667 0.1334245 -0.48319674 -0.20504534 0.11542769
-0.26334518 -0.27657077 0.15597779 -0.0125198765 0.2341461 0.027211834 0.16722424 -0.25631633
-0.18642427 -0.5080555 -0.27079883 0.23673977 -0.48696563 -0.06456937 -0.21800506 0.25192556
0.35065517 -0.623579 0.15588394 -0.22658856 0.1770916 0.24553297 -0.19628884 -0.28005034
0.27548093 0.20142576 0.21028581 -0.037669335 -0.19967185 -0.041799873 0.07134251 0.32168072
0.23209451 -0.3705905 0.49298534 -0.5537743 0.5499632 0.13658623 -0.54583156 -0.07991563
-0.21554512 0.21644706 -0.37783933 -0.101979226 -0.8332147 0.26528665 -0.016438141 -0.051153325
0.32342327 0.35427648 0.14504227 -0.6785173 -0.7064796 -0.0069556246 -0.25035813 0.17619956
0.23109701 0.19809465 -0.37796557 -0.39716852 -0.44266266 0.17833227 -0.035314515 0.24402013
0.08457345 -0.00874308 -0.34540996 0.2428668 -0.43793097 -0.17320111 0.25678694 0.12097509
0.24199913 0.15778306 0.6866136 -0.39220467 0.3291627 0.18330365 0.18643717 0.17363554
0.05956796 0.22430222 0.46399626 0.0034617786 0.3164293 -0.3463402 0.23701195 0.37284246
-0.72698116 -0.3592696 -0.82295275 -0.14389788 0.14467981 0.14891636 -0.262566 0.06506778
0.18051165 -0.060186166 -0.26806563 -0.14736617 0.07927706 0.008203045 -0.7936431 -0.28344077
0.039685354 0.25308508 -0.14093266 0.09790573 0.08919855 0.081765994 0.04264373 0.033262804
0.21556486 0.35393932 -0.501944 -0.69568104 -0.5397779 -0.1643252 -0.13340457 0.21567282
-0.14409314 -0.021806957 -0.72661185 -0.2400804 0.20392787 0.14501233 -0.5275084 -0.00178505
-0.019877966 0.14754884 0.17279771 0.26215273 -0.27756637 0.09946081 0.45949838 0.111905515
0.17054842 0.08964533 -0.40936568 0.06588243 0.39711812 -0.22789645 -0.26077607 0.095722556
-0.16055754 0.15369605 0.13993074 0.012084687 -0.70218384 -0.2890943 0.2172147 -0.63500136
0.14758866 0.19796576 -0.08642901 -0.32771826 -0.13660681 0.06452377 0.09730033 -0.65747637
-0.63962334 0.065011576 -0.35229716 -0.4920501 -0.05018913 0.2803918 -0.029578384 0.16903453
00000000: a3c6 803c 1ccf 09bf ae77 743e 9705 613c
00000010: e51b fbbe 246e 1ebe 516a 74be 512b ba3e
00000020: 292c 803e e011 e53c 447c ab3e 700b 313e
00000030: 863d f13d 1eb7 033e 39f8 bcbe 2742 833d
00000040: 3183 163d 08bf 2cbf b052 a6bc 0a99 23bf
00000050: 0626 5a3e 6404 593e 18d4 4e3e cc6a 8abe
00000060: ea3f 563d 0964 0fbe 8d23 493e c66e 643e
00000070: 0f0f f73c f233 5ebd 7629 613e c690 5a3c
00000080: 4fae c43e 2cff afbe 5077 063e 0ba3 863e
00000090: ec5a 1f3c d698 e2be 25fb fdbe 4d53 ccbe
000000a0: 96ce d9be ca71 b43e 2625 22be db05 7c3d
000000b0: b2cf 613d e646 eb3d 045a 9b3e 0b0a cb3d
000000c0: a8f9 de3d 4fc5 da3c dfe8 10be 89f2 ecbb
000000d0: c4f9 cebe 7b3b 8ebe cf69 babc 77f8 c53d
000000e0: dbb7 b53d 727b 143e 6a5b cf3d ad56 3d3d
000000f0: edd3 cfbe 1590 343d 0363 21be 62b2 473d
00000100: 9b3d 56be d8c9 4bba 0afc f9be bc99 a13d
00000110: 20e0 4a3e 7024 b8bc 6963 ad3b 4bb5 0e3e
00000120: 7d90 803e 3340 ac3d 1226 b0be bf6a d3be
00000130: ef55 bfbe 62c0 283d 26b8 86be 16e9 1fbd
00000140: 7821 b83e 055a ffbe 168e 0ebe aeb0 863e
00000150: 6fa0 083e 9065 f7be 68f7 51be 5a65 ec3d
00000160: 2ed5 86be af9a 8dbe a4b8 1f3e 2b20 4dbc
00000170: ffc3 6f3e 5aeb de3c d53c 2b3e e53b 83be
00000180: 01e6 3ebe ed0f 02bf 25a6 8abe e96b 723e
00000190: 8f53 f9be f23c 84bd b83c 5fbe 63fc 803e
000001a0: 1389 b33e e0a2 1fbf 0aa0 1f3e d506 68be
000001b0: 8057 353e ff6c 7b3e f1ff 48be c262 8fbe
000001c0: d60b 8d3e 8e42 4e3e 2a55 573e 294b 1abd
000001d0: c776 4cbe 5836 2bbd 061c 923d 56b3 a43e
000001e0: 2faa 6d3e 0abe bdbe 9368 fc3e 27c4 0dbf
000001f0: 63ca 0c3f 43dd 0b3e 9ebb 0bbf ceaa a3bd
00000200: dcb7 5cbe 4ca4 5d3e 2874 c1be 7cda d0bd
00000210: 8f4d 55bf a7d3 873e 48a9 86bc 2686 51bd
00000220: bc97 a53e ba63 b53e f685 143e 4fb3 2dbf
00000230: d9db 34bf 02ec e3bb f12e 80be a86d 343e
00000240: b2a4 6c3e 53d9 4a3e b484 c1be ac59 cbbe
00000250: aea4 e2be bc9c 363e f4a5 10bd 6ae0 793e
00000260: d834 ad3d 233f 0fbc 93d9 b0be 13b2 783e
00000270: 7d38 e0be a25b 31be 9479 833e cac1 f73d
00000280: 9fce 773e e291 213e e9c5 2f3f 0dcf c8be
00000290: 0388 a83e f4b3 3b3e 63e9 3e3e 84cd 313e
000002a0: 89fd 733d 7baf 653e eb90 ed3e 02df 623b
000002b0: 0503 a23e 8153 b1be 43b3 723e 35e5 be3e
000002c0: 701b 3abf 2ff2 b7be 08ad 52bf f759 13be
000002d0: f226 143e 887d 183e 0d6f 86be 4242 853d
000002e0: 0cd8 383e c585 76bd e63f 89be 28e7 16be
000002f0: 035c a23d 1166 063c 322c 4bbf 261f 91be
00000300: 1c8d 223d 5e94 813e a750 10be cd82 c83d
00000310: bbad b63d ee74 a73d 31ab 2e3d 943e 083d
00000320: 09bd 5c3e 8937 b53e 677f 00bf 2718 32bf
00000330: e22e 0abf dd44 28be 359b 08be 56d9 5c3e
00000340: 278d 13be 81a4 b2bc 3c03 3abf a3d7 75be
00000350: 78d2 503e 1d7e 143e ca0a 07bf 57f8 e9ba
00000360: 1ed7 a2bc 0b17 173e e2f1 303e e238 863e
00000370: 2e1d 8ebe 1cb2 cb3d 5f43 eb3e b82e e53d
00000380: 3fa4 2e3e f997 b73d 6198 d1be 5eed 863d
00000390: 1153 cb3e b05d 69be 7184 85be 300a c43d
000003a0: 3269 24be 7f62 1d3e 014a 0f3e dafe 453c
000003b0: 52c2 33bf 2b04 94be 886d 5e3e 738f 22bf
000003c0: 7b21 173e 89b7 4a3e b101 b1bd b0ca a7be
000003d0: a8e2 0bbe 0a25 843d 6545 c73d 5f50 28bf
000003e0: 5bbe 23bf ca24 853d 4b60 b4be feed fbbe
000003f0: 1e93 4dbd 848f 8f3e 5e4e f2bc 6317 2d3e

fc3.bias f4 [10]
0.03639745 0.09682891 0.018375883 0.028403826 0.020605307 -0.14438048 -0.088860296 0.15667237
-0.01617305 0.040681772
00000000: 7e15 153d 3c4e c63d 0589 963c 24af e83c
00000010: 76cc a83c 7ad8 13be 63fc b5bd b96e 203e
00000020: 587d 84bc eea1 263d
