train_pth/best_model_epochs10_batches32.pth (torch, 250924 bytes, 10 tensors)

conv1.weight f4 [6, 1, 5, 5]
0	0xbf4cfa4c	-0.8006942
1	0xbe48f594	-0.1962493
2	0x3f3366d9	0.7007881
3	0x3f231bfc	0.63714576
4	0xbd428e2f	-0.047498878
5	0xbf8d9b6f	-1.106306
6	0xbe86237a	-0.2619894
7	0x3f61a5dc	0.88143706
8	0x3f8d802e	1.1054742
9	0x3e9d38a0	0.30707264
10	0xbf90f3bf	-1.1324385
11	0xbe45d7f1	-0.19320656
12	0x3f6ba3fa	0.92047083
13	0x3fb212f0	1.3912029
14	0x3dea0206	0.11426167
15	0xbf83929e	-1.0279119
16	0xbee5dc68	-0.4489472
17	0x3f125457	0.5715994
18	0x3f92c522	1.146641
19	0x3c40395f	0.011732428
20	0xbf955979	-1.166793
21	0xbf18e3ee	-0.59722793
22	0x3efd7f84	0.4951135
23	0x3f19dc00	0.6010132
24	0xbdc2e32a	-0.09515984
25	0x3efe48a5	0.49664798
26	0xbe295ba0	-0.16538858
27	0xbf1b8cbc	-0.6076162
28	0xbf3378d5	-0.7010625
29	0x3e82fcc2	0.25583464
30	0x3e855aab	0.26045737
31	0xbe68b66e	-0.22725841
32	0xbf392be0	-0.7233257
33	0xbf426c24	-0.7594626
34	0x3ed003df	0.40627953
35	0x3ef389aa	0.47565967
36	0x3d632554	0.05545552
37	0xbf5f043d	-0.8711584
38	0xbf34397c	-0.70400214
39	0x3d8ac147	0.06775146
40	0x3f4492aa	0.7678629
41	0x3e5729d1	0.21012045
42	0xbf3257fb	-0.696655
43	0xbf47e37b	-0.7808148
44	0x3e16f168	0.14740527
45	0x3f6619c4	0.89883065
46	0x3ef8c863	0.48590383
47	0xbe3baf9f	-0.18328713
48	0xbe505b4b	-0.20347326
49	0x3e8000fe	0.25000757
50	0xbd9540ad	-0.072877266
51	0x3e5c68bd	0.2152433
52	0x3f693e47	0.9111065
53	0x3f8854eb	1.0650915
54	0x3ea64da7	0.3248112
55	0x3f865050	1.049326
56	0x40586e69	3.381739
57	0x40854c3e	4.165557
58	0x402186a8	2.5238438
59	0x3d12256f	0.03568023
60	0x3edd76d4	0.4325472
61	0x4038300a	2.877932
62	0x4086622e	4.199485
63	0x3ffaba08	1.9588022
64	0xbd08c864	-0.033394232
65	0xbe8764aa	-0.26443988
66	0x3ee95d87	0.45579168
67	0x3f8008d6	1.0002697
68	0x3f014af0	0.5050497
69	0xbe3c052f	-0.18361352
70	0xbf5d1e1f	-0.86374086
71	0xbea21c4f	-0.31662223
72	0xbe8d331e	-0.27578062
73	0xbe352d72	-0.17693117
74	0xbeb65eee	-0.356193
75	0x3ef0c3d4	0.47024405
76	0xbe34dae9	-0.17661633
77	0xbec23410	-0.37930346
78	0xbf482a16	-0.7818922
79	0x3e50b927	0.2038313
80	0x3eca15bb	0.39469704
81	0xbeb20f25	-0.3477718
82	0xc009f8ab	-2.1558025
83	0xc0603399	-3.5031493
84	0xbf347e61	-0.7050534
85	0x3ef97157	0.48719284
86	0xbebae2d5	-0.36501184
87	0xc003b3cd	-2.0578492
88	0xc049a99c	-3.1509771
89	0xbf0ec64b	-0.5577132
90	0x3f382300	0.71928406
91	0x3e4a2569	0.19740833
92	0xbf185954	-0.59511304
93	0xbf63abd5	-0.8893407
94	0x3ec66510	0.3874898
95	0x3f257f9d	0.6464785
96	0x3f21a55b	0.6314294
97	0x3df33549	0.11875398
98	0xbea206de	-0.31645864
99	0x3ec43868	0.38324285
100	0xbeb3a9ba	-0.3509043
101	0x3d878d34	0.06618729
102	0x3f11d455	0.5696462
103	0x3e76ff41	0.24120809
104	0xbe8a0c54	-0.2696253
105	0x3fb76552	1.4327796
106	0x404e8289	3.2267172
107	0x4049cf1f	3.1532667
108	0x3fe7edb3	1.8119415
109	0x3e717478	0.23579586
110	0x3fdd18a0	1.727314
111	0x408a3ba6	4.3197813
112	0x40847213	4.138925
113	0x3ff47907	1.9099435
114	0x3e8793b9	0.2647989
115	0x3eb4a5ba	0.3528269
116	0x3fe43fb8	1.7831945
117	0x40122016	2.2832084
118	0x3f5a6574	0.85311055
119	0xbc5db1d6	-0.013531169
120	0xbf41a9e0	-0.75649834
121	0x3c833511	0.016016515
122	0x3ea1d81a	0.31610185
123	0x3eac1c03	0.3361512
124	0xbe33fc4d	-0.17576714
125	0xbefcb1bf	-0.4935436
126	0xbe328b5c	-0.17435974
127	0xbe8fc2a8	-0.28078198
128	0xbf66cae2	-0.90153325
129	0xbfa3b986	-1.2790992
130	0xbdf36d32	-0.11886062
131	0x3ee769ca	0.45197898
132	0x3e0a57bc	0.1351003
133	0xbefec139	-0.49756792
134	0xbf94cbc3	-1.1624683
135	0x3e6b5431	0.22981335
136	0x3f9c4a15	1.2210108
137	0x3f7b4d99	0.9816528
138	0xbde38b1d	-0.11110518
139	0xbf64b7cd	-0.8934296
140	0x3ed56485	0.41678253
141	0x3fce1300	1.6099548
142	0x3faf0fba	1.3676674
143	0x3e57afb6	0.21063122
144	0xbf6b42e7	-0.9189896
145	0x3eecbc11	0.46237233
146	0x3fe28b9a	1.7698853
147	0x3fb230de	1.3921163
148	0x3e4ee24c	0.20203513
149	0xbf35d284	-0.71024346

conv1.bias f4 [6]
0	0xbf52b282	-0.8230363
1	0x3d81bd92	0.06334986
2	0xbf0b94b4	-0.5452378
3	0x3d5473b0	0.05186814
4	0xbf312115	-0.69191104
5	0xbf606ba8	-0.8766427

conv2.weight f4 [16, 6, 5, 5]
0	0xbf4badd3	-0.7956211
1	0x3e0d222c	0.13782567
2	0x3eb14b23	0.34627637
3	0xbcceca81	-0.025243046
4	0xbf2c8cfd	-0.6740263
5	0xbe87d3af	-0.2652869
6	0x3e8e3f48	0.27782655
7	0x3ee667a2	0.4500094
8	0x3bd7b638	0.0065830015
9	0xbf2b3761	-0.66881377
10	0x3d650f4c	0.05592279
11	0x3f06d33c	0.5266607
12	0x3f0b8880	0.5450516
13	0x3e4872e3	0.19575076
14	0xbed6a87d	-0.4192542
15	0xbca463c1	-0.020067098
16	0x3ebb71b2	0.3661018
17	0x3eb359f5	0.3502957
18	0x3d8ba592	0.068186894
19	0xbee70ae6	-0.45125502
20	0xbe2a709d	-0.16644521
21	0xbc8909be	-0.016728278
22	0xbe940c22	-0.28915507
23	0xbec4687c	-0.38360965
24	0xbe65e3d4	-0.22450191
25	0x3f44b809	0.76843315
26	0x3e04e64d	0.12978478
27	0xbf3f57ed	-0.7474354
28	0xbe97ad16	-0.29624242
29	0x3ebff974	0.37495005
30	0x3e8191d3	0.25306568
31	0xbdcf4341	-0.101202495
32	0xbf2f3441	-0.6843911
33	0xbeb21e27	-0.3478863
34	0x3e9c2874	0.30499613
35	0xbdf2b724	-0.118513376
36	0xbf317516	-0.69319284
37	0xbfa9d79a	-1.3268921
38	0xbf71c7e7	-0.9444565
39	0xbd1c3cf1	-0.038144056
40	0xbdc2b864	-0.09507826
41	0xbf2a4e0e	-0.6652535
42	0xbf20e286	-0.6284565
43	0xbefa1ec3	-0.48851594
44	0x3d1c905a	0.038223602
45	0xbe0bc279	-0.13648404
46	0xbe422c62	-0.18962243
47	0x3dc960b1	0.098328955
48	0x3dfa3250	0.122166276
49	0x3e0ac6e1	0.13552429
50	0xbf05aa0a	-0.52212584
51	0xbe988598	-0.29789424
52	0x3dbc344e	0.09189664
53	0x3e56f1fa	0.20990744
54	0xbd3b078f	-0.045661505
55	0xbdac35d7	-0.08408707
56	0xbdb20a94	-0.08693424
57	0x3dc1c141	0.094606884
58	0x3da2e815	0.079544224
59	0x3d8ae7d3	0.06782498
60	0x3e1c9b66	0.15293655
61	0x3df08a59	0.11745138
62	0x3e06ce89	0.13164724
63	0x3e47a1aa	0.19495264
64	0x3dbb7c15	0.09154526
65	0x3d5ea042	0.054352053
66	0x3de19bad	0.11016021
67	0xbd0985ef	-0.033574995
68	0xba07ed73	-0.0005185224
69	0xbcba9072	-0.022773955
70	0x3e50dfcb	0.2039787
71	0x3d38ba97	0.04509982
72	0xbeac4bdb	-0.33651623
73	0xbebc23ef	-0.36746165
74	0xbea033c7	-0.31289503
75	0x3f24e85b	0.64417046
76	0x3d15e90a	0.036599196
77	0xbf8a0927	-1.0784043
78	0xbef33222	-0.47499186
79	0x3e61af9c	0.22039646
80	0x3e1b6278	0.15174282
81	0x3e0dc5f9	0.13845052
82	0xbef11e6a	-0.47093517
83	0xbefa18af	-0.48846957
84	0x3d371b96	0.044704042
85	0xbeccb6bc	-0.39983165
86	0xbf64071e	-0.8907336
87	0xbfa682eb	-1.3008703
88	0xbf765f73	-0.96239394
89	0xbe823e92	-0.25438362
90	0xbef7c912	-0.48395592
91	0xbf04d530	-0.518878
92	0xbe233bc4	-0.15940768
93	0xbeaea661	-0.34111312
94	0x3dd5201e	0.104065165
95	0xbe87ff0d	-0.26561776
96	0x3b984fd9	0.0046481905
97	0x3f08f51d	0.53499013
98	0x3ea89911	0.3292928
99	0x3e9fb6be	0.3119411
100	0xbea2ae72	-0.31773716
101	0xbe517408	-0.20454419
102	0x3d9126fc	0.07087514
103	0x3e270615	0.16310914
104	0x3d233252	0.03984291
105	0xbbcc27e7	-0.0062303427
106	0xbd77e4d0	-0.060520947
107	0x3def0e6f	0.11672675
108	0x3deddc43	0.11614277
109	0x3dcc497b	0.09974953
110	0x3e8f8b3d	0.28035918
111	0x3e7a0f54	0.2441991
112	0x3e848d4a	0.25889045
113	0x3e404a6f	0.18778394
114	0x3e559aad	0.20859785
115	0x3e69191d	0.22763486
116	0x3e17b5e4	0.1481548
117	0xbb9343a0	-0.0044941455
118	0xbe02ecbc	-0.1278562
119	0xbd80341e	-0.062599406
120	0x3e700fab	0.23443477
121	0xbcdfab1f	-0.027303277
122	0xbe9da4c8	-0.3078978
123	0xbecc7e56	-0.39940137
124	0xbea47f1b	-0.32128224
125	0x3becf768	0.0072316416
126	0xbefcf9a6	-0.49409217
127	0xbd7821fb	-0.06057928
128	0x3eaef8b2	0.34174114
129	0x3dfc2fbd	0.12313793
130	0x3d8911c0	0.06692839
131	0xbdc7b4f4	-0.09751311
132	0x3ec9711d	0.3934411
133	0x3f3b480e	0.7315682
134	0x3f0efe84	0.5585711
135	0x3e03c05e	0.12866351
136	0x3dc2a9a3	0.09505012
137	0x3e595700	0.21224594
138	0x3ebfeb14	0.37484038
139	0x3ea0917b	0.31360993
140	0x3e201c99	0.15635909
141	0xbe0391fe	-0.1284866
142	0xbdebecfe	-0.11519812
143	0xbe5c4bb1	-0.21513249
144	0xbdd2606f	-0.102722995
145	0x3de0d589	0.109782286
146	0xbe434c3b	-0.19072048
147	0xbe29ceb8	-0.16582763
148	0xbf30b6a4	-0.6902869
149	0xbed06ae3	-0.40706548
150	0xbda70c13	-0.081566
151	0x3e1e0e11	0.15435053
152	0x3e311b96	0.1729568
153	0x3eac5b63	0.33663473
154	0x3dc93222	0.09824015
155	0xbd2905ee	-0.04126542
156	0x3e94cd61	0.29062942
157	0x3e746944	0.2386828
158	0x3e423680	0.18966103
159	0xbb6a37a3	-0.0035738728
160	0xbe0c4663	-0.13698725
161	0x3e1b6bfb	0.1517791
162	0x3e05fcd0	0.13084722
163	0xbe43260b	-0.19057481
164	0xbe813984	-0.25239193
165	0xbe86510b	-0.26233706
166	0x3e60d91b	0.21957819
167	0x3d9e2af2	0.07723035
168	0xbf139b1a	-0.5765854
169	0xbe9057af	-0.28191897
170	0xbeb0b5cf	-0.3451371
171	0xbac66d2c	-0.0015138737
172	0xbe1203ab	-0.14259212
173	0xbf52f4d3	-0.8240482
174	0xbeb23142	-0.34803206
175	0x3d249914	0.04018505
176	0xbe8cb556	-0.27482098
177	0xbf3b8053	-0.7324268
178	0xbf6f093c	-0.93373466
179	0xbefb48b8	-0.49078918
180	0xbd98fe36	-0.07470362
181	0xbef44a94	-0.4771315
182	0xbf3d9e5f	-0.7406978
183	0xbf133b25	-0.5751212
184	0xbe81bcb3	-0.2533928
185	0x3d35243e	0.044224016
186	0xbe3e401f	-0.18579148
187	0xbeccfc64	-0.4003631
188	0x3dc8f700	0.098127365
189	0x3e14f8cc	0.14548033
190	0x3d037662	0.03209532
191	0xbe745889	-0.23861898
192	0xbe70e365	-0.23524244
193	0x3e70a6cc	0.23501128
194	0x3e826860	0.25470257
195	0x3e0b6272	0.13611773
196	0xbe6821b3	-0.22669105
197	0x3b8b7cc1	0.004256815
198	0x3ee57dde	0.44822592
199	0x3e89ae2f	0.26890704
200	0xbd308ee0	-0.043105006
201	0x3d25259c	0.04031907
202	0x3e286621	0.16445209
203	0x3eadfd53	0.33982334
204	0x3e551efe	0.20812604
205	0xbd045c27	-0.032314446
206	0xbb0ddce4	-0.0021646554
207	0x3d9debd8	0.07710999
208	0x3e1d3fa8	0.15356314
209	0x3d8ffa09	0.07030112
210	0xbe18cf78	-0.14922893
211	0xbd94141c	-0.07230398
212	0xbde7a716	-0.11311166
213	0x3c0f62bf	0.00875157
214	0xbdf216d7	-0.118207626
215	0xbb3d436d	-0.00288793
216	0xbd81f212	-0.063449994
217	0xbd3776da	-0.04479108
218	0x3d46d912	0.048546858
219	0xbdc6ac8a	-0.09700878
220	0x3d6915bb	0.05690549
221	0x3db3bc5d	0.08776162
222	0x3c48b584	0.012250308
223	0x3c436459	0.01192578
224	0xbde2bdb4	-0.11071339
225	0xbeb96d77	-0.36216328
226	0xbf1dcde4	-0.6164229
227	0xbfaad7e5	-1.3347136
228	0xbfc3f3d8	-1.530879
229	0xbf3477db	-0.70495385
230	0xbd2e41bb	-0.042543154
231	0xbdf75864	-0.12077406
232	0xbee4951b	-0.44645008
233	0xbf3d76e6	-0.7400955
234	0xbe66435b	-0.22486632
235	0x3e4284d6	0.18995985
236	0x3df33c50	0.11876738
237	0xbce60406	-0.02807809
238	0xbc12caab	-0.008959453
239	0x3e19e04a	0.15026966
240	0xbe127f91	-0.14306475
241	0xbe8f4630	-0.27983236
242	0xbe79496a	-0.24344411
243	0xbdd08c44	-0.101830035
244	0x3e4d8ed1	0.20074011
245	0xbdffde34	-0.12493554
246	0xbe891bf6	-0.26779145
247	0xbe068062	-0.13134912
248	0xbdb499f7	-0.08818429
249	0x3e47dbcf	0.19517444
250	0x3e03f979	0.12888135
251	0x3dd18937	0.1023125
252	0x3e8c9454	0.27456915
253	0x3ea52335	0.32253423
254	0x3eca603f	0.39526555
255	0xbc5b93a8	-0.013401903

conv2.bias f4 [16]
0	0xbcb7c492	-0.0224326
1	0xbda0dae4	-0.0785425
2	0x3db5f96f	0.08885466
3	0xbdeebfcc	-0.11657676
4	0x3e0c33c7	0.13691626
5	0xbdde3ea8	-0.108517945
6	0xbdd43f6b	-0.103636585
7	0xbd89bd8c	-0.06725606
8	0x3cd33a05	0.025784502
9	0xbe218e4f	-0.15776943
10	0x3dc6950f	0.096963994
11	0xbd1ae604	-0.037817016
12	0x3d11ff2c	0.03564374
13	0x3df32dd3	0.11873975
14	0xbe09bef1	-0.13451745
15	0xbdc2b834	-0.0950779

fc1.weight f4 [120, 400]
0	0x3e091a82	0.13389018
1	0x3d002c0d	0.03129201
2	0xbdd4dffd	-0.10394285
3	0x3eec04dc	0.46097457
4	0xbd6ee6c8	-0.05832556
5	0xbe95e61c	-0.29277122
6	0x3e244386	0.16041383
7	0x3daf1b5f	0.085501425
8	0xbdefbe6c	-0.11706242
9	0x3d0ef807	0.034904506
10	0xbea9efd2	-0.3319078
11	0x3e38be56	0.18041357
12	0x3e239a01	0.15976717
13	0xbe628213	-0.22119932
14	0xbe1249f6	-0.14286026
15	0x3d80b985	0.06285385
16	0x3de84fa4	0.11343315
17	0x3d51f08d	0.051254798
18	0x3e8770a3	0.26453122
19	0x3dec1459	0.115273185
20	0x3d136fd4	0.03599532
21	0xbc82f980	-0.015988111
22	0xbd3394d8	-0.04384312
23	0x3e4aa1f1	0.19788338
24	0x3d06a646	0.032873414
25	0x3e1fe224	0.1561361
26	0x3dfd71a5	0.123751916
27	0xbd3311ad	-0.04371803
28	0x3ed017e0	0.40643215
29	0xbe823084	-0.2542764
30	0xbdacd70e	-0.08439456
31	0x3e08c390	0.13355851
32	0x3e2c4398	0.1682266
33	0xbe1722e6	-0.14759406
34	0xbce7b860	-0.028286159
35	0xbe575092	-0.21026829
36	0x3df23a18	0.11827487
37	0x3e0361c0	0.12830257
38	0xbe7b1d13	-0.2452281
39	0xbe383d1c	-0.17992061
40	0xbd2d51ef	-0.042314466
41	0x3d0d62dc	0.034518108
42	0x3c374f76	0.011188379
43	0xbd347aa1	-0.04406226
44	0xbd832631	-0.06403769
45	0xbdf40308	-0.11914641
46	0x3dbf581d	0.09342978
47	0xbd2e3c1b	-0.04253779
48	0x3dc8c30e	0.09802829
49	0xbcca2b0f	-0.024678735
50	0xbdf885d2	-0.12134899
51	0xbe745400	-0.23860168
52	0x3f03fa0d	0.5155342
53	0xbf11c4bc	-0.5694082
54	0xbddf652d	-0.109079696
55	0x3e06b57a	0.13155165
56	0xbefba531	-0.4914947
57	0xbe2548d4	-0.16141063
58	0x3e5ede04	0.2176438
59	0x3c2fc641	0.01072842
60	0x3da6c74f	0.08143484
61	0xbe99ac78	-0.30014396
62	0xbe9b2cff	-0.30307767
63	0x3e7f061d	0.24904676
64	0x3e04f346	0.12983426
65	0xbdca3e0e	-0.09875117
66	0xbdc081bc	-0.09399745
67	0xbd14a2fc	-0.036288247
68	0xbcc666da	-0.024218965
69	0x3e337b14	0.1752742
70	0xbdf99656	-0.121868774
71	0xbea2dbc5	-0.31808296
72	0x3d611a04	0.05495645
73	0xbd7c6645	-0.06162097
74	0x3e5caf3f	0.21551226
75	0xbb934bf8	-0.00449514
76	0x3eb12918	0.34601665
77	0xbd8585b7	-0.06519645
78	0x3e928a00	0.2862091
79	0xbcd44e8a	-0.025916357
80	0xbe8f36f4	-0.27971613
81	0x3dd9a849	0.10627801
82	0x3e1528aa	0.14566293
83	0xbe456880	-0.19278145
84	0x3d9bf7e7	0.07615643
85	0xbe2608b2	-0.16214254
86	0xbc2d5f65	-0.010581826
87	0x3e13c9ab	0.14432399
88	0xbd11b2aa	-0.035570778
89	0xbd159172	-0.03651566
90	0x3e6346e7	0.22195016
91	0x3d4f93ff	0.05067825
92	0x3b8fd7da	0.004389745
93	0x3e993800	0.29925537
94	0x3d4124db	0.04715429
95	0x3eb5d849	0.35516575
96	0x3e8cc768	0.27495885
97	0xbdde08d4	-0.108415276
98	0x3ecc8998	0.39948726
99	0xbe4e80c6	-0.2016631
100	0xbdf6feb9	-0.12060303
101	0xbec7ac11	-0.38998464
102	0x3e15bd02	0.14622882
103	0x3def7bcc	0.11693534
104	0xbe09bad5	-0.13450177
105	0xbd577dcd	-0.052610207
106	0x3d17d49f	0.037068006
107	0xbf32602c	-0.69677997
108	0x3d151e6f	0.036405977
109	0x3e7e81d0	0.24854207
110	0xbd6387f0	-0.055549562
111	0xbd2a7d24	-0.04162325
112	0xbf3aa069	-0.72901016
113	0x3d8a5422	0.06754328
114	0x3e77b7c2	0.24191192
115	0x3dcd5119	0.10025234
116	0xbe5c6e49	-0.21526445
117	0xbedf20b1	-0.4357963
118	0xbde26fe0	-0.11056495
119	0x3dc0e315	0.094183125
120	0x3eb6d1a8	0.3570683
121	0xbebd7be5	-0.37008587
122	0xbf44995d	-0.76796514
123	0xbf0b1fef	-0.543456
124	0x3d917c98	0.071038425
125	0x3e89f51e	0.26944822
126	0x3dbb45a4	0.09144142
127	0x3d245686	0.040121578
128	0x3d9d316a	0.076754406
129	0x3e8bd595	0.27311388
130	0xbc9dac47	-0.019247187
131	0x3da6b25e	0.081394896
132	0x3da04447	0.07825523
133	0x3d9a0088	0.075196326
134	0xbe27dde5	-0.1639324
135	0xbe00461d	-0.12526746
136	0x3d5afea6	0.053465508
137	0x3dac0f08	0.084013045
138	0xbb64c1a9	-0.003490547
139	0xbe7fbcf1	-0.24974419
140	0xbdcab990	-0.098986745
141	0xbd388563	-0.045049082
142	0x3d1f3f22	0.038878568
143	0xbd19efd2	-0.037582226
144	0xbe32056e	-0.17384884
145	0xbe0e1f9a	-0.13879243
146	0x3bfca664	0.007710265
147	0x3dbe7664	0.09299925
148	0x3d2fb5ca	0.042897977
149	0xbe53b9fe	-0.20676419
150	0x3eac3921	0.33637336
151	0x3db5b5ff	0.088726036
152	0x3d1d199f	0.038354512
153	0x3e71fd53	0.23631792
154	0xbeae4fd7	-0.34045288
155	0xbdeb041e	-0.11475395
156	0x3e3013d7	0.17195068
157	0x3c8f31db	0.017479828
158	0xbd8e00da	-0.06933756
159	0xbdfe7db3	-0.12426319
160	0xbe16c295	-0.14722665
161	0x3de503a4	0.11182335
162	0x3cc4629d	0.023972804
163	0xbda6682f	-0.0812534
164	0xbd2940eb	-0.041321676
165	0x3ddfd720	0.10929704
166	0x3e5a7704	0.21334463
167	0x3dfd6996	0.123736545
168	0x3e7eb39f	0.24873208
169	0xbea11a23	-0.31465253
170	0x3e97fc06	0.29684466
171	0x3e68e3c7	0.2274314
172	0x3e0f4cc4	0.13994128
173	0x3e279690	0.16366029
174	0xbfa6df6a	-1.303693
175	0x3e3a8acc	0.1821701
176	0x3d97d5ad	0.07413802
177	0x3e3767e7	0.1791073
178	0xbe2eb870	-0.17062545
179	0xbb34706d	-0.0027532831
180	0x3ea2bdd3	0.3178545
181	0xbebe597e	-0.37177652
182	0x3cd17233	0.02556715
183	0x3e02e7f6	0.12783799
184	0x3c03af55	0.008037408
185	0x3d3bf696	0.04588946
186	0xbe553e3e	-0.20824525
187	0xbc938822	-0.01800925
188	0x3d5cc444	0.05389811
189	0xbd4a3e7d	-0.049376
190	0xbec55ed6	-0.38548917
191	0x3c4afd03	0.012389424
192	0x3cbdd43f	0.023172496
193	0xbd8940d2	-0.067018166
194	0x3c07769d	0.008268026
195	0xbf9cc306	-1.2247016
196	0xbe5998cb	-0.21249692
197	0xbceea47c	-0.029131167
198	0xbda65aa2	-0.081227556
199	0x3d6ea241	0.058260206
200	0x3dde023f	0.10840272
201	0xbe48b0b6	-0.1959866
202	0xbe0bc5a1	-0.13649608
203	0x3de57c42	0.11205341
204	0x3e55e9f4	0.20890027
205	0x3d062d64	0.03275813
206	0x3ddf6888	0.1090861
207	0xbf01a0ab	-0.50635785
208	0x3d8cda88	0.06877619
209	0x3e750420	0.23927355
210	0xbe007939	-0.12546243
211	0xbd33ba98	-0.04387912
212	0xbe968128	-0.29395413
213	0xbd14670e	-0.036231093
214	0x3d9200ad	0.07129035
215	0x3e348a6c	0.17630929
216	0xbd480834	-0.048835948
217	0x3c5a125a	0.013310039
218	0x3d125460	0.035724998
219	0x3dc9e489	0.09858043
220	0x3eeae48d	0.45877495
221	0xbf2161e5	-0.6304
222	0xbf159465	-0.5842956
223	0xbf0fc4a4	-0.56159425
224	0x3eb301d8	0.34962344
225	0x3c8da80e	0.017292049
226	0xbd846e23	-0.064663194
227	0x3be93cc0	0.0071178377
228	0x3ecedccc	0.4040283
229	0xbe939b56	-0.2882945
230	0xbbe17c53	-0.0068812757
231	0xbd197bb2	-0.03747148
232	0x3e0009ae	0.12503693
233	0xbdfeed35	-0.124475874
234	0x3b589f00	0.0033053756
235	0xbe67ec14	-0.2264865
236	0x3d02bc48	0.03191784
237	0x3df6ef1c	0.12057325
238	0xbe673f27	-0.22582684
239	0xbe5fac43	-0.21843056
240	0xbe44f16e	-0.19232723
241	0x3df59ddf	0.11993002
242	0x3d1d9610	0.03847319
243	0x3c37d0a0	0.011219174
244	0x3d701f1b	0.058623414
245	0xbe4f5836	-0.20248494
246	0x3d29c433	0.041446876
247	0xbb29ef51	-0.0025929997
248	0x3d535412	0.051593848
249	0x3e8cce5b	0.27501187
250	0xbe2ba29e	-0.16761252
251	0xbf06a9f6	-0.5260309
252	0x3f5e936d	0.86943704
253	0xbe8658cf	-0.2623963
254	0xbe557076	-0.20843682
255	0x3e66bbc3	0.22532563

fc1.bias f4 [120]
0	0xbd168e01	-0.03675652
1	0xbc899d86	-0.016798746
2	0x3d0fa488	0.03506902
3	0xbcba3eb6	-0.022734981
4	0x3b29f531	0.00259335
5	0x3d2b7ad8	0.0418652
6	0x3d4f26b0	0.050574005
7	0x3d42df93	0.0475765
8	0xbd8bab3a	-0.06819768
9	0x3c62c4c7	0.013840861
10	0x3b99a42f	0.0046887617
11	0xbd38d45d	-0.0451244
12	0x3c56fbfe	0.013121603
13	0x3d31767b	0.043325882
14	0xbd94d1cc	-0.07266578
15	0x3d33fb14	0.04394062
16	0x3ce1a14d	0.027542735
17	0xbdd1d887	-0.102463774
18	0x3d01f390	0.03172642
19	0x3d85e5cb	0.0653797
20	0x3b60e55b	0.0034316394
21	0x3c13499d	0.008989719
22	0xbce64aa2	-0.02811176
23	0xbc78affc	-0.015178677
24	0xbc8d2a52	-0.017232094
25	0x3a1028f3	0.0005499266
26	0xbc91bd6b	-0.017790517
27	0x3d51eebe	0.051253073
28	0x3d62c0e2	0.05535973
29	0xbdc126c1	-0.0943122
30	0x3d261461	0.04054678
31	0xbc062446	-0.008187359
32	0xbd5dc9b0	-0.054147422
33	0xbd6e0f9d	-0.05812036
34	0xbcf07f90	-0.029357702
35	0x3d279f54	0.04092343
36	0x3d2f53bf	0.042804476
37	0xbd3373ec	-0.043811724
38	0x3c487e6c	0.012237173
39	0x3d1e91bf	0.038713213
40	0xbc250daf	-0.010074063
41	0x3da67554	0.08127847
42	0xbc01f06d	-0.007930857
43	0x3deb50fc	0.11490056
44	0x3afd9cb9	0.0019349075
45	0xbd02cd02	-0.031933792
46	0x3c4b5899	0.01241126
47	0x3d36e3a2	0.04465068
48	0xbcf1e655	-0.029528776
49	0x3d0cb77a	0.034354664
50	0xbd3b890a	-0.045784988
51	0xbd0eb616	-0.03484162
52	0x3d014a1e	0.031564824
53	0xbcb81ad3	-0.022473728
54	0xbcac0cf4	-0.02100227
55	0xbd2c4686	-0.042059444
56	0x3d6e7258	0.058214515
57	0x3c08092d	0.008302969
58	0xbd883ac5	-0.066518344
59	0xbd8ae3d0	-0.06781733
60	0x3cf809e8	0.030278161
61	0x3d0f94bf	0.035053965
62	0x3cbc8735	0.02301369
63	0xbd8f9fc3	-0.07012894
64	0xbc25bc78	-0.010115735
65	0x3cc6d08d	0.024269367
66	0xbd211c2f	-0.03933352
67	0xbd61441d	-0.0549966
68	0x3d8469e4	0.064655095
69	0x3d1dc8f3	0.03852172
70	0xbd175a63	-0.036951434
71	0xbd08653e	-0.033299677
72	0x3d274447	0.0408366
73	0x3ce6dee2	0.02818245
74	0xbb02fb2d	-0.0019986138
75	0x3dd1021c	0.102054805
76	0x3d6f7d84	0.05846931
77	0x3d090f47	0.033461835
78	0x3d43667a	0.04770515
79	0x3cc67635	0.024226287
80	0x3aaab65e	0.001302432
81	0xbcc843d5	-0.024446407
82	0xbc8efc53	-0.017454302
83	0xbdd987b3	-0.10621586
84	0x3aa46b63	0.0012544211
85	0xbcab6106	-0.020920288
86	0x3a70275e	0.00091611396
87	0xbc8b6e8b	-0.017020484
88	0x3d3485b5	0.044072825
89	0xbce1d4f0	-0.027567357
90	0xbd20a6a3	-0.039221417
91	0xbd734e7d	-0.059401024
92	0x3d83440a	0.06409462
93	0xbd0e6a4b	-0.034769338
94	0x3d0f9578	0.035054654
95	0xbd8d124f	-0.06888258
96	0x3d1de682	0.038549908
97	0xbd6ca48f	-0.057774123
98	0x3d62e7cc	0.05539684
99	0xbdbb0896	-0.09132497
100	0x3ca05735	0.019572834
101	0xbcbce924	-0.023060389
102	0x3ce5f4d6	0.028070848
103	0xbd517bba	-0.051143385
104	0xbb2cfb27	-0.0026394816
105	0xbd16bb39	-0.036799643
106	0xbcccf7d2	-0.025020514
107	0xbbf4872c	-0.007462403
108	0x3d122473	0.035679292
109	0x3d5390ae	0.05165165
110	0xbd8566dd	-0.0651376
111	0xbca07446	-0.019586693
112	0x3c639f4b	0.013892959
113	0x3cebc667	0.028781129
114	0x3c594ba0	0.013262659
115	0x3ce9a7a4	0.02852232
116	0xbd82277a	-0.06355186
117	0xbcf40c83	-0.029791122
118	0xbc44bbdb	-0.012007679
119	0xbc0ced8b	-0.0086015565

fc2.weight f4 [84, 120]
0	0xbe810b3c	-0.25203884
1	0x3e2c6597	0.16835628
2	0x3d6eff18	0.058348745
3	0x3f0db3df	0.55352587
4	0xbd4539b6	-0.04815074
5	0xbe4cec20	-0.2001195
6	0x3e067c5f	0.13133381
7	0x3e1f286e	0.15542766
8	0xbdd74e05	-0.10512928
9	0x3e3e09a4	0.18558365
10	0xbe0a3841	-0.13498022
11	0x3d72702f	0.059189018
12	0x3f3e719f	0.7439212
13	0x3ebdb6f7	0.37053654
14	0xbf3daf94	-0.74096036
15	0xbbb1ec9f	-0.0054298188
16	0xbf1694d5	-0.5882085
17	0xbe24d940	-0.160985
18	0xbe2f3ec9	-0.17113794
19	0xbf700edf	-0.9377269
20	0x3eaf6a5c	0.34260833
21	0xbe47702d	-0.19476385
22	0x3d8e7178	0.06955236
23	0xbe5edc00	-0.21763611
24	0x3eb8828b	0.36037096
25	0x3d155743	0.036460172
26	0xbe6fa558	-0.23402917
27	0xbe0072bd	-0.12543769
28	0xbd526b8e	-0.051372103
29	0xbe5b4ff5	-0.2141722
30	0x3e6430e8	0.22284281
31	0x3c8b898e	0.017033365
32	0x3df909b4	0.12160054
33	0xbeb613d1	-0.35561994
34	0xbef60ee3	-0.48058233
35	0x3ca3b857	0.019985361
36	0x3e4bbec5	0.19896992
37	0xbeabfdff	-0.3359222
38	0x3dee3414	0.11631027
39	0xbedf60c3	-0.4362851
40	0xbe3a0604	-0.18166357
41	0x3e9c0d1b	0.3047875
42	0xbdcd96d2	-0.10038532
43	0xbdbf1c74	-0.09331599
44	0xbed22242	-0.41041762
45	0xbef3a5af	-0.47587344
46	0xbcf68f50	-0.030097634
47	0x3c1d6827	0.009607351
48	0xbc98b769	-0.018642144
49	0xbe812cb8	-0.2522943
50	0xbe9fdf7c	-0.31225193
51	0xbe167592	-0.14693287
52	0x3dded9e4	0.10881403
53	0x3e9e905c	0.30969512
54	0x3f0bc1ce	0.545926
55	0x3e20c7f7	0.1570128
56	0x3b857e35	0.004073883
57	0x3e0d54ff	0.13801955
58	0xbd82d3c9	-0.06388051
59	0x3cc55639	0.024088966
60	0xbdb75ece	-0.089536294
61	0xbdd1d5cf	-0.10245859
62	0xbe015534	-0.12630159
63	0xbe906969	-0.28205422
64	0xbf4db6ff	-0.80357355
65	0x3e938dde	0.28819174
66	0xbdaf1e63	-0.08550718
67	0xbe1dd658	-0.15413797
68	0x3d93647b	0.071968995
69	0x3ddcc07b	0.107789
70	0x3dfd71e1	0.12375236
71	0xbdfe0b88	-0.12404543
72	0xbe1e29fd	-0.15445705
73	0x3f1f00f2	0.6211082
74	0xbe665884	-0.22494704
75	0xbe897218	-0.2684486
76	0xbf84af11	-1.0365926
77	0xbe400db5	-0.18755229
78	0x3e728dae	0.23686859
79	0xbd3143d5	-0.04327758
80	0xbe184d66	-0.14873275
81	0xbf017c4d	-0.5058029
82	0xbec93926	-0.39301413
83	0xbeb2c44c	-0.34915388
84	0x3e2b6989	0.16739477
85	0x3e1fda62	0.1561065
86	0xbf4cf015	-0.80053836
87	0x3efaeef7	0.4901044
88	0x3e0d4bbc	0.13798422
89	0x3f4970a4	0.786875
90	0x3de8abb0	0.11360872
91	0xbd3b2f0c	-0.045699164
92	0xbd169f63	-0.036773097
93	0xbeb016c0	-0.34392357
94	0x3cae6043	0.021286136
95	0x3f333114	0.6999676
96	0xbe4224f6	-0.18959412
97	0xbe30e130	-0.17273402
98	0x3e409a4b	0.18808858
99	0x3e47d861	0.19516136
100	0xbf4b125c	-0.7932489
101	0x3ed643a4	0.4184848
102	0xbe3628da	-0.17789021
103	0xbe02dae7	-0.12778817
104	0x3e0859de	0.13315532
105	0xbd4282b6	-0.047487937
106	0xbefc34be	-0.4925899
107	0xbe21b8b5	-0.15793116
108	0x3ee00b35	0.4375855
109	0xbd869509	-0.06571395
110	0xbe3b872b	-0.18313281
111	0x3e30ca63	0.17264704
112	0x3e383d6b	0.17992179
113	0x3df6b348	0.12045914
114	0xbed20330	-0.41018057
115	0xbf392c5a	-0.723333
116	0x3e124f6e	0.14288113
117	0xbe49eda9	-0.19719566
118	0x3afc301b	0.0019240411
119	0xbeb635a4	-0.355878
120	0x3f1da72e	0.6158322
121	0x3e646202	0.22303012
122	0x3cfbbbad	0.03072914
123	0x3c89ccfa	0.016821373
124	0x3e74d1af	0.23908113
125	0xbe60d333	-0.21955566
126	0xbe3550b8	-0.17706573
127	0xbceb3a9b	-0.028714469
128	0x3e90dbec	0.28292787
129	0x3e609e6c	0.21935433
130	0x3d2c8732	0.04212112
131	0x3ec44e10	0.38340807
132	0x3e4dd2c1	0.20099927
133	0x3e19a25e	0.15003344
134	0x3ee75105	0.45179
135	0xbea18c0f	-0.3155217
136	0xbe229c2a	-0.15879884
137	0xbd1209a8	-0.03565374
138	0xbea89339	-0.32924822
139	0x3e53f629	0.20699371
140	0xb9e89c37	-0.00044366877
141	0x3d90a3d0	0.07062495
142	0x3e7478d2	0.23874214
143	0xbd224217	-0.03961381
144	0x3cb1c60c	0.021700881
145	0x3e221f21	0.15832187
146	0xbe267028	-0.16253722
147	0xbeacc60a	-0.33744842
148	0xbe7f352f	-0.24922632
149	0x3e3217ac	0.17391843
150	0xbe4d0990	-0.20023179
151	0x3e93c435	0.28860632
152	0x3de8fb36	0.1137604
153	0x3e941a8e	0.2892651
154	0x3dfba453	0.12287202
155	0xbdb2d214	-0.087314755
156	0xbd5b1bd3	-0.053493332
157	0x3dcdf146	0.10055785
158	0x3d9c6af9	0.07637591
159	0xbea0fd30	-0.31443167
160	0xbe17551f	-0.14778565
161	0xbe57cffb	-0.21075432
162	0x3d91b596	0.07114713
163	0xbe0ed3d4	-0.13947994
164	0x3ea80490	0.3281598
165	0xbf12faaf	-0.5741376
166	0x3ea1e816	0.3162238
167	0x3e5428a0	0.20718622
168	0x3e4b1e6c	0.19835824
169	0x3edad7af	0.4274268
170	0xbeaba9e4	-0.33528054
171	0xbe4a8eb2	-0.19780996
172	0x3e49dad3	0.19712381
173	0xbde61e91	-0.11236299
174	0xbea4a9e6	-0.32160872
175	0x3df9dccc	0.12200317
176	0xbea3f5dc	-0.32023513
177	0x3e64ac1b	0.22331278
178	0x3cf4c094	0.029876985
179	0xbeb3dda3	-0.35130033
180	0xbe570ec6	-0.2100173
181	0xbe5ad79d	-0.21371312
182	0x3e838687	0.25688574
183	0x3df26a7c	0.118367165
184	0x3c2b18c6	0.010442918
185	0xbe9930f1	-0.29920152
186	0xbb64385c	-0.0034823632
187	0xbe81918e	-0.25306362
188	0x3d90a1fb	0.07062145
189	0x3d80bc32	0.062858954
190	0x3ee542db	0.4477757
191	0xbe2ede96	-0.17077097
192	0xbf0c0c23	-0.5470602
193	0xbebac82e	-0.3648085
194	0x3e15ad07	0.14616786
195	0xbed0c7ef	-0.40777537
196	0xbd1d0e1c	-0.038343534
197	0x3e8296d2	0.25505692
198	0x3d4019e6	0.0468997
199	0xbe8b1c27	-0.27169916
200	0x3e7a91fb	0.2446975
201	0xbe5af6eb	-0.21383254
202	0x3ec725b8	0.38895965
203	0x3e4d88eb	0.20071761
204	0xbe84da2c	-0.25947702
205	0x3de3aec4	0.11117318
206	0x3dbe53c5	0.092933215
207	0xbead64b9	-0.33865908
208	0x3e3be3fd	0.1834869
209	0x3e10ee05	0.14153297
210	0x3e8368b4	0.2566582
211	0x3e6c4b63	0.23075633
212	0x3e47db42	0.19517234
213	0x3ed447db	0.4146107
214	0xbd6308ee	-0.055428438
215	0x3e09a30d	0.13441105
216	0xbe931cd0	-0.2873292
217	0x3e30979d	0.17245336
218	0x3e07d0ea	0.13263288
219	0x3ec71fb6	0.3889138
220	0x3d07a134	0.03311272
221	0x3e04d96c	0.12973565
222	0xbe72d0f4	-0.23712522
223	0xbb9d271e	-0.004795923
224	0x3dd09549	0.10184724
225	0x3e4a5d9c	0.19762272
226	0x3eca2863	0.39483938
227	0xbcf9cfb8	-0.030494556
228	0x3cc3777b	0.023860684
229	0x3e7f413f	0.24927233
230	0x3e17087a	0.14749327
231	0x3e56c271	0.20972611
232	0xbdbea790	-0.09309304
233	0xbe31ce05	-0.17363746
234	0x3ef3d9cb	0.476271
235	0xbcd6d5e0	-0.02622503
236	0xbe329c18	-0.17442358
237	0x3de6a979	0.11262793
238	0x3f47c30f	0.7803201
239	0xbcd8b9d3	-0.026455795
240	0xbf396eab	-0.7243449
241	0x3cd25da3	0.025679415
242	0x3e90df76	0.28295487
243	0x3dc23330	0.094824195
244	0x3e6b6fcb	0.22991864
245	0xbe1ecfd6	-0.1550897
246	0xbd09da47	-0.03365543
247	0xbe0354e6	-0.12825355
248	0xbf513c26	-0.81732404
249	0xbd897fd1	-0.06713832
250	0xbe994302	-0.29933935
251	0x3e54980e	0.2076113
252	0xbe8a42e0	-0.27004147
253	0xbead262f	-0.33818194
254	0xbf442926	-0.7662529
255	0xbeb42036	-0.35180825

fc2.bias f4 [84]
0	0xbd81e278	-0.063420236
1	0x3d7ff83d	0.062492598
2	0xbc781a91	-0.015143053
3	0x3cd8963e	0.026438829
4	0xbe144d63	-0.14482646
5	0x3ce6ba8b	0.028165122
6	0x3dfda3a1	0.12384725
7	0xbe13604b	-0.14392202
8	0x3d852bb5	0.06502477
9	0x3c30b2f6	0.010784855
10	0xbd0f7c69	-0.035030756
11	0x3da90d5f	0.082545035
12	0x3d831b80	0.064017296
13	0x3bdc6eec	0.00672709
14	0x3ce9821c	0.028504424
15	0x3dd1693c	0.1022515
16	0xbd8113ae	-0.06302582
17	0x3caa33f8	0.020776734
18	0x3c8b859d	0.017031485
19	0xbe0508ba	-0.1299161
20	0xbc54ca15	-0.012987633
21	0x3cfd35da	0.030909467
22	0x3d3f72a6	0.046740197
23	0x3cb42f24	0.021995135
24	0xbc4c7842	-0.012479844
25	0x3e0d2e44	0.1378718
26	0x3bb6d0d4	0.0055790935
27	0x3cdf17e1	0.027233066
28	0x3cc3715f	0.02385777
29	0xbd662a23	-0.05619253
30	0xbd05a69f	-0.032629605
31	0xbcd52f94	-0.026023664
32	0xbd8289ac	-0.06373915
33	0xbdf79e11	-0.12090696
34	0xbc6ef495	-0.01458468
35	0xbda57258	-0.0807845
36	0xbd86f179	-0.06589026
37	0x3db2b9b7	0.087268285
38	0xbc5c535b	-0.013447608
39	0xbd0968b2	-0.03354711
40	0xbd0eca7c	-0.034861073
41	0x3de344a9	0.1109708
42	0x3cc9d52b	0.02463778
43	0x3c3770b8	0.011196308
44	0x3db50ff2	0.08840932
45	0xbd27e661	-0.04099119
46	0x3d1ab99c	0.037774667
47	0x3c8aa2f6	0.016923409
48	0xbcef3ba3	-0.029203242
49	0x3cae2337	0.021257026
50	0x3badef5b	0.0053080744
51	0xbd6a9f17	-0.057280626
52	0x3cb734aa	0.02236398
53	0xbd7e7098	-0.062119097
54	0x3d0f718e	0.035020404
55	0x3d6d0fca	0.057876386
56	0x3bfb28a3	0.0076647564
57	0x3d014bea	0.031566538
58	0xbd8811f5	-0.0664405
59	0xbc911af5	-0.01771305
60	0xbda289d3	-0.07936444
61	0x3d175d9e	0.036954515
62	0xbcbc752c	-0.02300509
63	0x3d02741c	0.03184901
64	0xbaf9f8e8	-0.0019071372
65	0xbdf21f4f	-0.11822378
66	0x3c1a2524	0.009408269
67	0x3cf0084c	0.029300831
68	0xbdab7a7a	-0.0837297
69	0x3d6c4837	0.057686057
70	0xbd823553	-0.06357827
71	0x3e38755c	0.18013519
72	0xbd55752d	-0.0521137
73	0x3cf47cdd	0.029844696
74	0x3e054cc7	0.1301757
75	0x3d2a76ed	0.041617323
76	0x3dd7e8ff	0.10542487
77	0x3da37d40	0.07982874
78	0xbd275046	-0.04084804
79	0xbc78b599	-0.015180015
80	0x3d3afddf	0.045652267
81	0xbce597a5	-0.028026411
82	0xbd395a58	-0.045252174
83	0xbe10ab4c	-0.14127845

fc3.weight f4 [10, 84]
0	0x3e3edfac	0.18640012
1	0xbd2ebc8c	-0.04266028
2	0xbea2a8cc	-0.31769407
3	0xbf05cd5e	-0.5226649
4	0xbea22706	-0.31670398
5	0x3d0de941	0.034646276
6	0x3c98ee71	0.018668385
7	0x3eb66418	0.3562324
8	0x3ef8a5a9	0.4856389
9	0xbef77e4f	-0.48338553
10	0x3d4d1290	0.05006653
11	0x3e495081	0.19659616
12	0xbe7f5cfc	-0.24937814
13	0xbec31a78	-0.38106132
14	0x3ea22bb8	0.3167398
15	0xbe3a1e27	-0.18175565
16	0x3ec969e8	0.39338613
17	0xbe210d0a	-0.1572763
18	0xbf141cfe	-0.5785674
19	0x3d6b1ed3	0.057402443
20	0xbf0b0c4c	-0.5431564
21	0xbf018deb	-0.50607175
22	0x3e2d74a0	0.1693902
23	0x3daf4b7e	0.08559321
24	0x3dfddc51	0.12395538
25	0xbce6b780	-0.028163671
26	0xbe991f6f	-0.29906794
27	0xbdd16619	-0.10224552
28	0x3d90dd69	0.07073481
29	0x3dfefe06	0.12450795
30	0xbee4d4e4	-0.44693673
31	0xbf0e1a9e	-0.55509365
32	0x3f1c9260	0.6116085
33	0xbe52429b	-0.2053322
34	0xbe6e0145	-0.23242672
35	0xbeb06398	-0.34450984
36	0x3d2d0db6	0.042249404
37	0x3d000e05	0.03126337
38	0x3d745cd8	0.059658855
39	0x3e940681	0.28911212
40	0x3dedf026	0.1161807
41	0xbe8998f6	-0.26874512
42	0x3aff4363	0.0019475039
43	0x3e5d2d0a	0.21599212
44	0xbecf0e0d	-0.40440407
45	0x3e8e5245	0.27797142
46	0x3cde0d34	0.027105905
47	0xbcb637b9	-0.022243368
48	0x3e6b60e7	0.22986184
49	0xbe1803ac	-0.1484515
50	0xbf594604	-0.8487246
51	0x3da0ba3e	0.07848023
52	0xbf210f51	-0.62913996
53	0x3df2c9aa	0.118548706
54	0x3e2d4c62	0.16923669
55	0xbd5fe87f	-0.054665085
56	0x3e0142bd	0.12623115
57	0xbf070879	-0.52747303
58	0x3e95c3e4	0.29251015
59	0xbf224b53	-0.63396186
60	0xbceb5025	-0.02872474
61	0xbec0380a	-0.37542754
62	0x3d3b4c65	0.045727152
63	0xbef3215b	-0.47486386
64	0x3e73b67c	0.23800081
65	0xbd2f8d85	-0.042859573
66	0x3dfbec88	0.12300974
67	0xbdade789	-0.084914275
68	0x3e991e77	0.29906055
69	0x3d4f7013	0.05064399
70	0xbb485a38	-0.0030571353
71	0xbef763a8	-0.4831822
72	0x3eb2f9da	0.34956247
73	0x3eb875ca	0.36027366
74	0xbeb1f42a	-0.34756595
75	0x3ea78bb5	0.32723776
76	0x3e721058	0.23639047
77	0x3e7f38d6	0.24924025
78	0x3ef73cab	0.48288473
79	0xbf2bc675	-0.67099696
80	0xbf1b3d6e	-0.6064061
81	0xbe82aafe	-0.25521082
82	0x3c8853ff	0.016641615
83	0x3e8a8bef	0.27059886
84	0xbf270b34	-0.6525147
85	0x3de60c48	0.11232811
86	0xbeb009f8	-0.34382606
87	0xbbbf1fd7	-0.005832653
88	0xbf326ce2	-0.6969739
89	0xbeb528dc	-0.35382736
90	0x3e0ffea4	0.14061981
91	0x3cbb9108	0.022896305
92	0x3c01f77d	0.007932541
93	0x3dd6b9ad	0.104846336
94	0x3e3b49de	0.18289897
95	0xbf112928	-0.56703424
96	0xbcfbbc63	-0.030729478
97	0x3e3e4654	0.18581516
98	0xbf117d54	-0.5683186
99	0xbf08a74f	-0.5338029
100	0xbc51db9f	-0.012808709
101	0xbe6784c0	-0.22609234
102	0xbf71ed11	-0.9450236
103	0x3e203859	0.15646495
104	0xbe4ffa8e	-0.20310423
105	0x3f4507ea	0.769652
106	0x3c96db8f	0.01841524
107	0x3e63858b	0.22218911
108	0xbed07173	-0.40711555
109	0x3ebf50ae	0.3736624
110	0x3e2d1a18	0.16904485
111	0x3e1f31ad	0.15546294
112	0xbec75112	-0.3892904
113	0x3e0ab85b	0.13546889
114	0xbf7d0282	-0.9883195
115	0xbd228ad0	-0.039683163
116	0x3e5776c5	0.210414
117	0xbebe723f	-0.37196538
118	0xbe4c5581	-0.19954492
119	0xbf55ff8a	-0.83593047
120	0xbf5c5b59	-0.86076885
121	0x3dae3278	0.0850572
122	0x3d99ee9b	0.075162135
123	0x3e94128b	0.28920397
124	0x3dee79f3	0.11644354
125	0x3f2ab566	0.6668304
126	0xbeef1ad3	-0.46700153
127	0xbf30e7af	-0.6910352
128	0xbcbf785f	-0.023372827
129	0xbe8848d5	-0.26618066
130	0xbeba5154	-0.36390173
131	0xbf6678ae	-0.9002789
132	0xbefd3a39	-0.49458483
133	0xbef567e5	-0.47930828
134	0xbe86b703	-0.26311502
135	0xbf25a05b	-0.6469781
136	0x3e52b4f4	0.2057684
137	0x3e45bb9c	0.19309849
138	0x3bcae51a	0.006191862
139	0x3dc2ecbf	0.09517812
140	0x3e196fe3	0.14984088
141	0x3ea8ef11	0.32994893
142	0x3e08fbad	0.13377257
143	0x3e31a535	0.17348178
144	0xbf17a95c	-0.59242797
145	0x3dbb4b65	0.0914524
146	0xbc4358ef	-0.011923059
147	0x3f29286c	0.66077304
148	0x3f3cf875	0.73816615
149	0x3e36a543	0.1783648
150	0xbed37173	-0.41297492
151	0x3ec2fa5a	0.38081628
152	0x3d621fd8	0.05520615
153	0x3cd7a86d	0.026325429
154	0xbf3a65cc	-0.7281158
155	0x3db5f6c2	0.08884956
156	0x3e8e76d5	0.27825037
157	0xbdc08a1b	-0.094013415
158	0xbda7427f	-0.0816698
159	0x3d2110c0	0.039322615
160	0xbecf2d7c	-0.4046439
161	0xbf055025	-0.52075416
162	0x3e3255d3	0.17415552
163	0x3f7d6cec	0.98994327
164	0x3f564871	0.83704287
165	0xbeee4b69	-0.46541908
166	0xbee9b218	-0.45643687
167	0x3d293863	0.04131354
168	0x3e96eec3	0.29479036
169	0x3d389acf	0.045069512
170	0x3ecd4ddc	0.40098464
171	0x3e88c71f	0.26714417
172	0xbcde0f1e	-0.027106818
173	0xbea2a026	-0.3176281
174	0x3d4af233	0.049547385
175	0xbee30bd9	-0.44344977
176	0xbf2886b6	-0.6583055
177	0xbe4355f5	-0.19075759
178	0x3dae10f5	0.08499328
179	0xbe10c19d	-0.14136358
180	0x3e0cfba0	0.13767862
181	0xbeb49ba3	-0.3527499
182	0x3e58e5b5	0.21181376
183	0x3ec61872	0.38690525
184	0xbf2822ef	-0.65678304
185	0xbf19b0c0	-0.60035324
186	0xbef46153	-0.47730502
187	0x3f1bcb9e	0.6085757
188	0xbf0fb5d0	-0.561368
189	0xbf07411a	-0.5283371
190	0x3e41dc51	0.189317
191	0x3eb4c542	0.35306746
192	0xbbd4987a	-0.006487903
193	0xbd804093	-0.062623166
194	0xbe209016	-0.15679964
195	0x3e4ac516	0.19801745
196	0x3dda04b5	0.10645429
197	0x3e687850	0.22702146
198	0x3cc848a6	0.024448704
199	0x3eb59f4d	0.354731
200	0xbf33591c	-0.70057845
201	0x3e613819	0.21994056
202	0xbf2db782	-0.67858136
203	0xbf0aaea4	-0.5417273
204	0xbe4b7f61	-0.1987281
205	0x3d6f48a4	0.058418885
206	0x3c2c0b65	0.010500764
207	0xbe01b686	-0.12667283
208	0x3f0b4704	0.54405236
209	0xbecd48c3	-0.40094575
210	0xbf27bf9a	-0.65526736
211	0xbee47719	-0.44622114
212	0x3f04818e	0.51760185
213	0xbdd59ef5	-0.10430709
214	0xbec24cbf	-0.37949178
215	0xbee21610	-0.44157457
216	0x3e40be2c	0.18822545
217	0xbeafd567	-0.343425
218	0xbf0da9f9	-0.5533748
219	0x3e939934	0.28827822
220	0xbe84aa44	-0.25911152
221	0x3df4eac9	0.11958844
222	0x3df3d7b1	0.11906374
223	0x3e18e9db	0.14932959
224	0x3e4c5a66	0.1995636
225	0x3e768a03	0.24076085
226	0xbf49a19b	-0.78762215
227	0x3ee3133b	0.4435061
228	0xbebdaa70	-0.37044096
229	0xbed326ec	-0.41240633
230	0x3dff9d64	0.12481192
231	0xbf0116e5	-0.5042556
232	0xbf063660	-0.5242672
233	0x3ecbd3c1	0.39809993
234	0xbed74034	-0.4204117
235	0x3df94895	0.12172047
236	0x3e3140e6	0.17309913
237	0xbf1e88ee	-0.6192769
238	0xbf18bd6c	-0.59664035
239	0xbf2ad8b4	-0.6673691
240	0xbf2e9667	-0.68198246
241	0xbe56d66b	-0.20980231
242	0x3e3173d2	0.17329338
243	0xbf331bf9	-0.6996456
244	0x3e6a21b5	0.2286442
245	0x3e132f34	0.14373475
246	0xbf01f9b4	-0.5077164
247	0xbf018c9d	-0.50605184
248	0xbee8afe7	-0.45446703
249	0xbe360948	-0.17776978
250	0xbe9e4c2a	-0.30917484
251	0xbed4829b	-0.41505894
252	0x3e9db8c7	0.30805036
253	0x3b1ac0d0	0.002361346
254	0xbf275d07	-0.65376323
255	0x3e293f96	0.16528162

fc3.bias f4 [10]
0	0x3c894961	0.016758623
1	0xbd0334d6	-0.03203281
2	0x3df8cb16	0.121481106
3	0xbd502853	-0.050819706
4	0xbd91b225	-0.071140565
5	0xbe091d36	-0.1339005
6	0xbd37b59b	-0.044850927
7	0x3d5ea9da	0.0543612
8	0xbd7c9f68	-0.06167546
9	0x3d23326b	0.039843004
