best_model_epochs25_batches32.pth (torch, 250377 bytes, 10 tensors)

conv1.weight f4 [6, 1, 5, 5]
-0.21702455 0.3377875 0.6034333 -0.3165571 -0.2827427 1.7517487 4.4235344 3.3453782
0.2593005 -0.34069836 2.1162686 6.801122 6.3916707 1.3345574 -0.28945524 -0.26300666
3.4404187 3.854308 0.6177045 -0.16842078 -1.1542464 -0.22148398 0.34258282 0.0055796034
-0.12179778 0.33375594 0.26183257 0.25283888 -0.3435943 -0.13340849 -0.1311398 -2.4954484
-6.1282973 -4.9208727 -0.14750631 0.07333154 -2.4231758 -7.443103 -5.9358716 -0.20172133
0.5489193 0.09315782 -0.5168381 -0.9098416 -0.16605099 1.0468552 1.02533 0.8440425
0.41503632 0.4723935 1.2747011 0.6494615 0.51815724 1.1572393 0.716364 0.130916
-0.8267868 -0.8557673 0.23646522 0.40080947 -0.43720126 -2.565005 -2.4508379 0.17456141
0.5078995 0.19087775 -1.4276617 -1.8433144 0.39538556 0.8229527 0.7981087 -0.49813294
-1.1350389 0.2481013 0.65371144 0.5491138 1.0978023 0.46598682 -0.45386016 -0.725536
0.4578275 1.1884624 0.055169497 -0.9182733 -1.066911 0.45196158 1.168299 0.4425612
-0.8639165 -1.0932794 0.51083827 1.3507438 0.44595355 -0.8465562 -1.2265034 0.6666194
1.2787414 0.27367103 -0.9498533 -1.4471523 0.4765737 -0.6256397 -0.636039 -0.40306994
0.5652557 0.599404 -0.8337449 -1.1606307 -0.6186053 0.39356947 0.8346147 -0.77989054
-0.81028974 -0.6158368 0.17130606 0.8713175 -0.27740625 -0.629906 -0.2675241 0.64024353
1.0714203 -0.2692861 -0.29519683 -0.14243329 0.66892606 -0.0030966115 1.3655802 2.9211695
2.201014 0.39630288 -0.16092612 1.6818674 6.2749243 6.217076 0.34045407 -0.59086025
0.16964221 2.451963 2.8055341 0.12443959 -0.9547122 -0.5772745 -0.07072146 0.045123458
-0.03877504 -1.38696 -0.78856826 -0.3043971 0.060312033 -0.14726777
00000000: af3b 5ebe 7cf2 ac3e 9b7a 1a3f c613 a2be
00000010: a7c3 90be 4d39 e03f 988d 8d40 ad1a 5640
00000020: 09c3 843e 0470 aebe f270 0740 cba2 d940
00000030: 9188 cc40 c7d2 aa3f 7a33 94be cfa8 86be
00000040: d22f 5c40 fbac 7640 e221 1e3f 7f76 2cbe
00000050: 59be 93bf b2cc 62be 0467 af3e 1bd5 b63b
00000060: 1d71 f9bd 0fe2 aa3e eb0e 863e 1974 813e
00000070: 98eb afbe 3c9c 08be 8349 06be 6db5 1fc0
00000080: 031b c4c0 ca77 9dc0 e50b 17be d92e 963d
00000090: 5015 1bc0 e62d eec0 a9f2 bdc0 0990 4ebe
000000a0: fa85 0c3f 87c9 be3d 804f 04bf 61eb 68bf
000000b0: 4509 2abe 5aff 853f 033e 833f 2b13 583f
000000c0: a47f d43e 90dd f13e 6829 a33f 1c43 263f
000000d0: f4a5 043f 6b20 943f a263 373f d80e 063e
000000e0: 4da8 53bf 9113 5bbf f023 723e e636 cd3e
000000f0: d8d8 dfbe 0b29 24c0 87da 1cc0 3ac0 323e
00000100: b405 023f 7575 433e 9ebd b6bf baf1 ebbf
00000110: fa6f ca3e 07ad 523f da50 4c3f 480b ffbe
00000120: f448 91bf 440e 7e3e a259 273f b992 0c3f
00000130: c984 8c3f d395 ee3e 5c60 e8be babc 39bf
00000140: 5e68 ea3e 891f 983f 69f9 613d f613 6bbf
00000150: 8a90 88bf 8267 e73e d28a 953f 6297 e23e
00000160: a229 5dbf 94f0 8bbf 4cc6 023f 2ce5 ac3f
00000170: 0654 e43e e8b7 58bf 10fe 9cbf 92a7 2a3f
00000180: ccad a33f 9c1e 8c3e 9629 73bf 493c b9bf
00000190: 7801 f43e ec29 20bf 74d3 22bf 2f5f cebe
000001a0: 99b4 103f 8a72 193f 4e70 55bf 8c8f 94bf
000001b0: eb5c 1ebf f081 c93e 4fa9 553f e8a6 47bf
000001c0: 266f 4fbf 7ba7 1dbf db6a 2f3e aa0e 5f3f
000001d0: 3108 8ebe 8541 21bf ebf8 88be 00e7 233f
000001e0: 4d24 893f dedf 89be 0a24 97be 08da 11be
000001f0: bd3e 2b3f 85f0 4abb 55cb ae3f 71f4 3a40
00000200: 6add 0c40 36e8 ca3e d1c9 24be 6e47 d73f
00000210: 2ecc c840 49f2 c640 ff4f ae3e 9e42 17bf
00000220: b0b6 2d3e f6ec 1c40 df8d 3340 2fda fe3d
00000230: 0568 74bf 43c8 13bf 6ad6 90bd 60d3 383d
00000240: 94d2 1ebd e887 b1bf 9cdf 49bf f0d9 9bbe
00000250: c009 773d 5dcd 16be

conv1.bias f4 [6]
-0.6283751 0.44146052 0.22607395 -0.6427655 -0.056339223 -0.30122176
00000000: 31dd 20bf 1d07 e23e ee7f 673e 488c 24bf
00000010: f5c3 66bd bd39 9abe

conv2.weight f4 [16, 6, 5, 5]
-0.49917433 -0.53020465 -0.20646423 0.18420129 0.08222098 -0.20758092 -0.16931625 0.027759008
0.16208348 0.14066687 -0.08755972 -0.10718024 -0.0066805356 0.19268738 -0.119102545 -0.071963206
0.008892138 0.115974575 0.16813044 -0.17596698 0.07308666 0.046898715 0.070426665 0.0010194068
-0.08812496 1.2630416 0.85214233 -0.5237421 -0.7291817 -0.19317327 0.5833557 0.26382056
-0.3170025 -0.50355744 -0.39562765 0.6577257 0.11296389 -0.5844286 -0.2820501 0.27622747
0.2898491 -0.020584842 -0.6104057 -0.08854631 0.7707432 -0.14347038 -0.39284384 -0.43414715
0.26639733 1.0820101 0.20157173 0.7019988 0.16933408 -0.9036822 -0.39914948 -0.073255174
0.19872102 -0.059739046 -0.9432457 -0.33604935 -0.055750854 0.35485026 -0.15179911 -0.61296093
0.037294306 -0.44983548 -0.02028506 -0.5716408 -0.41877836 0.32177535 -0.27027392 -0.13003027
-0.88795626 0.052548416 0.5367611 0.17663336 -0.51453996 -0.8432534 0.28998232 0.45357653
-0.03728026 -0.46249858 -0.6587094 0.20404074 0.5110572 -0.1610378 -0.5026795 -0.23591153
0.28856802 0.5404069 -0.03856405 -0.48659593 0.33315504 0.52939546 0.48749393 0.04376682
-0.34731737 0.7184804 0.50711596 0.2979216 0.91437954 0.75392056 -0.26325423 -0.87026095
0.0041279956 0.5168824 0.6021244 -0.29474422 -0.8625081 -0.26516217 0.23380232 0.27729478
-0.3768406 -0.67987454 -0.14355935 0.09989847 0.07968661 -0.6799689 -0.5527726 0.094685115
-0.078427404 -0.14852193 -0.83264977 -0.05873692 0.23109978 -0.57577455 -0.29111716 0.23794872
0.30582976 -0.024952298 -0.22261988 -0.19510284 0.12987179 0.08125519 0.12293082 -0.09714305
0.028150376 0.23232077 0.0065833875 -0.20412396 -0.18113089 0.11732491 0.08156342 -0.01445395
-0.27358902 -0.024949787 0.12680858 0.1700964 -0.08603503 -0.32741365 -0.1259123 -0.19108991
-0.23278442 -0.33182952 -0.18872045 -0.09579696 -0.26738846 -0.20356645 -0.16860838 -0.21236262
-0.07744531 -0.19947639 -0.15978363 -0.10481369 -0.0691473 0.0018029641 -0.028070804 -0.04705217
-0.0763696 -0.056664407 -0.015046552 0.08813983 0.014077729 -0.039205525 0.0035522438 1.2095926
1.6277577 2.7197895 2.4571624 1.2118353 0.25940078 1.1700402 1.2746631 0.4807801
0.228457 0.048278335 -0.33929253 -0.27355325 0.30691436 0.36072034 0.1180726 -0.35395315
-0.36377707 0.08540824 0.09222685 0.038304806 -0.2848532 -0.26807106 -0.04984601 0.051909532
0.25432786 0.6821821 1.1905321 1.0248861 0.3845907 0.15663905 0.8477061 1.5788432
0.92245823 0.38244277 0.0004273347 0.37202778 0.5856798 0.1462676 0.05973172 -0.41860205
0.21256332 0.26692244 0.11332601 -0.061798796 -0.40924683 -0.29841018 -0.43076077 -0.528282
-0.3794582 -0.1138342 0.2629166 -0.20644844 -0.5294865 -0.12663317 0.015598271 -0.08419568
-0.39325878 -0.34913275 -0.16577168 0.38635218 -0.22322805 -0.4545989 -0.41846424 -0.343008
0.5451997 -0.16794193 -0.32212368 -0.29158604 -0.21805036 0.43553486 0.033977583 -0.19472738
-0.12439118 -0.10475539 0.45288807 0.5719197 1.3474567 0.8525893 0.5636073 0.39324847
00000000: c793 ffbe 7ebb 07bf 5c6b 53be 439f 3c3e
00000010: 7963 a83d 1890 54be 3d61 2dbe dc66 e33c
00000020: 36f9 253e fa0a 103e 8352 b3bd 5081 dbbd
00000030: 65e8 dabb d74f 453e 09ec f3bd 7261 93bd
00000040: 54b0 113c 1484 ed3d 632a 2c3e b030 34be
00000050: 75ae 953d de18 403d db3b 903d 9e9d 853a
00000060: dc7a b4bd 59ab a13f 0026 5a3f f613 06bf
00000070: a7ab 3abf 37cf 45be cd56 153f 7d13 873e
00000080: 274e a2be 24e9 00bf b58f cabe b660 283f
00000090: 9d59 e73d 1d9d 15bf df68 90be b06d 8d3e
000000a0: 1a67 943e 8ba1 a8bc 8c43 1cbf c557 b5bd
000000b0: 6d4f 453f e6e9 12be d422 c9be 8948 debe
000000c0: 3b65 883e 4f7f 8a3f d268 4e3e 31b6 333f
000000d0: ea65 2d3e b757 67bf 525d ccbe cf06 96bd
000000e0: 867d 4b3e eeb0 74bd 8d78 71bf a90e acbe
000000f0: 025b 64bd efae b53e 3a71 1bbe 02eb 1cbf
00000100: eac1 183d d650 e6be db2c a6bc 0d57 12bf
00000110: 1e6a d6be bdbf a43e 5861 8abe a826 05be
00000120: 1a51 63bf 023d 573d 2d69 093f 60df 343e
00000130: e4b8 03bf 74df 57bf 9078 943e 2f3b e83e
00000140: 30b3 18bd 9dcc ecbe 2ea1 28bf 0ef0 503e
00000150: a5d4 023f 18e7 24be 9baf 00bf cb92 71be
00000160: 30bf 933e 1b58 0a3f 56f5 1dbd 1a23 f9be
00000170: 4c93 aa3e 7686 073f ce98 f93e d644 333d
00000180: 95d3 b1be 55ee 373f 5ad2 013f 2e89 983e
00000190: c714 6a3f f000 413f 42c9 86be 6cc9 5ebf
000001a0: 2344 873b 6852 043f d324 1a3f b7e8 96be
000001b0: 55cd 5cbf 56c3 87be e069 6f3e 95f9 8d3e
000001c0: 40f1 c0be 420c 2ebf 3901 13be 9297 cc3d
000001d0: bc32 a33d 7112 2ebf 8182 0dbf 45ea c13d
000001e0: 8c9e a0bd 2216 18be 8928 55bf 2096 70bd
000001f0: 6ca5 6c3e f665 13bf 4f0d 95be d4a8 733e
00000200: b895 9c3e c368 ccbc 77f6 63be 0ac9 47be
00000210: 1cfd 043e 1f69 a63d 27c3 fb3d eff2 c6bd
00000220: 9e9b e63c 7fe5 6d3e 75b9 d73b df05 51be
00000230: 607a 39be 0b48 f03d b90a a73d 43d0 6cbc
00000240: dc13 8cbe 7f63 ccbc 1cda 013e c02d 2e3e
00000250: 2233 b0bd c3a2 a7be 27ef 00be 13ad 43be
00000260: 0a5f 6ebe 8fe5 a9be ef3f 41be 3231 c4bd
00000270: 24e7 88be b973 50be ada7 2cbe 9675 59be
00000280: a69b 9ebd 8a43 4cbe 529e 23be 8fa8 d6bd
00000290: 1a9d 8dbd 7051 ec3a bef4 e5bc c7b9 40bd
000002a0: aa67 9cbd f018 68bd d085 76bc a882 b43d
000002b0: 46a6 663c f995 20bd c3cc 683b eed3 9a3f
000002c0: 5d5a d03f 0811 2e40 2642 1d40 6b1d 9b3f
000002d0: 2ed0 843e e1c3 953f 2928 a33f cf28 f63e
000002e0: a2f0 693e 81bf 453d c0b7 adbe 2c0f 8cbe
000002f0: e123 9d3e 56b0 b83e 0cd0 f13d 5939 b5be
00000300: fd40 babe 84ea ae3d 6ee1 bc3d 80e5 1c3d
00000310: 47d8 91be 9c40 89be 542b 4cbd 179f 543d
00000320: 4337 823e 7ca3 2e3f 5b63 983f 782f 833f
00000330: 12e9 c43e fd65 203e 4403 593f 8917 ca3f
00000340: 3926 6c3f 8acf c33e e40b e039 6d7a be3e
00000350: 1def 153f 2cc7 153e 3fa9 743d 0253 d6be
00000360: 33aa 593e 0faa 883e 7817 e83d bc20 7dbd
00000370: cd88 d1be 38c9 98be ad8c dcbe 7d3d 07bf
00000380: 5848 c2be e821 e9bd 019d 863e 3867 53be
00000390: 6d8c 07bf 20ac 01be e48f 7f3c c96e acbd
000003a0: 3759 c9be 87c1 b2be 0dc0 29be f4cf c53e
000003b0: e595 64be 30c1 e8be f240 d6be bf9e afbe
000003c0: 3592 0b3f f8f8 2bbe 65ed a4be c44a 95be
000003d0: 9848 5fbe 6dfe de3e 142c 0b3d 9d66 47be
000003e0: cec0 febd fe89 d6bd f2e0 e73e 5469 123f
000003f0: 7679 ac3f 4b43 5a3f 9148 103f dd57 c93e

conv2.bias f4 [16]
-0.08704492 0.094357945 -0.09852403 -0.0091796415 0.04466063 0.03513501 0.09718855 -0.053308655
0.011555038 -0.04103075 -0.07285216 -0.019223716 -0.027635613 -0.07428961 -0.014821062 -0.04726848
00000000: 9b44 b2bd bd3e c13d f7c6 c9bd 3566 16bc
00000010: 11ee 363d bae9 0f3d ca0a c73d 2d5a 5abd
00000020: 5851 3d3c dc0f 28bd 8333 95bd 0e7b 9dbc
00000030: 1564 e2bc 2725 98bd 0ad4 72bc 989c 41bd

fc1.weight f4 [120, 400]
-0.15918854 0.24535038 -0.20426327 -0.19390123 0.13468435 0.41629145 0.1732124 0.11355174
-0.011309459 -0.0011581001 0.40988922 -0.13249691 0.13680913 0.1715776 -0.08196635 0.06810034
-0.094459996 -0.06936532 0.1785183 -0.009327982 0.0602467 0.13780047 0.37917382 -0.11962909
0.4713885 0.13085015 0.09811842 0.11763102 -0.030039804 -0.17768079 0.10437441 0.08197234
-0.0073415935 0.032547344 -0.15035066 0.07466606 0.117302865 0.26464638 0.18018945 0.43130234
-0.14353836 -0.15305775 0.073315546 -0.25634634 -0.06308643 -0.50283164 -0.48042265 -0.4062229
-0.39777038 -0.54572284 0.32851556 0.2758068 0.02414741 0.21494879 0.027717235 0.24261981
0.039417814 -0.106216595 0.054186925 -0.3150819 -0.058506485 0.056464333 -0.245736 0.09263637
-0.58081424 -0.73197466 0.384172 -0.25993282 0.074021816 -0.23509963 -0.23235673 -0.014224156
-0.72239184 -0.21049361 -0.36461052 0.16466638 0.10519335 0.098333254 0.16449507 -0.22712809
0.15188646 0.18923286 -0.049517483 -0.7590979 -0.92828006 -0.38140354 0.16785094 -0.15589401
-0.3489397 -0.64979434 0.014917246 0.37457737 -0.32673505 -0.5455183 0.17238462 0.4329692
-0.15008311 0.22311279 0.07846439 -0.20277202 0.07561199 0.056092378 0.15049252 -0.0768117
-0.017977577 0.076279536 0.26818797 0.12009008 -0.001095388 0.10404019 0.07273579 0.07654095
0.10100175 0.0775919 -0.22911368 0.05182122 -0.33198926 -0.14509706 -0.09144788 -0.15398644
0.07399254 -0.2203096 -0.21088153 -0.03885131 0.03518645 0.017472807 0.08579035 0.012163456
-0.033170942 0.07999331 0.0068446547 -0.18646002 -0.20989431 -0.18301769 0.25811365 0.057440866
0.42997634 0.064600974 -0.66359305 0.4330761 -0.17731622 0.45654666 0.5546939 0.3255186
-0.5081429 -0.76716775 0.000112072354 0.45428488 0.3956424 -0.74038434 0.09842168 0.027473902
0.19345091 0.08652081 -0.14192928 0.0830654 0.14287001 -0.09139122 -0.077522844 -0.2889319
0.031446554 0.12580463 0.20543544 0.08787628 -0.2287113 0.063476145 -0.0955495 0.036958244
0.7790941 1.3432391 -0.2745021 -0.24873345 -0.8011887 -0.3932082 0.3902308 0.13517058
0.08564982 0.043726794 0.0036710748 -0.4136159 0.14489801 0.26196662 -0.2093802 -0.6394107
-0.79087454 -0.06998079 0.0018962541 0.16258742 -0.39172336 -0.31827545 0.13851571 0.017637882
-0.09212983 -0.25098398 -0.59517056 -0.10373522 -0.22961932 0.43951574 0.2633124 -0.76606005
0.17926928 0.13197088 0.08357562 0.02983082 -0.040333763 0.2127616 0.10665664 -0.054439336
-0.5558335 -0.22681989 -0.4243075 0.083312936 -0.14735115 -0.3268906 -0.15704262 -0.6977781
0.17654204 0.106222086 0.31150833 0.46849304 -0.11566079 -0.24937047 -0.11287821 0.6281973
-0.18700522 0.02580406 0.07335439 -0.04318183 -0.19688755 -0.39756596 0.02389563 -0.13359116
-0.4486712 -0.49124596 -0.18499419 -0.059032366 0.0081648035 0.11939514 -0.6117655 0.43252453
0.5935632 -0.1709645 0.6591203 0.3418832 0.066997506 -0.32873324 -0.11197477 0.62116265
0.13211279 -0.5070943 0.10489407 0.07457459 0.16356358 -0.010824888 -0.41876143 -0.03030092
00000000: 5202 23be 213d 7b3e 642a 51be 0b8e 46be
00000010: b2ea 093e 2724 d53e 975e 313e d18d e83d
00000020: 4f4b 39bc 64cb 97ba 00dd d13e 45ad 07be
00000030: b117 0c3e 0ab2 2f3e f9dd a7bd 3178 8b3d
00000040: 3e74 c1bd 680f 8ebd 80cd 363e 64d4 18bc
00000050: 3ec5 763d 911b 0d3e 1223 c23e 1900 f5bd
00000060: d559 f13e 95fd 053e 4ff2 c83d 88e8 f03d
00000070: 0916 f6bc f4f1 35be 40c2 d53d 1de1 a73d
00000080: c091 f0bb 5d50 053d 86f5 19be 85ea 983d
00000090: 7c3c f03d bb7f 873e 9583 383e a9d3 dc3e
000000a0: b8fb 12be 2cbb 1cbe 7626 963d d43f 83be
000000b0: 7533 81bd 93b9 00bf f5f9 f5be 73fc cfbe
000000c0: 8fa8 cbbe 7eb4 0bbf 3133 a83e 8d36 8d3e
000000d0: cad0 c53c 891b 5c3e 410f e33c 5471 783e
000000e0: 9374 213d 1688 d9bd 1cf3 5d3d 6a52 a1be
000000f0: 7fa4 6fbd 2547 673d 38a2 7bbe 23b8 bd3d
00000100: 3eb0 14bf b162 3bbf 31b2 c43e ea15 85be
00000110: c098 973d f5bd 70be ecee 6dbe 6f0c 69bc
00000120: acee 38bf a38b 57be 3bae babe 4e9e 283e
00000130: 9c6f d73d f262 c93d 6571 283e 4494 68be
00000140: 2088 1b3e 42c6 413e d8d2 4abd 3d54 42bf
00000150: c3a3 6dbf 5347 c3be 1ee1 2b3e aea2 1fbe
00000160: 39a8 b2be ec58 26bf 7767 743c 9bc8 bf3e
00000170: d149 a7be 16a7 0bbf 9885 303e 24ae dd3e
00000180: 63af 19be ae77 643e f0b1 a03d 78a3 4fbe
00000190: 76da 9a3d 1fc1 653d b61a 1a3e 744f 9dbd
000001a0: b645 93bc 7238 9c3d ef4f 893e caf1 f53d
000001b0: 1f93 8fba 0613 d53d 80f6 943d 80c1 9c3d
000001c0: 01da ce3d 81e8 9e3d c79c 6abe 7d42 543d
000001d0: 7ffa a9be 5394 14be 0749 bbbd 9fae 1dbe
000001e0: 6789 973d d798 61be 54f1 57be 8d22 1fbd
000001f0: ab1f 103d 2223 8f3c dab2 af3d 3b49 473c
00000200: 41de 07bd 88d3 a33d 2049 e03b 60ef 3ebe
00000210: 89ee 56be fd68 3bbe 7927 843e 1d47 6b3d
00000220: dc25 dc3e 844d 843d 3ce1 29bf 27bc dd3e
00000230: 6292 35be 7cc0 e93e 6b00 0e3f 60aa a63e
00000240: a715 02bf 1b65 44bf 6308 eb38 0798 e83e
00000250: a491 ca3e d489 3dbf 4e91 c93d f310 e13c
00000260: ff17 463e d331 b13d e955 11be 311e aa3d
00000270: 844c 123e 522b bbbd 4cc4 9ebd e2ee 93be
00000280: 1ace 003d eed2 003e ab5d 523e 7bf8 b33d
00000290: 4c33 6abe c8ff 813d 75af c3bd 8761 173d
000002a0: b672 473f 42ef ab3f 8a8b 8cbe fbb3 7ebe
000002b0: b41a 4dbf 9652 c9be 55cc c73e 286a 0a3e
000002c0: 2c69 af3d de1a 333d 6a96 703b 77c5 d3be
000002d0: 2560 143e 7d20 863e c367 56be 6bb0 23bf
000002e0: c176 4abf 1752 8fbd bb8b f83a 517d 263e
000002f0: f78f c8be 00f5 a2be 10d7 0d3e 527d 903c
00000300: 90ae bcbd f980 80be 195d 18bf 2273 d4bd
00000310: 5421 6bbe 3508 e13e e2d0 863e 831c 44bf
00000320: 5e92 373e 6023 073e b229 ab3d c45f f43c
00000330: 0435 25bd 2dde 593e cc6e da3d c8fb 5ebd
00000340: 1b4b 0ebf 7943 68be d53e d9be f99f aa3d
00000350: 38e3 16be 345e a7be c8cf 20be 96a1 32bf
00000360: 70c7 343e f78a d93d 057e 9f3e 52de ef3e
00000370: 90df ecbd f95a 7fbe b12c e7bd 8ad1 203f
00000380: 4c7e 3fbe 0963 d33c d43a 963d 6edf 30bd
00000390: e49c 49be c48d cbbe c5c0 c33c 1fcc 08be
000003a0: 3bb8 e5be 9784 fbbe 1e6f 3dbe eccb 71bd
000003b0: abc5 053c 7085 f43d aa9c 1cbf db73 dd3e
000003c0: c2f3 173f 5111 2fbe 1cbc 283f 510b af3e
000003d0: fd35 893d b94f a8be 0753 e5bd 8404 1f3f
000003e0: 9348 073e efd0 01bf b4d2 d63d 90ba 983d
000003f0: 367d 273e df5a 31bc e667 d6be a339 f8bc

fc1.bias f4 [120]
0.036871098 0.0031550967 -0.08772218 0.019702364 0.12346316 0.11453978 0.008369613 -0.08073433
-0.07732523 0.19959894 0.082054965 0.008431445 -0.14607751 0.14630947 0.11655715 0.13819842
0.12617669 0.16229099 -0.14202465 0.019727765 0.08322583 0.113540344 0.089121856 0.23977757
-0.0073913294 0.08825386 0.018674731 -0.0699149 0.023828033 0.25206977 0.03229562 0.0019781338
-0.09002647 0.020313347 0.05846036 0.07258288 -0.05783651 -0.050429154 -0.23064871 0.02044422
0.07905388 0.13831599 -0.0072198026 0.06797991 -0.09624977 -0.09640213 0.14097807 -0.027356233
0.16160923 0.16345027 0.18887728 0.019959802 0.0073777707 0.123328 -0.046620138 0.009221355
0.25994554 0.23950149 0.1558394 -0.06056484 0.16259144 -0.01153478 0.048833683 -0.08130883
-0.078765355 0.15205798 0.11842735 -0.055218697 0.12605938 -0.1846981 0.10223551 0.25729108
0.083151095 0.1743281 -0.05533997 -0.014336491 0.16017249 -0.15704201 0.02636473 0.032459583
-0.17374659 0.07087597 0.1931397 0.113963835 -0.114530295 0.060495302 0.014613035 0.2136982
-0.085491106 0.08727487 0.17964411 -0.086405866 -0.06464343 -0.1739435 -0.15820722 -0.091318026
0.15553595 -0.03809186 0.06254859 -0.07949494 0.12459616 0.15480709 0.13100252 0.036012433
0.28369042 0.05542222 0.20513518 -0.06442334 0.04197664 -0.06887925 0.03481846 0.052630536
-0.12406024 -0.045485288 0.014553047 0.051094268 -0.11673279 -0.18992946 0.06988158 -0.25913835
00000000: 2606 173d bdc5 4e3b b0a7 b3bd da66 a13c
00000010: 41da fc3d d593 ea3d b420 093c 0a58 a5bd
00000020: b15c 9ebd aa63 4c3e 6f0c a83d 0b24 0a3c
00000030: 5895 15be 26d2 153e 84b5 ee3d e383 0d3e
00000040: 7634 013e 9c2f 263e e96e 11be 1f9c a13c
00000050: 4e72 aa3d d787 e83d 8585 b63d 4088 753e
00000060: f732 f2bb 71be b43d c0fb 983c 8b2f 8fbd
00000070: 0233 c33c 4a0f 813e 6948 043d 94a3 013b
00000080: cc5f b8bd 2d68 a63c 2174 6f3d 55a6 943d
00000090: fae5 6cbd cd8e 4ebd 2d2f 6cbe a37a a73c
000000a0: 00e7 a13d b5a2 0d3e 1894 ecbb 0d39 8b3d
000000b0: 991e c5bd 7b6e c5bd 8e5c 103e 2e1a e0bc
000000c0: e47c 253e 825f 273e 0c69 413e bd82 a33c
000000d0: 3ac1 f13b 6493 fc3d c2f4 3ebd 2b15 173c
000000e0: 9517 853e e13f 753e 5d94 1f3e d612 78bd
000000f0: 5f7e 263e 60fc 3cbc d405 483d 3e85 a6bd
00000100: bb4f a1bd 16b5 1b3e 0a8a f23d 002d 62bd
00000110: b615 013e 8021 3dbe da60 d13d a8bb 833e
00000120: 1f4b aa3d 1183 323e 2aac 62bd 9ae3 6abc
00000130: 4204 243e 9fcf 20be d9fa d73c 57f4 043d
00000140: a0ea 31be 6c27 913d 6ac6 453e df65 e93d
00000150: dc8e eabd ecc9 773d 836b 6f3c b3d3 5a3e
00000160: f615 afbd 2bbd b23d a0f4 373e 8ff5 b0bd
00000170: c663 84bd 3f1e 32be 1301 22be f204 bbbd
00000180: d144 1f3e 3606 1cbd 7a19 803d 3ece a2bd
00000190: 462c ff3d c085 1e3e 8625 063e c681 133d
000001a0: df3f 913e 6902 633d f50e 523e 62f0 83bd
000001b0: b2ef 2b3d 9010 8dbd cd9d 0e3d 1e93 573d
000001c0: 4c13 febd c84e 3abd e76f 6e3c 3948 513d
000001d0: 9a11 efbd de7c 42be 131e 8f3d c8ad 84be

fc2.weight f4 [84, 120]
-0.3140479 0.5316131 -0.10261893 -0.1905298 0.38274986 0.06278002 0.09580538 0.24794395
-0.6013388 -0.5030689 -0.025822178 -0.33419544 -0.29893774 0.008348065 -0.09733371 0.059122168
0.06533524 0.5619675 -0.57504815 -0.0004777408 -0.07954461 -0.12846236 0.31677198 0.048267465
-0.15894026 -0.0064511644 -0.5653827 0.17516062 -0.45192575 0.5227051 0.82785046 -0.8223353
-0.6380921 0.004923644 -0.12269825 -0.25248832 -0.20081384 -0.22355773 -0.21988852 -0.7139487
0.25998995 -0.2525225 0.21916276 -0.34193376 0.016912492 -0.119462684 0.3793088 0.15219043
0.6514277 -0.00012607421 0.09972276 -0.22267245 0.7175804 -0.53282124 0.06385441 0.072678976
0.60664964 0.6954157 -0.052258607 0.17343943 -0.10720372 -0.3960931 0.60551494 0.17887668
0.35213602 0.174196 -0.028013837 -0.60521233 0.098475136 -0.15537052 -0.5375782 0.2741367
0.07638614 0.016240159 -0.30649439 -0.35361284 0.07397512 -0.19161227 0.33431616 0.028049596
0.019877309 -0.15523031 0.046063047 -0.17193729 -0.025037646 -0.86461943 -0.37842053 -0.02832938
-0.4648058 0.006263709 0.41021952 -0.61995465 -0.3273973 -0.12475741 -0.23350717 -0.22318433
0.29654488 -0.662589 -0.027738014 -0.015915679 0.101672515 0.32239747 0.5334833 -0.55241776
0.6289558 -0.18676114 -0.40598923 0.51011235 -0.44863728 -0.07688299 0.07919783 0.08752565
-0.6236107 -0.060993552 0.0018137791 0.136965 0.08553658 -0.15387587 -0.38964292 -0.19221683
0.5684093 0.5637746 0.05366911 0.32392982 -0.49378577 -0.16953197 0.8515533 0.19687052
-0.22097166 0.166101 0.16604286 -0.15207328 -0.082412526 0.3772708 0.5324379 -0.66515493
0.43598837 -0.13173047 0.43481237 0.24148847 -0.12890434 0.0083521 -0.123600654 -0.5762262
-0.15058492 -0.26769534 0.15038253 -0.13367034 -0.2654064 -0.31890526 0.19488475 -0.034967553
0.07879908 0.08419186 0.10315716 0.6732612 -0.6002618 -0.99825644 0.5276853 0.054836478
0.074322216 -0.90981114 -0.058360044 0.48713124 0.8407679 0.034897905 -0.6509108 -0.8223984
-0.06308766 -0.10105385 -0.70714444 0.024477769 0.3737078 -0.43087 0.055978853 -0.61467135
-0.36751354 -0.2814857 0.3267845 0.53535676 -0.09799774 0.44159746 0.08889728 0.03737285
0.19930336 -0.11543779 -1.1231016 0.06328182 -0.14176169 0.69177645 -0.05879028 -0.47956124
-0.21383627 -0.2620489 -0.7064265 0.23823416 0.01866159 0.33940968 -0.18658061 -0.0061474084
0.40424794 -0.5435556 -0.07449065 0.18399593 0.18247442 0.13122736 -0.24077 -0.002033256
-0.012437685 0.62604904 0.29467008 -0.25377554 -0.100637816 -0.38194898 -0.10865712 -0.066231966
-0.27879646 0.29714918 -0.046585225 1.0595219 -0.03488476 -0.3172813 -0.17011869 -0.44914204
-0.34444484 0.2956481 0.05356926 -0.25594074 -0.56727713 0.07103874 -0.16428186 0.1753796
0.23871969 0.15792139 0.2124132 -0.68933874 0.04633596 0.85502136 -0.3638561 0.47210482
0.77302134 0.1733256 -0.1561807 0.7969581 -0.21400128 0.31166533 0.11205827 0.18518312
-0.041453257 -0.18524885 0.029015018 0.20527157 0.22691356 -0.13077252 -0.08260309 0.006955771
00000000: e3ca a0be cc17 083f e029 d2bd 3e1a 43be
00000010: caf7 c33e d092 803d 9c35 c43d 05e5 7d3e
00000020: 57f1 19bf 20c9 00bf 0889 d3bc aa1b abbe
00000030: 5e0e 99be 53c6 083c e556 c7bd 162a 723d
00000040: 7bce 853d 1add 0f3f 5b36 13bf 4979 fab9
00000050: 49e8 a2bd a38b 03be f02f a23e 1bb4 453d
00000060: 3cc1 22be 4a64 d3bb ecbc 10bf 4e5d 333e
00000070: d062 e7be 00d0 053f 02ee 533f 9184 52bf
00000080: 015a 23bf 8556 a13b 3849 fbbd 2646 81be
00000090: 25a2 4dbe 51ec 64be 752a 61be 58c5 36bf
000000a0: 671d 853e a14a 81be 346c 603e f111 afbe
000000b0: 118c 8a3c daa8 f4bd c334 c23e cfd7 1b3e
000000c0: f7c3 263f ca32 04b9 723b cc3d 3f04 64be
000000d0: 59b3 373f f966 08bf 1ac6 823d b7d8 943d
000000e0: 644d 1b3f c306 323f 1f0d 56bd 1b9a 313e
000000f0: a08d dbbd b7cc cabe 0703 1b3f 732b 373e
00000100: 2c4b b43e 7060 323e 467d e5bc 32ef 1abf
00000110: 55ad c93d 7319 1fbe ba9e 09bf a55b 8c3e
00000120: 5670 9c3d 150a 853c d5ec 9cbe be0c b5be
00000130: 4580 973d 0236 44be 7d2b ab3e 44c8 e53c
00000140: bdd5 a23c b2f4 1ebe 9bac 3c3d 5410 30be
00000150: c01b cdbc b357 5dbf 56c0 c1be 0413 e8bc
00000160: 07fb edbe cd3f cd3b 4b08 d23e 59b5 1ebf
00000170: 9ea0 a7be d080 ffbd 811c 6fbe 6f8a 64be
00000180: bbd4 973e 6f9f 29bf d53a e3bc 9961 82bc
00000190: ae39 d03d 4811 a53e 5d92 083f 406b 0dbf
000001a0: 3f03 213f 503e 3fbe d2dd cfbe b996 023f
000001b0: c9b3 e5be d474 9dbd 7932 a23d a640 b33d
000001c0: f3a4 1fbf 60d4 79bd 54bc ed3a 8e40 0c3e
000001d0: cd2d af3d a391 1dbe 477f c7be 7dd4 44be
000001e0: 4683 113f 8853 103f 24d4 5b3d 21da a53e
000001f0: 7dd1 fcbe ca99 2dbe 66ff 593f 6d98 493e
00000200: 6546 62be 6116 2a3e 2407 2a3e 19b9 1bbe
00000210: e6c7 a8bd a329 c13e da4d 083f 9847 2abf
00000220: de39 df3e 5ae4 06be ba9f de3e c148 773e
00000230: 80ff 03be 3fd7 083c 5722 fdbd 8f83 13bf
00000240: ef32 1abe 5d0f 89be e1fd 193e e1e0 08be
00000250: 59e3 87be 8d47 a3be de8f 473e 233a 0fbd
00000260: 6961 a13d c86c ac3d 1044 d33d d95a 2c3f
00000270: c2aa 19bf bc8d 7fbf 6216 073f 379c 603d
00000280: 3f36 983d 62e9 68bf f10a 6fbd 4469 f93e
00000290: 913c 573f 1bf1 0e3d 17a2 26bf b488 52bf
000002a0: 1a34 81bd 52f5 cebd 6b07 35bf 9a85 c83c
000002b0: a156 bf3e fe9a dcbe 154a 653d 1a5b 1dbf
000002c0: bc2a bcbe e51e 90be 4c50 a73e 240d 093f
000002d0: 0ab3 c8bd 1019 e23e c70f b63d 4614 193d
000002e0: 2e16 4c3e a66a ecbd cbc1 8fbf e699 813d
000002f0: fa29 11be 4318 313f 14ce 70bd 0d89 f5be
00000300: e5f7 5abe 462b 86be 5ed8 34bf a8f3 733e
00000310: 31e0 983c 1bc7 ad3e fd0e 3fbe 3370 c9bb
00000320: 96f9 ce3e 7626 0bbf 8e8e 98bd 6e69 3c3e
00000330: 93da 3a3e 7760 063e 698c 76be 6040 05bb
00000340: 6fc7 4bbc c044 203f ffde 963e deee 81be
00000350: 331b cebd d18e c3be a087 debd a0a4 87bd
00000360: 69be 8ebe f023 983e 26d0 3ebd 6a9e 873f
00000370: 52e3 0ebd b272 a2be 9833 2ebe f2f5 e5be
00000380: 135b b0be 305f 973e 716b 5b3d aa0a 83be
00000390: 1339 11bf c27c 913d 8139 28be b696 333e
000003a0: ef72 743e 25b6 213e d982 593e 8178 30bf
000003b0: c7ca 3d3d aee2 5a3f 594b babe b9b7 f13e
000003c0: bae4 453f 447c 313e d5ed 1fbe 7205 4c3f
000003d0: 2723 5bbe 9992 9f3e ce7e e53d a5a0 3d3e
000003e0: e4ca 29bd e0b1 3dbe e7b0 ed3c b632 523e
000003f0: 075c 683e 3be9 05be cf2b a9bd 3ced e33b

fc2.bias f4 [84]
-0.03720912 -0.042913273 0.010494791 -0.0755762 -0.049721338 -0.035813916 0.06643889 -0.04890955
0.03698181 0.029831253 -0.066856995 -0.11973876 -0.08013317 -0.07009057 -0.05534607 0.11428162
-0.106206454 0.030949607 0.039101 -0.008138976 0.04092876 0.013501046 0.025441967 -0.077735364
0.09190349 0.088658124 -0.16229557 0.13550021 -0.052068476 0.0007195272 -0.020278273 0.05844401
0.0032314614 -0.018316917 0.116178095 -0.14169589 0.047401145 -0.027311537 0.04708184 -0.07700619
0.038065977 0.06594025 -0.008921914 -0.059853308 0.021150181 0.010599907 0.06340193 -0.09878449
0.03714634 -0.029107159 -0.03819313 0.015252473 0.07223031 0.11686701 -0.10617319 0.0832162
-0.024665015 -0.07833718 0.0336302 -0.062209822 -0.052077126 0.00280585 -0.016635584 0.076108985
0.008679779 0.006567399 0.01925784 0.01758221 -0.046756968 -0.13615088 0.014236922 -0.09744881
-0.025830485 0.052098222 0.092093624 -0.0688224 0.07503064 -0.019658558 -0.050841834 -0.043120697
0.082478106 -0.0249762 0.10096613 -0.03481496
00000000: 9768 18bd d4c5 2fbd 58f2 2b3c b2c7 9abd
00000010: 9aa8 4bbd 9db1 12bd 1d11 883d 6155 48bd
00000020: 3d7a 173d ac60 f43c 52ec 88bd 9839 f5bd
00000030: dc1c a4bd a58b 8fbd 90b2 62bd 7b0c ea3d
00000040: c582 d9bd 088a fd3c 5f28 203d 5759 05bc
00000050: eaa4 273d 7e33 5d3c ac6b d03c b833 9fbd
00000060: e637 bc3d 6492 b53d cf30 26be 91c0 0a3e
00000070: c145 55bd a79e 3c3a 9f1e a6bc fc62 6f3d
00000080: edc6 533b 5c0d 96bc c8ee ed3d ba18 11be
00000090: b427 423d 72bc dfbc e3d8 403d 6cb5 9dbd
000000a0: 12eb 1b3d af0b 873d 382d 12bc be28 75bd
000000b0: 2543 ad3c 3bab 2d3c dfd8 813d 864f cabd
000000c0: c326 183d 2372 eebc 6670 1cbd 82e5 793c
000000d0: 7ced 933d f957 ef3d 5471 d9bd 416d aa3d
000000e0: 490e cabc 3e6f a0bd d2bf 093d bacf 7ebd
000000f0: d34e 55bd 5ae2 373b 5947 88bc 07df 9b3d
00000100: a235 0e3c 5633 d73b 9ec2 9d3c 9108 903c
00000110: 3c84 3fbd 236b 0bbe fb41 693c 3e93 c7bd
00000120: 749a d3bc f264 553d 959b bc3d c2f2 8cbd
00000130: aaa9 993d fc0a a1bc 873f 50bd 549f 30bd
00000140: 48ea a83d e39a ccbc 55c7 ce3d 229a 0ebd

fc3.weight f4 [10, 84]
0.10580532 -0.8333088 0.7089847 -0.12284217 0.30348566 -0.47200897 0.33069748 0.27696607
-0.20714872 -0.5786411 -0.055392407 -0.034568116 0.27122086 -0.38552874 0.60287106 -0.6833866
-0.51345193 0.051123448 0.4653081 -0.1033332 -0.43633676 0.17907324 0.2568192 -0.06792321
0.046702694 0.07708891 0.070812166 0.23345143 0.20522393 -1.0424345 -0.0041398504 0.061371084
0.15876655 0.29163814 -0.30003002 0.16615282 0.2174886 -0.6664926 -0.83469903 -0.6119163
-0.05880481 0.659691 0.053070225 -0.073684275 -0.041772615 -0.18720362 -0.10853366 0.022634642
-0.7292264 -0.085917786 0.1612282 -0.7419371 0.14204343 0.2370163 0.24792235 -0.5920633
0.21135235 0.19733779 0.4145756 0.17156026 0.16561039 0.00043533128 0.31093875 0.22541198
-0.59698254 -0.6216757 -0.66189724 -0.43164113 -0.08937708 0.27930582 -0.58212316 0.27566403
0.09682749 0.42079434 0.3302416 0.086679004 -0.2594397 0.119307265 -0.55950326 0.108960785
0.07722107 -0.41366565 0.17568983 -0.6001735 -0.5893313 0.5336003 -0.7882051 0.28916457
-0.60614747 0.33208033 0.20454 -0.6349428 -1.1841971 0.19585237 -0.30496642 0.14785846
0.47632423 -0.14927314 0.54469824 0.45524397 0.04575169 -0.33605808 -0.17081188 -0.14118867
0.619611 0.20838028 -0.4308796 -0.129792 -0.4251626 0.02156299 -0.16671367 0.19099475
-0.20400411 1.155879 0.17177053 -0.422622 -0.32998154 -0.11588853 0.014750784 -0.38853872
-0.88588303 -0.15044689 0.17378022 0.88850653 0.036945943 -0.72328985 0.5734595 -0.077380985
0.045336824 -0.18544483 -0.32994306 0.09542652 -0.4687722 -0.9287778 0.26457435 -0.18717636
0.1436526 0.33009806 -0.54024 -0.9056696 0.16336636 1.1169517 -0.32866225 -0.10572999
-0.41708994 -0.42640582 0.17489417 0.080844246 -0.11255846 0.4650889 -0.4785187 0.5138834
0.18720183 -0.54284513 0.22843334 0.15969145 0.068748094 -0.58721346 -1.252495 0.15317182
-0.29767188 0.18061666 -0.24483761 -0.4952601 0.16546562 -1.116624 -0.11763096 0.66369975
0.06911402 -0.6772134 -1.1282289 -1.0045327 0.067079835 0.17684731 -0.74188304 0.13121639
-0.6721185 -0.46208715 -0.18246503 0.21727353 0.067664266 0.22250023 -0.9468552 -0.28986183
0.27555218 -0.87996477 0.18772319 -1.2780591 -0.12113502 0.7431993 -0.056991808 0.4227309
-0.20263556 0.44155598 -0.2882364 0.18275993 -0.04873621 -1.0004002 0.4565754 -0.69007105
0.019525448 -0.75283515 -0.7551685 0.061218984 0.2953165 -0.3340283 -0.033459194 0.2187621
-0.7149531 -0.5312809 -1.1164397 0.1357043 -0.3269134 0.08412016 -0.18624273 -0.013026055
0.14986143 0.32535705 -0.854805 0.11460413 -0.018130774 0.020536028 0.14019512 -0.060023673
0.1746916 -0.334456 0.2163523 0.22834796 0.325335 -0.79065406 -0.32860473 -1.0073812
-1.2859854 0.24912755 0.21439967 -0.02914791 0.30850255 -0.002393079 0.17482659 -0.7324987
0.043267317 0.11263834 0.4551514 0.042959187 -0.7083093 0.48126948 0.18342656 0.34843946
0.19868629 0.10714745 -0.7234227 0.07144519 0.09144225 0.53136855 -0.5589133 -0.5662981
00000000: 76b0 d83d ba53 55bf 0580 353f ad94 fbbd
00000010: 7962 9b3e 29ab f1be 2e51 a93e 7fce 8d3e
00000020: cb1e 54be d321 14bf 26e3 62bd 4c97 0dbd
00000030: 76dd 8a3e 0664 c5be c255 1a3f 6df2 2ebf
00000040: 9671 03bf d266 513d dd3c ee3e 5ba0 d3bd
00000050: 8867 dfbe fa5e 373e ce7d 833e 531b 8bbd
00000060: 534b 3f3d cae0 9d3d f805 913d e40d 6f3e
00000070: 3926 523e 7e6e 85bf 95a7 87bb 3f60 7b3d
00000080: b393 223e 9851 953e 899d 99be f723 2a3e
00000090: 55b5 5e3e 429f 2abf d6ae 55bf 8ca6 1cbf
000000a0: 50dd 70bd 82e1 283f 2a60 593d c8e7 96bd
000000b0: c319 2bbd 4eb2 3fbe e546 debd 496c b93c
000000c0: 95ae 3abf aaf5 afbd 0119 253e 97ef 3dbf
000000d0: d573 113e 67b4 723e 5bdf 7d3e 7691 17bf
000000e0: c06c 583e eb12 4a3e 4143 d43e 7ead 2f3e
000000f0: c595 293e 2d3d e439 5d33 9f3e 66d2 663e
00000100: d9d3 18bf 2426 1fbf 1972 29bf 1100 ddbe
00000110: 550b b7bd 2c01 8f3e 0606 15bf d623 8d3e
00000120: 7e4d c63d 5b72 d73e 6d15 a93e c384 b13d
00000130: 48d5 84be 5e57 f43d 9b3b 0fbf d526 df3d
00000140: 1526 9e3d fccb d3be 09e8 333e f8a4 19bf
00000150: 6bde 16bf 079a 083f cfc7 49bf 610d 943e
00000160: 7b2c 1bbf 6f06 aa3e ef72 513e 9d8b 22bf
00000170: c593 97bf 868d 483e 8f24 9cbe 3568 173e
00000180: c5e0 f33e 0fdb 18be 5871 0b3f bd15 e93e
00000190: 2066 3b3d ce0f acbe 4fe9 2ebe c393 10be
000001a0: d49e 1e3f a461 553e 409c dcbe 32e8 04be
000001b0: eaae d9be dea4 b03c fdb6 2abe 2194 433e
000001c0: 74e6 50be d8f3 933f 9de4 2f3e e961 d8be
000001d0: 57f3 a8be f756 edbd 46ad 713c 8cee c6be
000001e0: 3bc9 62bf c00e 1abe 71f3 313e 2a75 633f
000001f0: a154 173d 8629 39bf 3ece 123f ec79 9ebd
00000200: 1bb3 393d 40e5 3dbe 4cee a8be fb6e c33d
00000210: e902 f0be 62c4 6dbf 4a76 873e 29ab 3fbe
00000220: ab19 133e 9d02 a93e 2b4d 0abf f7d9 67bf
00000230: 8349 273e 46f8 8e3f 6b46 a8be f788 d8bd
00000240: d08c d5be dd51 dabe 7517 333e ab91 a53d
00000250: 0d85 e6bd 2220 ee3e 6700 f5be dd8d 033f
00000260: d6b1 3f3e e6f7 0abf 6eea 693e 2886 233e
00000270: cdcb 8c3d 9f53 16bf c251 a0bf 13d9 1c3e
00000280: 7368 98be 93f3 383e b6b6 7abe bb92 fdbe
00000290: d26f 293e 89ed 8ebf 80e8 f0bd 3ae8 293f
000002a0: a78b 8d3d db5d 2dbf ce69 90bf 8794 80bf
000002b0: 2761 893d 7617 353e 0cec 3dbf 975d 063e
000002c0: f50f 2cbf b096 ecbe 1dd8 3abe f47c 5e3e
000002d0: 9093 8a3d 1ad7 633e 1a65 72bf c568 94be
000002e0: 2d15 8d3e 5f45 61bf 823a 403e 7197 a3bf
000002f0: a315 f8bd 4f42 3e3f 3e70 69bd 2f70 d83e
00000300: b27f 4fbe a013 e23e b993 93be 6b25 3b3e
00000310: 9f9f 47bd 1d0d 80bf 40c4 e93e 7fa8 30bf
00000320: d5f3 9f3c ceb9 40bf b952 41bf c2c0 7a3d
00000330: b933 973e c205 abbe 820c 09bd 2c03 603e
00000340: 2b07 37bf 0602 08bf 7fe7 8ebf 11f6 0a3e
00000350: 3161 a7be 3147 ac3d 6ab6 3ebe 3c6b 55bc
00000360: 4675 193e 3395 a63e 80d4 5abf 92b5 ea3d
00000370: fd86 94bc 2c3b a83c 4f8f 0f3e 62db 75bd
00000380: 5be2 323e d13d abbe 758b 5d3e 0cd4 693e
00000390: 4f92 a63e 4e68 4abf e13e a8be def1 80bf
000003a0: 2b9b a4bf 4b1b 7f3e 968b 5b3e 99c7 eebc
000003b0: 0cf4 9d3e 34d5 1cbb be05 333e 0985 3bbf
000003c0: 1239 313d eeae e63d 9b09 e93e f9f5 2f3d
000003d0: c253 35bf f468 f63e 2cd4 3b3e a866 b23e
000003e0: 6b74 4b3e 1f70 db3d 3b32 39bf db51 923d
000003f0: 1346 bb3d c507 083f f114 0fbf eaf8 10bf

fc3.bias f4 [10]
-0.0054990523 0.025085691 -0.10111723 0.059379667 -0.09413552 0.00071342685 -0.039185904 -0.010204281
-0.040779915 0.076026574
00000000: 6531 b4bb 8280 cd3c 8d16 cfbd 1838 733d
00000010: 20ca c0bd 4405 3b3a 6681 20bd db2f 27bc
00000020: d708 27bd d2b3 9b3d
