best_model_20.pth (torch, 250636 bytes, 10 tensors)

conv1.weight f4 [6, 1, 5, 5]
0	0x3f0cff33	0.55076903
1	0x3f615065	0.880133
2	0x3f027461	0.5095883
3	0x3e07c290	0.13257813
4	0x3ecfc4f0	0.4057994
5	0xbe48278f	-0.1954634
6	0xbf1aa344	-0.60405374
7	0xbf9e26f8	-1.2355642
8	0xbf3a3192	-0.7273189
9	0x3e302eab	0.17205302
10	0xbfd90b7a	-1.6956627
11	0xc06fb48d	-3.745395
12	0xc07070ed	-3.7568924
13	0xc016227d	-2.345855
14	0xbd5c1076	-0.053726636
15	0xbf79917f	-0.97487634
16	0xc033f3d1	-2.8117564
17	0xc05fbdf3	-3.4959686
18	0xc004b7f1	-2.073727
19	0xbebb0bb5	-0.3653237
20	0x3e803e5a	0.2504757
21	0xbd5a3968	-0.053277403
22	0xbf2a1302	-0.66435254
23	0xbf26bd30	-0.6513243
24	0xbe18cd46	-0.14922056
25	0xbe7b31c8	-0.24530709
26	0xbf2b90fa	-0.6701809
27	0xbe26dc44	-0.16294962
28	0x3f0b97a4	0.5452826
29	0x3f144b53	0.57927436
30	0xbe511d60	-0.20421362
31	0xbf5daf2f	-0.86595434
32	0xbe38b02e	-0.18035957
33	0x3ec7e8df	0.39044854
34	0x3f3e8197	0.7441649
35	0xbe111844	-0.14169413
36	0xbf81ef9a	-1.0151246
37	0xbea09762	-0.31365496
38	0x3e51a822	0.20474294
39	0x3f10d366	0.5657257
40	0xbe1b4bb2	-0.15165594
41	0xbf5d6467	-0.86481327
42	0xbef88922	-0.48542124
43	0x3eba7a12	0.36421257
44	0x3f0ed3d2	0.5579196
45	0x3e0279c0	0.12741756
46	0xbf4a1dc6	-0.7895168
47	0xbe7be184	-0.24597746
48	0x3e7134c9	0.23555292
49	0x3f6303cc	0.8867767
50	0x3e9722e0	0.29518795
51	0x3f040529	0.51570374
52	0x3f2c1ea9	0.67234284
53	0x3e98651a	0.29764634
54	0x3e68e5a6	0.22743854
55	0x3f883521	1.0641214
56	0x3febcb64	1.8421445
57	0x3fe77c08	1.8084726
58	0x3f73808c	0.9511802
59	0x3f0c924c	0.5491073
60	0x3f29f03a	0.6638218
61	0x3fd3b0a5	1.6538283
62	0x3ff0b7ed	1.880613
63	0x3fb22699	1.3918029
64	0x3edb8084	0.42871487
65	0x3ebcf60b	0.36906466
66	0x3f903925	1.1267439
67	0x3fb56040	1.4169998
68	0x3f914bb1	1.1351224
69	0x3e116674	0.14199239
70	0xbe746d6d	-0.23869868
71	0xbda9c861	-0.08290172
72	0x3ea7ec96	0.32797688
73	0x3e393358	0.18085992
74	0x3dbccc2d	0.09218631
75	0x3ed5729d	0.41689005
76	0xbee284dc	-0.4424199
77	0xbf0690be	-0.5256461
78	0x3d6e2a89	0.058146033
79	0x3ef2827a	0.4736517
80	0x3e542d15	0.20720322
81	0xbf3f2897	-0.7467131
82	0xbf89d8ec	-1.0769324
83	0x3dd50440	0.10401201
84	0x3e8e0d5e	0.27744573
85	0x3f1c84b3	0.6113998
86	0xbf608efc	-0.87718177
87	0xbfb1a10b	-1.3877271
88	0xbe32f94a	-0.17477909
89	0x3e56e0bd	0.20984168
90	0x3f00b326	0.5027336
91	0xbef16644	-0.47148335
92	0xbf8a044d	-1.0782562
93	0x3d4a067f	0.0493226
94	0x3f2ade4f	0.66745466
95	0x3f193023	0.59839076
96	0xbe5c1812	-0.21493557
97	0xbf225d87	-0.6342396
98	0x3e9c1491	0.3048444
99	0x3f4afcb4	0.79291844
100	0xbe711b9a	-0.23545685
101	0xbe8aa116	-0.27076024
102	0xbe1746a7	-0.14773045
103	0xbe16517b	-0.1467952
104	0x3e81d239	0.253557
105	0xbf92d9b6	-1.147269
106	0xc029a871	-2.6509058
107	0xc03b79ba	-2.9293046
108	0xbfcea99f	-1.6145514
109	0x3e69ef9e	0.22845313
110	0xbf2390a8	-0.638926
111	0xc01803c6	-2.3752303
112	0xc0417d8c	-3.0232878
113	0xc006e353	-2.1076248
114	0x3e23c584	0.15993315
115	0x3f113464	0.56720567
116	0xbbe18005	-0.006881716
117	0xbf3c76c6	-0.73618734
118	0xbf54208e	-0.82862175
119	0x3c8c2919	0.01710944
120	0x3f3995c5	0.72494155
121	0x3f026768	0.50939035
122	0x3e69e8d5	0.22842725
123	0xbb36441d	-0.0027811595
124	0x3f15d7e2	0.58532536
125	0xbee4df44	-0.44701588
126	0xbf40a4d2	-0.75251496
127	0xbf5bc730	-0.8585081
128	0xbe71bf45	-0.2360812
129	0x3f0c8dd6	0.54903924
130	0xbe7de3e3	-0.24793963
131	0xbf4acf68	-0.79222727
132	0xbfae531b	-1.3619112
133	0xbebf08c9	-0.3731139
134	0x3ee7f3f6	0.45303315
135	0xbcb8dbc5	-0.022565732
136	0xbf132252	-0.57474244
137	0xbf758e27	-0.9592003
138	0xbe3ff1e0	-0.18744612
139	0x3f11b808	0.56921434
140	0x3ef2dd3f	0.47434422
141	0xbdd5572e	-0.10417019
142	0xbf2fd6d1	-0.6868716
143	0x3df3e9d5	0.11909834
144	0x3f1d2ffa	0.6140133
145	0x3f3385b5	0.70125896
146	0xbe0ea3ed	-0.1392972
147	0xbec88a84	-0.3916818
148	0xbdb1af00	-0.08675957
149	0x3f02d5ba	0.5110737

conv1.bias f4 [6]
0	0x3ebf7ca0	0.3739977
1	0x3e5d5005	0.21612556
2	0x3e63a67c	0.22231477
3	0x3ceb2fa9	0.02870925
4	0x3ea07a9c	0.31343544
5	0x3ebe892d	0.37214032

conv2.weight f4 [16, 6, 5, 5]
0	0x3ed76324	0.42067826
1	0x3ec62ecb	0.38707575
2	0x3e77cbc7	0.24198829
3	0xbeb91722	-0.3615046
4	0xbf17f773	-0.5936195
5	0x3eb2d136	0.3492524
6	0x3edc9d97	0.43088982
7	0x3de569c7	0.11201816
8	0xbec77fdc	-0.38964736
9	0xbf24966a	-0.64292014
10	0x3f0506c3	0.5196344
11	0x3eed5753	0.46355686
12	0x3d81b435	0.063332
13	0xbee6acbe	-0.45053667
14	0xbf2b7145	-0.6696971
15	0x3eab8a4a	0.33503944
16	0x3e80a262	0.25123888
17	0xbd7af14a	-0.061265267
18	0xbf1a35fc	-0.60238624
19	0xbf39c7fe	-0.7257079
20	0x3ec76ccb	0.3895019
21	0xbe069d48	-0.13145936
22	0xbf6715c6	-0.902676
23	0xbfa9d46d	-1.3267952
24	0xbf9ea02e	-1.2392633
25	0x3e85e0c8	0.26148057
26	0x3f12abae	0.5729321
27	0x3f08dda6	0.5346321
28	0x3d20b5c5	0.03923585
29	0xbecbfce5	-0.3984138
30	0x3e229827	0.15878354
31	0x3f01adb3	0.5065567
32	0x3ea93bc9	0.33053425
33	0x3e0cc166	0.1374565
34	0xbec6a1d4	-0.3879534
35	0x3d39294d	0.045205403
36	0x3f01a59b	0.5064332
37	0x3e1291fe	0.14313504
38	0xbbab04c5	-0.0052190744
39	0xbf0adeda	-0.54246294
40	0x3d5c6f95	0.05381735
41	0x3ef6c2ef	0.48195598
42	0x3e484933	0.19559173
43	0x3be37091	0.006940909
44	0xbf275d60	-0.65376854
45	0x3dc02d17	0.093836
46	0x3e35bcda	0.17747822
47	0xbe8cb1d2	-0.27479416
48	0xbebc422e	-0.3676924
49	0xbf4aeb00	-0.7926483
50	0xbdc6a5d5	-0.09699599
51	0xbd2ae9f1	-0.04172701
52	0xbdd07bf1	-0.1017989
53	0x3d7070d5	0.058701355
54	0x3d4322f4	0.047640756
55	0xbd3bb8b0	-0.04583043
56	0xbdf126ae	-0.11774956
57	0xbbce45ec	-0.0062949564
58	0x3d80d3b2	0.06290378
59	0x3da973f7	0.08274072
60	0xbd80fa80	-0.06297779
61	0x3cb9b5b0	0.022669643
62	0x3d39ca62	0.045359023
63	0x3d96cbaa	0.073630646
64	0x3d7c8fb9	0.061660502
65	0xbd181ec7	-0.037138727
66	0x3bd446c4	0.0064781625
67	0xbd37edbf	-0.044904467
68	0x3da4ff52	0.08056511
69	0x3e3526ae	0.17690536
70	0xbde98827	-0.11402922
71	0x3ce97bf5	0.02850149
72	0x3d9c4435	0.07630197
73	0x3e69000d	0.22753926
74	0x3e4bb4ce	0.1989319
75	0x3eed3d7b	0.46335968
76	0x3f2d02c3	0.6758234
77	0x3ebd9d23	0.37033948
78	0xbe3cd5ee	-0.18440983
79	0xbee6593c	-0.44989955
80	0x3e9f67fc	0.3113402
81	0x3f25eb5a	0.64812243
82	0x3e9d3d3a	0.30710775
83	0xbe42b29d	-0.19013448
84	0xbefcfa4e	-0.49409717
85	0x3ec89e78	0.39183402
86	0x3ef71e55	0.4826533
87	0x3c7a8973	0.0152915595
88	0xbe17bf6a	-0.14819112
89	0xbf02e7e4	-0.51135087
90	0x3ecc78ec	0.39936006
91	0x3ef0be7b	0.47020325
92	0x3dc7232d	0.09723506
93	0xbe61e948	-0.22061646
94	0xbefc2e3f	-0.49254033
95	0x3e83ded5	0.25755945
96	0x3d86de32	0.06585349
97	0xbf171844	-0.590214
98	0xbf44ae09	-0.76828057
99	0xbf2f50cb	-0.68482655
100	0x3ec39129	0.38196686
101	0x3f0a7ace	0.54093635
102	0x3e5967ba	0.21230975
103	0xbed0ac4f	-0.4075646
104	0xbef4a0d5	-0.47778955
105	0x3ed41e9f	0.41429612
106	0x3ebf7888	0.37396646
107	0x3e36d9e6	0.17856559
108	0xbeb24083	-0.34814844
109	0xbf0cfff9	-0.55078083
110	0x3edc4b86	0.4302637
111	0x3ea6a9cb	0.32551417
112	0xbd59369a	-0.053030588
113	0xbedcc4e9	-0.4311898
114	0xbf04cc32	-0.5187408
115	0x3ec3c98f	0.38239715
116	0x3e664c3b	0.22490017
117	0xbd6580e1	-0.05603111
118	0xbf1db8ba	-0.61609995
119	0xbf145b0b	-0.5795142
120	0x3eadc4bd	0.33939162
121	0xbe0f6718	-0.14004171
122	0xbf11b89e	-0.5692233
123	0xbf636347	-0.8882336
124	0xbf408b09	-0.7521215
125	0x3ea5d205	0.32386795
126	0x3efa43d7	0.48879883
127	0x3ec3135e	0.38100713
128	0xbda2b20c	-0.07944116
129	0xbe92f815	-0.28704897
130	0x3eae4f6e	0.34044975
131	0x3eed66d3	0.4636751
132	0x3ea1772e	0.3153624
133	0xbe2f97bd	-0.17147727
134	0xbebe1360	-0.37124157
135	0x3eae2de7	0.34019396
136	0x3ed5db85	0.41769043
137	0x3e03cb94	0.12870628
138	0xbe213735	-0.15743716
139	0xbed98958	-0.42487597
140	0x3e561d8f	0.20909713
141	0x3e8addc3	0.27122316
142	0x3d05d6b8	0.032675475
143	0xbe2fd318	-0.1717037
144	0xbeab5830	-0.3346572
145	0x3ebdc66c	0.37065446
146	0x3e858bf4	0.26083338
147	0xbe15d9c0	-0.14633846
148	0xbef42be0	-0.47689724
149	0xbf12dd48	-0.573689
150	0xbdc31fc1	-0.09527541
151	0x3f2d8749	0.67784554
152	0x3f6704f8	0.90241957
153	0x3ea409c2	0.32038695
154	0x3e4430e4	0.19159275
155	0xbe30258a	-0.1720182
156	0x3eac084b	0.33600077
157	0x3eaaa5dc	0.33329666
158	0xbe2e6c9f	-0.17033623
159	0xbef238e7	-0.47309038
160	0x3e3cb106	0.18426904
161	0x3ec62294	0.38698256
162	0x3eded889	0.43524578
163	0xbd8a433a	-0.06751104
164	0xbf10fd86	-0.56636846
165	0x3f1e8b49	0.6193128
166	0x3f25de1d	0.6479204
167	0x3efdcc8d	0.49570122
168	0x3c5609c1	0.013063849
169	0xbea41495	-0.32046953
170	0x3f643760	0.89146996
171	0x3f6664dd	0.89997655
172	0x3ec72f9c	0.3890351
173	0xbdba8944	-0.091082126
174	0xbef7309f	-0.48279282
175	0x3d9284a5	0.07154206
176	0x3e2fbf68	0.1716286
177	0x3f1579b0	0.58388805
178	0x3f11c605	0.5694278
179	0xbe5a22b2	-0.21302298
180	0xbe5f64c5	-0.21815784
181	0xbe2cdacf	-0.16880344
182	0x3ed5a5a8	0.41727948
183	0x3f1e5a38	0.6185641
184	0xbeda5bac	-0.42648065
185	0xbe985250	-0.297503
186	0xbe16a815	-0.14712556
187	0x3eb72f46	0.35778254
188	0x3eff6c29	0.49887207
189	0xbf236aa3	-0.6383459
190	0xbe826d2c	-0.25473917
191	0x3daf9096	0.085724995
192	0x3e59aeaa	0.21258035
193	0x3ec2bcdd	0.38034716
194	0xbf5ff822	-0.87487996
195	0xbe367b8b	-0.17820565
196	0x3e7e39b1	0.24826695
197	0x3e788eef	0.24273275
198	0x3e1f0ad7	0.15531479
199	0xbf38697b	-0.7203595
200	0xbd037d50	-0.03210193
201	0xbe91b998	-0.2846191
202	0xbe878499	-0.2646835
203	0xbd21ceba	-0.03950379
204	0xbd40ce19	-0.04707155
205	0x3e18f0bd	0.14935584
206	0xbdc9050a	-0.09815414
207	0xbdae1ac7	-0.08501201
208	0x3c9e41ef	0.019318549
209	0x3d50aa84	0.050943866
210	0xbae5159f	-0.0017477757
211	0xbd7bae68	-0.061445624
212	0xbdb4f3de	-0.088355765
213	0x3c8befca	0.017082114
214	0x3dc47c67	0.0959404
215	0xbe1f34fc	-0.15547556
216	0xbe57093e	-0.2099962
217	0xbda65d6b	-0.08123287
218	0x3b73d46e	0.0037205475
219	0x3d0c0028	0.034179837
220	0xbe590e09	-0.2119676
221	0xbe02ba5c	-0.12766403
222	0xbd69fa4f	-0.05712348
223	0xbd45bb05	-0.04827406
224	0x3bfb51db	0.00766967
225	0x3e603a4d	0.2189724
226	0x3ee7a835	0.4524552
227	0x3f423ad1	0.75870997
228	0x3f142eac	0.57883716
229	0xbd4b31d4	-0.049608067
230	0xbe996461	-0.29959396
231	0xbca8372f	-0.020534126
232	0x3edf29e1	0.4358664
233	0x3ecf1f94	0.4045378
234	0xbeac8663	-0.3369628
235	0xbecc0e24	-0.39854538
236	0x3db3cf17	0.08779734
237	0x3e061e19	0.13097419
238	0x3db2a869	0.08723528
239	0xbf2a3708	-0.6649022
240	0xbe9a5ee5	-0.30150524
241	0x3e4ea73b	0.20180981
242	0xbd1b95d1	-0.037984673
243	0x3dcfcf67	0.10146981
244	0xbf426891	-0.75940806
245	0xbdeace23	-0.11465099
246	0x3e99ed57	0.30063888
247	0xbd45953e	-0.04823803
248	0x3cda5e86	0.0266564
249	0xbf53681b	-0.8258073
250	0x39417c8b	0.0001845231
251	0x3f3be10c	0.7339027
252	0x3f80456f	1.002119
253	0x3ec40117	0.3828208
254	0xbb85390b	-0.004065638
255	0xbef7e925	-0.48420063

conv2.bias f4 [16]
0	0xbd9a090a	-0.07521255
1	0xbcd927d2	-0.026508246
2	0x3d88baec	0.066762775
3	0x3db9b3cb	0.09067496
4	0xbe0b8bdf	-0.13627575
5	0x3c1c4312	0.009537475
6	0xbde29cbb	-0.1106505
7	0x3d609e18	0.05483827
8	0x3e0f31d3	0.1398385
9	0xbe30ee1b	-0.1727833
10	0xbd1a1021	-0.037613038
11	0x3e5c2900	0.21500015
12	0xbdd331bd	-0.10312221
13	0xbe0fb011	-0.14032008
14	0xbd9b0aea	-0.07570441
15	0xbda12a5d	-0.07869408

fc1.weight f4 [120, 400]
0	0x3dab9c56	0.08379428
1	0xbddb1b62	-0.10698582
2	0x3a7e45b4	0.00096997176
3	0x3f0e217b	0.5551984
4	0xbe048917	-0.1294292
5	0xbd8597f4	-0.065231234
6	0xbcb99290	-0.022652894
7	0x3db1ed9f	0.08687901
8	0x3c0963eb	0.008385639
9	0xbd875601	-0.06608201
10	0xbdaa32f0	-0.08310497
11	0xbd35390d	-0.04424386
12	0xbda2475d	-0.07923768
13	0xbe3fbbd8	-0.18724
14	0xbe4fab2a	-0.20280138
15	0xbd37c66c	-0.044866964
16	0x3d3fd999	0.046838377
17	0xbd936b0a	-0.071981505
18	0xbe17ef2a	-0.14837328
19	0xbebab243	-0.36464128
20	0x3e441a85	0.19150741
21	0x3e821c1e	0.25412077
22	0x3dcd859f	0.10035252
23	0x3eefb20f	0.46815535
24	0xbf4e18c8	-0.80506563
25	0xbe38d87e	-0.18051335
26	0xbf4bb990	-0.7958002
27	0x3eec4e4b	0.46153483
28	0xbe771a9b	-0.24131243
29	0xbf03464c	-0.5127914
30	0x3c3b78ad	0.011442346
31	0xbe02fe96	-0.1279243
32	0x3e09f996	0.13474116
33	0x3c1bcfa3	0.009509954
34	0xbd271bba	-0.040797926
35	0x3defea74	0.1171464
36	0xbdd4c67d	-0.10389421
37	0xbde18a24	-0.11012676
38	0xbe445a74	-0.1917513
39	0x3e7e4f4c	0.24834937
40	0x3d83bca1	0.064324625
41	0xbd3a0850	-0.045418084
42	0x3c05cfd0	0.008167222
43	0xbd940cfd	-0.0722904
44	0x3e8b26e6	0.27178115
45	0x3d4019a0	0.046899438
46	0xbf0d2857	-0.5513968
47	0x3e2c33c7	0.16816626
48	0x3e7cf205	0.24701698
49	0xbdd065ba	-0.10175653
50	0x3e6ff2c5	0.23432453
51	0xbb09b800	-0.0021014214
52	0x3da073fc	0.07834622
53	0x3e57e30e	0.21082708
54	0x3dcd6865	0.10029677
55	0x3c75d35f	0.015004008
56	0x3d81a53a	0.063303426
57	0x3e3b13ce	0.18269274
58	0x3dd0f4a9	0.10202915
59	0xbd2d8165	-0.04235973
60	0xbd8a5b60	-0.0675571
61	0x3d492437	0.049106803
62	0x3d0d18fb	0.03444765
63	0xbdf2b821	-0.11851526
64	0xbe340b88	-0.17582524
65	0xbdaf50fd	-0.08560369
66	0xbb997af7	-0.004683848
67	0x3d3943a2	0.045230515
68	0xbd1538b7	-0.03643104
69	0xbe76494d	-0.240514
70	0x3e8300c0	0.2558651
71	0x3e1a384e	0.15060541
72	0x3d78e6f5	0.060767133
73	0x3de322f7	0.110906534
74	0xbe9e92bd	-0.30971327
75	0x3ed0bf82	0.4077111
76	0x3e2dab04	0.16959769
77	0xbd9cb1fe	-0.07651137
78	0x3e27ef6d	0.16399927
79	0x3ea69f69	0.32543495
80	0x3e1679c6	0.1469489
81	0x3dfdebd8	0.12398499
82	0x3ded4044	0.11584523
83	0x3dc0e49e	0.09418605
84	0x3d546cd0	0.051861584
85	0xbd5f447b	-0.054508667
86	0x3d3cb18d	0.046067763
87	0x3d0f2e9c	0.03495656
88	0x3d67907f	0.056534287
89	0xbda776e6	-0.08176975
90	0xbdbbdee3	-0.09173372
91	0xbc179d47	-0.009253806
92	0x3d2da7d1	0.04239637
93	0xbcd9d54d	-0.026590968
94	0xbe3273c9	-0.17426981
95	0xbd8129d5	-0.06306807
96	0x3cbe1107	0.023201479
97	0x3c952ce3	0.01820988
98	0xbcd56300	-0.026048183
99	0xbcc09126	-0.023506712
100	0xbd9a3c6c	-0.07531056
101	0xbedd019e	-0.43165296
102	0x3dab3ab0	0.08360803
103	0xbea9bbfa	-0.33151227
104	0xbec7edd3	-0.39048633
105	0xbd37a404	-0.044834152
106	0x3d5bb8fa	0.053643204
107	0xbc8fa085	-0.017532596
108	0x3d45a4e6	0.048252963
109	0x3c4c13ab	0.012455861
110	0x3db0628f	0.086125486
111	0x3d1f5d71	0.038907472
112	0xbd1561f9	-0.036470387
113	0x3d46c67a	0.048529126
114	0x3dd18bd3	0.102317475
115	0x3e23e6a6	0.16005954
116	0x3d1406db	0.03613935
117	0x3d07809d	0.03308164
118	0x3dd1ddd0	0.102473855
119	0x3e6cd2a7	0.23127232
120	0x3e3aee3d	0.18254943
121	0xbeb03b1d	-0.344201
122	0xbc1c363a	-0.009534413
123	0xbde38281	-0.11108876
124	0xbd090a17	-0.033456888
125	0x3e3d2aaf	0.18473314
126	0xbd78c4e7	-0.060734656
127	0xbf02f99c	-0.51162124
128	0x3f7acb22	0.97966206
129	0x3ec55904	0.38544476
130	0x3a58f980	0.00082769245
131	0x3d322efe	0.043501846
132	0xbd37f037	-0.04490682
133	0xbd3346eb	-0.043768805
134	0x3e679a85	0.22617538
135	0x3c8bddbd	0.017073506
136	0x3e0616e1	0.13094665
137	0xbd357ccf	-0.04430848
138	0xbe4dec6c	-0.20109719
139	0x3cb5c48f	0.022188453
140	0x3cf3bee8	0.029754117
141	0x3d0188d8	0.031624645
142	0xbdf46150	-0.119326234
143	0xbdc4142a	-0.095741585
144	0xbec33366	-0.3812515
145	0x3e51e743	0.20498376
146	0x3e11f032	0.14251783
147	0xbe76b483	-0.24092297
148	0x3e5b087c	0.21389955
149	0xbf03a59d	-0.5142458
150	0xbe634c60	-0.22197104
151	0xbd510ac9	-0.051035676
152	0x3e46e958	0.19424951
153	0xbe94ceda	-0.29064065
154	0xbdf20e3b	-0.118191205
155	0x3d1b341f	0.037891503
156	0xbd008c77	-0.031383958
157	0xbda2d763	-0.07951238
158	0x3c1bf7c5	0.009519522
159	0xbdaa732b	-0.08322748
160	0x3db8b1df	0.09018301
161	0x3dc3c119	0.09558315
162	0xbe08b830	-0.13351512
163	0x3d664c31	0.056225006
164	0x3bdc2a88	0.0067189373
165	0x3e227000	0.15863037
166	0x3e711986	0.23544893
167	0xbb769219	-0.0037623702
168	0x3d9926fe	0.0747814
169	0x3d9a7ba8	0.07543117
170	0x3d315e06	0.04330256
171	0xbd222df6	-0.039594613
172	0xbcaedffd	-0.02134704
173	0xbd844ad9	-0.064595886
174	0x3e2718fb	0.16318123
175	0x3e029b71	0.12754609
176	0x3e57d017	0.21075474
177	0x3dc16391	0.09442819
178	0x3d61ba65	0.0551094
179	0x3e5db627	0.21651517
180	0x3dc570ed	0.096406795
181	0x3e06df26	0.13171062
182	0x3e29ba5e	0.16575
183	0x3da32779	0.07966513
184	0xbc0bb9b0	-0.008528158
185	0xbc92336a	-0.017846782
186	0xbb9321d9	-0.004490119
187	0x3d03b710	0.032157004
188	0xbd473134	-0.048630908
189	0xbbc0ea1a	-0.005887282
190	0xbe90fb71	-0.28316835
191	0xbc13ed49	-0.009028741
192	0xbbce6a28	-0.006299276
193	0xbd6a7b62	-0.057246573
194	0xbe46cd8d	-0.19414349
195	0xbcde0d55	-0.027105967
196	0x3e76d655	0.24105199
197	0x3d8f3eb0	0.069943786
198	0x3df59f73	0.11993303
199	0x3cb29731	0.02180061
200	0x3e233aa7	0.15940343
201	0x3e2c7cf0	0.16844535
202	0x3d9b61f5	0.07587043
203	0x3e26916a	0.16266409
204	0x3e5f8267	0.21827088
205	0xbcf778e6	-0.030209016
206	0x3cec885d	0.028873617
207	0x3d785490	0.06062752
208	0x3d8d838c	0.06909856
209	0x3c6f55c6	0.014607852
210	0xbda9f7f5	-0.08299247
211	0xbd8f3f9b	-0.06994554
212	0x3d55408d	0.052063514
213	0x3d3ea6fb	0.046545964
214	0xbe19812e	-0.14990684
215	0xbd1c8d52	-0.03822071
216	0xbca052df	-0.019570766
217	0x3d4f1097	0.05055293
218	0x3d0935b6	0.03349849
219	0xbdd29cb8	-0.10283798
220	0x3dba9284	0.09109977
221	0x3dd97f30	0.10619962
222	0x3d768a36	0.060190402
223	0x3dfe4ba5	0.12416772
224	0x3d4205d3	0.047368836
225	0xbe2605ed	-0.16213198
226	0xbdc09e3b	-0.0940518
227	0x3e46dd2e	0.19420311
228	0xbed0319a	-0.40662843
229	0xbe3ca348	-0.18421662
230	0x3dea7cbe	0.11449574
231	0xbdbeca4c	-0.09315929
232	0xbe0309e5	-0.12796743
233	0xbcb5b0c2	-0.022179011
234	0xbd9a3450	-0.07529509
235	0x3ddbafd3	0.10726895
236	0xbda96788	-0.082717
237	0xbe3017ac	-0.1719653
238	0x3e197c53	0.14988832
239	0x3d4dd8f8	0.050255746
240	0x3e5a52a5	0.21320589
241	0x3dc1749a	0.09446068
242	0xbda8661f	-0.08222603
243	0x3dcd08ec	0.10011467
244	0x3e1c6f4f	0.15276836
245	0x3d326fc6	0.043563627
246	0xbe8cb861	-0.2748442
247	0xbdc965fb	-0.09833904
248	0xbd913073	-0.07089319
249	0x3e10977d	0.14120288
250	0xbe8309f6	-0.25593537
251	0xbeaf3151	-0.34217313
252	0x3f631dfd	0.88717633
253	0xbf02c7e9	-0.5108629
254	0xbe7b42e3	-0.24537234
255	0xbe89f738	-0.26946425

fc1.bias f4 [120]
0	0x3c92806f	0.017883508
1	0xbd767220	-0.06016743
2	0xbcce506b	-0.02518483
3	0xbbe52af0	-0.006993644
4	0x3c6156e1	0.013753624
5	0xb8b84874	-8.787299e-05
6	0x3c55770b	0.01302887
7	0x3b7e1e98	0.003877556
8	0xbc48bf25	-0.012252604
9	0xbceed626	-0.029154848
10	0x3c9cbae3	0.019132083
11	0x3cb7086d	0.022342885
12	0xbd3c2c71	-0.04594082
13	0xbc2f998c	-0.010717761
14	0xbd3759f3	-0.044763517
15	0xbc879ff3	-0.016555762
16	0x3c9636a3	0.0183366
17	0xbc729807	-0.014806754
18	0x3b507342	0.003180698
19	0x3c8a7beb	0.016904792
20	0x3d88d161	0.06680561
21	0xbd422608	-0.04739955
22	0xbcb9bbbd	-0.022672528
23	0xbd8588b9	-0.065202184
24	0x3be125bf	0.0068709548
25	0xbcc18d22	-0.023626868
26	0x39da9995	0.00041694628
27	0x3cc7577d	0.02433371
28	0xbd1a730b	-0.03770737
29	0x3be56e77	0.007001694
30	0xbc85c2a3	-0.016328162
31	0x3d4cd459	0.050007198
32	0x3c379e22	0.011207135
33	0x3d142539	0.03616831
34	0x3d59fedf	0.05322158
35	0x3c23af91	0.009990589
36	0xbd029e57	-0.031889286
37	0x3db4edfc	0.088344544
38	0xbbb13add	-0.0054086284
39	0xbc5dd697	-0.013539932
40	0xbcb86c2d	-0.02251252
41	0x3d510ae6	0.051035784
42	0xbaaae024	-0.001303677
43	0x3bac1ac9	0.0052522165
44	0x38cee542	9.865548e-05
45	0x3c376b2a	0.0111949835
46	0xbcb9a4e4	-0.022661634
47	0x3ce26262	0.027634803
48	0x3d18b72a	0.037284054
49	0x3b3ed503	0.0029118664
50	0x3d9a3a12	0.07530607
51	0xbd154c6d	-0.03644984
52	0x3d2ccdd1	0.04218847
53	0x3c5503c9	0.013001391
54	0xbd99ba14	-0.07506195
55	0xbd5e9db3	-0.054349612
56	0xbd039fbf	-0.032134768
57	0xbd2bc63f	-0.04193711
58	0x3d85f32b	0.06540521
59	0xbd57cf06	-0.052687667
60	0xbc0393f8	-0.008030884
61	0x3d9edff7	0.07757562
62	0x3d90ba25	0.07066754
63	0x3dba9b8e	0.09111701
64	0x3d08f898	0.033440202
65	0x3d861ca6	0.06548433
66	0x3cf0b46c	0.029382907
67	0xba915bd5	-0.001108999
68	0x3ca2d774	0.019878127
69	0x3c973bae	0.018461075
70	0xbd00e63d	-0.031469572
71	0x3ba9e047	0.0051842066
72	0x3ca13133	0.01967678
73	0xbc883596	-0.016627114
74	0xbd32ef10	-0.04368502
75	0xbd13f2d3	-0.036120247
76	0x3d69d717	0.05708989
77	0xbc8a2863	-0.016864961
78	0x3d6dd143	0.058060896
79	0xbd87791f	-0.06614899
80	0x3d8ba978	0.06819433
81	0x3d22ed56	0.039777122
82	0x3cb05b2e	0.021527853
83	0x3c79e729	0.015252867
84	0x3caa94ea	0.02082296
85	0xbc6281b4	-0.013824869
86	0xbc97256c	-0.018450461
87	0xbd2aab34	-0.04166718
88	0xbd58a721	-0.05289376
89	0x3cfe5b20	0.031049311
90	0xbce7212f	-0.028214065
91	0x3d034f92	0.032058306
92	0xbd01f3be	-0.03172659
93	0xbd54c9f0	-0.051950395
94	0xbd2fca91	-0.04291779
95	0xbcaf24b1	-0.0213798
96	0xbd68e38b	-0.056857627
97	0x3cc932ce	0.024560358
98	0xbc874a2c	-0.01651486
99	0x3c96a334	0.018388368
100	0xbd471255	-0.048601467
101	0x3d3bbd68	0.04583493
102	0xbce487e6	-0.027896833
103	0x3b913e1b	0.0044324524
104	0xbc79e21c	-0.015251663
105	0x3cbb5cb9	0.022871362
106	0x3cd06859	0.025440382
107	0xbcdfd27c	-0.027322046
108	0xbc608626	-0.0137038585
109	0xbce982de	-0.028504785
110	0x3d3e6513	0.04648311
111	0xbc4909cf	-0.012270405
112	0x3a84d642	0.0010134655
113	0x3d3503a5	0.04419293
114	0x3b3420b0	0.0027485304
115	0xba884ede	-0.0010399481
116	0x3c9430fe	0.018089768
117	0xbc213d4d	-0.009841275
118	0xbd87b675	-0.06626598
119	0x3d4cfff1	0.050048772

fc2.weight f4 [84, 120]
0	0xbe17b387	-0.14814578
1	0xbe3bc8b4	-0.18338281
2	0xbf0b566b	-0.5442874
3	0x3ee7f7e4	0.45306313
4	0xbe59ab76	-0.21256813
5	0x3ec60bf1	0.38680986
6	0x3ecffdbc	0.4062327
7	0xbe612581	-0.21986963
8	0x3e43cb24	0.19120461
9	0xbdb547fd	-0.08851621
10	0xbe44cea0	-0.19219446
11	0x3ef575f4	0.47941554
12	0x3e0f4154	0.13989764
13	0x3f34d4e0	0.7063732
14	0xbec17b80	-0.37789536
15	0xbe7f8153	-0.24951677
16	0x3e5dc50f	0.21657203
17	0xbe8774f5	-0.2645642
18	0xbe36991f	-0.17831849
19	0xbea6d22b	-0.3258222
20	0x3dd42554	0.10358682
21	0x3eb5784c	0.35443342
22	0xbc8fd34b	-0.017556807
23	0xbe7886bd	-0.24270149
24	0x3d2dbd0f	0.04241663
25	0xbe1473ed	-0.14497347
26	0xbe984a44	-0.2974416
27	0x3e8c2475	0.27371565
28	0xbe98b5d8	-0.29826236
29	0x3b8f1831	0.0043668975
30	0x3ee99257	0.4561946
31	0x3f1fad1c	0.6237352
32	0xbe832648	-0.25615144
33	0x3eb7f629	0.35929993
34	0x3ea0b21e	0.31385893
35	0x3deef231	0.11667288
36	0x3e43658a	0.19081703
37	0x3cd44410	0.025911361
38	0xbed11c2c	-0.40841806
39	0xbed21240	-0.4102955
40	0x3f1ebfbf	0.6201133
41	0xbe7ab359	-0.24482478
42	0x3d70d109	0.0587931
43	0xbdc266b1	-0.09492243
44	0xbe557e0a	-0.20848861
45	0xbe291d4c	-0.16515082
46	0xbd85f552	-0.06540932
47	0x3d209d7b	0.039212685
48	0xbec9ea3c	-0.3943652
49	0x3de1eb93	0.1103126
50	0x3e364ce1	0.17802764
51	0xbd6bc0e6	-0.05755701
52	0xbeb5f7ff	-0.35540769
53	0xbe28990f	-0.16464637
54	0xbf2df60a	-0.6795355
55	0xbd7d5cb4	-0.061855987
56	0x3e1f4bb3	0.1555622
57	0xbe7098c9	-0.23495783
58	0x3f0816fe	0.53160083
59	0xbd1e9df4	-0.038724855
60	0xbdb0f47f	-0.08640384
61	0xbdaf1dec	-0.08550629
62	0xbed22aed	-0.41048375
63	0x3ebf6c38	0.37387252
64	0xbcad7a6e	-0.021176543
65	0x3f04e8df	0.51917833
66	0x3eaa9bb0	0.33321905
67	0x3dab0e70	0.08352363
68	0xbe7e3166	-0.24823532
69	0x3d31b0ff	0.043381687
70	0x3cf5a3f4	0.029985406
71	0xbd8710b1	-0.065949805
72	0x3ecb7d1b	0.39743885
73	0x3e20b62b	0.15694492
74	0x3ce5c412	0.028047595
75	0x3ece9c93	0.40353832
76	0x3e494216	0.19654116
77	0xbec0a006	-0.37622088
78	0x3e440aef	0.19144796
79	0xbf3dd0c1	-0.7414666
80	0x3e160c3d	0.14653106
81	0x3e0d7a15	0.13816102
82	0xbc60105a	-0.0136757735
83	0xbf27fbc7	-0.65618557
84	0xbd89d3d1	-0.06729854
85	0xbdce5706	-0.10075192
86	0x3e06f769	0.13180317
87	0xbea1fac7	-0.3163664
88	0xbd9b7fa8	-0.07592708
89	0x3d129586	0.035787128
90	0xbea9d089	-0.33166912
91	0xbea7fdc7	-0.32810804
92	0xbef47062	-0.4774199
93	0xbe9c3730	-0.30510855
94	0xbd57ea79	-0.052713845
95	0xbf1ce9a9	-0.6129404
96	0xb8121a9e	-3.48339e-05
97	0xbdbb7029	-0.09152252
98	0x3e31ac2e	0.17350838
99	0x3df3e16b	0.119082294
100	0xbf13a26d	-0.5766972
101	0xbcdc84e4	-0.026918836
102	0x3f1cead2	0.6129581
103	0x3d68530b	0.05671982
104	0x3e301dd3	0.17198877
105	0x3e14d57d	0.14534564
106	0x3ef7b608	0.48381066
107	0x3d85396b	0.06505092
108	0xbe0b1cd3	-0.13585214
109	0x3e342861	0.17593528
110	0xbe7ae66c	-0.24501961
111	0xbd3d123b	-0.046159964
112	0x3e93c41c	0.28860557
113	0x3eabf807	0.33587667
114	0xbe00f258	-0.12592447
115	0x3ee0df2d	0.4392027
116	0xbe599801	-0.21249391
117	0xbf1847db	-0.5948464
118	0xbeac216a	-0.33619243
119	0xbee06681	-0.43828204
120	0xbeb09e5c	-0.3449582
121	0xbd21022e	-0.03930872
122	0x3e52ac21	0.20573474
123	0x3e370a39	0.17874993
124	0xbe322af3	-0.17399196
125	0xbd79e12a	-0.06100575
126	0xbe474d18	-0.19463003
127	0xbf09bb79	-0.53801686
128	0x3e8fbb05	0.28072372
129	0xbee7c6e1	-0.4526892
130	0xbe0dc553	-0.13844804
131	0x3dcc0b23	0.09963062
132	0x3eb4a290	0.35280275
133	0xbd20db99	-0.039271925
134	0x3d038faa	0.03211943
135	0xbcf306fb	-0.029666414
136	0xbcc17b4b	-0.023618361
137	0xbd33bf74	-0.043883756
138	0x3d06d98c	0.032922313
139	0xbe32ca42	-0.17459968
140	0xbe6a4445	-0.22877605
141	0x3e02ca4f	0.12772487
142	0xbe9b66a4	-0.30351746
143	0xbd806ed9	-0.062711425
144	0xbec66eea	-0.38756496
145	0xbe890c39	-0.26767138
146	0xbde1093a	-0.10988088
147	0x3e10da0d	0.1414568
148	0xbc8e963c	-0.017405622
149	0x3ebfd9cb	0.3747085
150	0x3ee4ae7d	0.44664374
151	0xbdf27412	-0.11838545
152	0xbe5ae7a8	-0.21377432
153	0x3d440995	0.0478607
154	0x3e041f81	0.12902643
155	0xbf5cc018	-0.8623061
156	0x3ed27849	0.41107395
157	0x3df54d0b	0.119775854
158	0xbe949788	-0.2902186
159	0x3f2c5116	0.6731123
160	0x3e09231d	0.13392301
161	0xbda041ac	-0.07825026
162	0x3eeeb01b	0.46618733
163	0x3c43faf2	0.0119616855
164	0xbec59aba	-0.3859461
165	0xbe0366d8	-0.128322
166	0xbea93e42	-0.3305531
167	0xbe8b39ee	-0.27192634
168	0xbf125259	-0.571569
169	0x3cc851d6	0.024453085
170	0xbcd4e24a	-0.02598681
171	0xbdb68eb0	-0.08913934
172	0x3da599cc	0.08085975
173	0xbc54d987	-0.012991316
174	0x3e921fa0	0.28539753
175	0x3e85db73	0.2614399
176	0x3e8bfd9d	0.2734193
177	0x3e47473f	0.19460772
178	0x3e09c78c	0.13455027
179	0xbdf2e622	-0.118603006
180	0xbf0c717a	-0.5486065
181	0xbe788cc2	-0.24272445
182	0x3baa93a0	0.0052055866
183	0x3de88d54	0.11355081
184	0xbf30f35e	-0.6912135
185	0x3d5c4eb9	0.053786013
186	0xbec85408	-0.3912661
187	0xbda39e54	-0.07989183
188	0xbf00c43e	-0.5029944
189	0xbdba73b7	-0.09104102
190	0xbe85b6ba	-0.26115972
191	0x3d6a8aed	0.057261396
192	0xbd00bc4e	-0.03142958
193	0x3e098b9d	0.13432164
194	0x3ea779fe	0.3271026
195	0x3d60dc17	0.054897394
196	0x3db698e9	0.08915884
197	0x3e5e1bbe	0.2169027
198	0x3e0707ba	0.13186541
199	0x3e7b4615	0.24538453
200	0x3e170c61	0.14750816
201	0x3dcfaf35	0.1014084
202	0xbda95b7e	-0.08269404
203	0x3d7e178c	0.062034175
204	0xbf13e40c	-0.57769847
205	0x3ee53c4b	0.44772562
206	0x3e8982d4	0.26857626
207	0xbe3b559f	-0.1829438
208	0xbc9b117a	-0.018929232
209	0xbe66be66	-0.22533569
210	0xbdd19cf7	-0.10235017
211	0xbe09d9b0	-0.13461947
212	0x3e36bd54	0.1784566
213	0xbe1ce965	-0.15323408
214	0xbe3dad51	-0.18523146
215	0xbead95ff	-0.339035
216	0xbf1a6ed3	-0.60325354
217	0xbdb1579c	-0.08659288
218	0x3e72face	0.23728487
219	0x3c74504b	0.014911721
220	0x3e2c9e75	0.16857322
221	0x3e526e31	0.20549847
222	0x3e20b594	0.15694267
223	0xbd1f25cd	-0.03885441
224	0x3d9c5c1b	0.07634755
225	0x3e9d79e9	0.30757073
226	0xbdb7af17	-0.089689426
227	0x3ce2c22f	0.027680485
228	0x3e160664	0.14650875
229	0x3e26cc9f	0.16288994
230	0xbe2f503d	-0.17120452
231	0x3ea3eb10	0.32015276
232	0x3ea2357d	0.31681433
233	0xbcf248bf	-0.029575704
234	0xbe84a90a	-0.25910217
235	0x3cf83328	0.03029783
236	0xbdf0f7a3	-0.11765983
237	0x3da215d6	0.07914321
238	0x3cd454c8	0.025919333
239	0x3e77efdd	0.24212594
240	0xbe5f83e4	-0.21827656
241	0xbf09d80d	-0.5384529
242	0xbd6e1437	-0.058124747
243	0x3e3aac2d	0.18229742
244	0xbe722102	-0.23645404
245	0xbe05bff1	-0.13061501
246	0x3e6bf45c	0.23042434
247	0x3e124e03	0.14287572
248	0x3d787c8e	0.06066566
249	0xbeac93b0	-0.33706427
250	0xbe19bb70	-0.15012908
251	0x3ec514a7	0.3849232
252	0x3de6bfce	0.112670526
253	0x3ec0c1fa	0.37647992
254	0xbe722d8c	-0.23650187
255	0xbeaca30e	-0.3371815

fc2.bias f4 [84]
0	0xbd9a80a7	-0.0754407
1	0x3b5b47aa	0.0033459463
2	0xbcf57957	-0.029965086
3	0x3d81aa55	0.063313164
4	0x3ce6f037	0.028190715
5	0xba003f3f	-0.0004892237
6	0x3b287cbb	0.002570911
7	0xbc6f34bc	-0.014599975
8	0x3c6ed66e	0.014577491
9	0x3d6ca0b3	0.057770442
10	0xbcc5a1ae	-0.024124946
11	0x3d1dda64	0.03853835
12	0x3d483fb9	0.048888896
13	0xbd112986	-0.03543999
14	0x3b67425d	0.0035287358
15	0x3d6f1c81	0.058376793
16	0x3c57aadb	0.013163294
17	0xbd01daf2	-0.031702943
18	0x3dc5243d	0.096260525
19	0x3d804e52	0.062649384
20	0x3cb0c013	0.021575963
21	0x3d6a0582	0.05713416
22	0x3d82c852	0.06385864
23	0xbddeedf3	-0.10885229
24	0x3cc8a2e0	0.024491727
25	0xbd0593a6	-0.03261151
26	0x3da16f31	0.07882536
27	0x3d3c432a	0.04596249
28	0x3da9b7f5	0.0828704
29	0x3ca8e71c	0.020618014
30	0xbdd9a7de	-0.10627721
31	0x3daab521	0.08335329
32	0xbc6f760e	-0.014615549
33	0xbde56c76	-0.11202328
34	0xbdb5e326	-0.08881216
35	0xbe1f6fa2	-0.15569928
36	0xbdef2ec8	-0.11678845
37	0x3db734fe	0.08945654
38	0x3d80333f	0.062597744
39	0x3d9a4fea	0.07534774
40	0x3d314287	0.043276336
41	0x3dcf7818	0.10130328
42	0x3b9665f3	0.00458979
43	0x3d30f086	0.04319813
44	0x3dbeb311	0.09311498
45	0xbddf3fa9	-0.10900814
46	0xbcc60ff4	-0.024177529
47	0x3bffaef9	0.007802841
48	0xbd9c769c	-0.076398104
49	0xbde0affb	-0.109710656
50	0xbdd6d3e6	-0.10489635
51	0x3d17e44d	0.03708296
52	0x3d865216	0.065586254
53	0xbdcceff6	-0.100067064
54	0x3db5d320	0.088781595
55	0x3a415c45	0.0007376115
56	0x3d7d22c4	0.061800733
57	0xbb406fd1	-0.0029363523
58	0x3d6cadc0	0.05778289
59	0xbd99d619	-0.07511539
60	0xbbf0f713	-0.0073536723
61	0x3d93a416	0.07209031
62	0x3da7172c	0.081587166
63	0x3c5189bf	0.012789189
64	0xbd4fac1f	-0.050701257
65	0xbda30d42	-0.07961513
66	0xbd34bd8a	-0.04412607
67	0x3a042d54	0.0005042155
68	0x3d258c87	0.04041722
69	0xbd584900	-0.052803993
70	0xbd386d06	-0.045025848
71	0xbd891184	-0.06692794
72	0xbb48a2d8	-0.003061464
73	0x3b56c44c	0.003277081
74	0x3c765be6	0.015036559
75	0xbcbfd328	-0.023416117
76	0xbccf51bf	-0.025307534
77	0x3c60ccb4	0.01372068
78	0x3cc8734f	0.024469046
79	0xbda5b0bc	-0.0809035
80	0x3d4eb135	0.050461967
81	0x3da52681	0.08063985
82	0x3cb46271	0.022019597
83	0xbd9b8811	-0.07594312

fc3.weight f4 [10, 84]
0	0x3e60b062	0.21942285
1	0x3c94aebd	0.018149728
2	0x3d9292e3	0.07156923
3	0xbf051054	-0.5197804
4	0xbf1cf8c2	-0.61317074
5	0x3e8c5489	0.27408245
6	0x3d591f83	0.053008568
7	0x3cebb527	0.028772904
8	0x3e83a5f8	0.25712562
9	0x3c284c05	0.010272031
10	0x3d044151	0.032288853
11	0xbe583144	-0.21112543
12	0x3f16009c	0.5859468
13	0xbe849c99	-0.25900725
14	0xbf398fed	-0.7248524
15	0x3dad910f	0.08474933
16	0xbced7135	-0.028984645
17	0x3e3388d2	0.17532662
18	0xbc6bade1	-0.014384718
19	0x3de97f0a	0.11401184
20	0x3d198991	0.03748471
21	0xbec8a88e	-0.39191097
22	0xbe1483c8	-0.14503396
23	0x3dad2724	0.08454731
24	0xbec29990	-0.38007784
25	0x3e38c13c	0.18042463
26	0xbd7efef3	-0.062254857
27	0xbe501016	-0.20318636
28	0xbf0c542a	-0.54815924
29	0xbd16107a	-0.036636807
30	0x3ea766e4	0.32695687
31	0x3d564807	0.052314784
32	0xbc00c249	-0.007858821
33	0x3c11f119	0.00890758
34	0x3e4b786d	0.19870158
35	0x3e82676e	0.25469536
36	0x3d88d132	0.06680526
37	0xbf15883c	-0.58411
38	0xbec9e8d1	-0.39435437
39	0xbe6c2f17	-0.23064838
40	0x3e9e54d1	0.30924085
41	0x3d8d0cf6	0.06887238
42	0xbe512a26	-0.20426235
43	0xbe5f19b5	-0.2178715
44	0xbea3da9e	-0.3200273
45	0xbeb9b901	-0.3627396
46	0x3e511eb9	0.20421876
47	0xbf072d62	-0.52803624
48	0x3f13e359	0.5776878
49	0x3ea80334	0.32814944
50	0x3ea16916	0.31525487
51	0x3e99c6ed	0.3003458
52	0xbf44a352	-0.7681171
53	0xbeba381e	-0.3637094
54	0xbdf0958d	-0.117472745
55	0xbf07cb02	-0.5304414
56	0xbab1526b	-0.0013528591
57	0x3e6e29b7	0.232581
58	0xbd230169	-0.039796267
59	0xbeb28d82	-0.34873587
60	0xbf11c19a	-0.5693604
61	0xbf2e2a64	-0.6803343
62	0xbe511b4b	-0.20420568
63	0x3e66cd5d	0.22539277
64	0x3d53b04f	0.051681813
65	0x3dc92675	0.09821788
66	0xbe6def15	-0.23235734
67	0x3ec78d4a	0.38974983
68	0x3ec74b37	0.38924572
69	0x3d803e49	0.0626188
70	0xbc45e9e4	-0.01207969
71	0x3e5138dc	0.20431846
72	0xbe7849a5	-0.24246843
73	0x3e1af2e9	0.15131725
74	0x3f2051d7	0.6262488
75	0xbf01fd96	-0.50777566
76	0xbe2decc8	-0.16984856
77	0x3e9b9eca	0.30394584
78	0xbd218ef6	-0.03944298
79	0xbf05685d	-0.5211237
80	0x3eb7f54b	0.3592933
81	0x3e28988d	0.16464444
82	0x3e84d47d	0.25943366
83	0x3dc6e175	0.09710971
84	0xbf0d9592	-0.5530635
85	0x3e52d2dc	0.20588249
86	0xbee282f6	-0.4424054
87	0x3eaff88e	0.3436932
88	0x3ee9e97e	0.45685953
89	0xbf0b3703	-0.54380816
90	0xbefe883a	-0.49713308
91	0x3dbc18f7	0.09184449
92	0xbf12ba42	-0.57315457
93	0xbf201c61	-0.625433
94	0x3dcc4b10	0.099752545
95	0xbe5a3e35	-0.21312793
96	0x3e6f5d4e	0.23375437
97	0xbf2a8feb	-0.6662585
98	0x3ee567d4	0.44805777
99	0xbde8ecc2	-0.11373283
100	0x3cda010c	0.026611827
101	0xbc979bdd	-0.018506939
102	0x3e7bef32	0.24602965
103	0x3e292aa3	0.16520171
104	0xbf0088c7	-0.50208706
105	0x3f32dd0c	0.6986854
106	0xbe978f47	-0.296015
107	0x3e9240dd	0.28565112
108	0x3d92eba2	0.0717385
109	0x3e46ab2d	0.19401236
110	0xbee1db6b	-0.44112715
111	0x3e88c5df	0.26713464
112	0x3d85a018	0.06524676
113	0x3e4d17d5	0.20028622
114	0x3df98ed8	0.121854484
115	0xbf1bf2a8	-0.6091714
116	0x3df5056e	0.11963926
117	0xbf2a5829	-0.6654077
118	0xbef39baf	-0.47579715
119	0x3e540824	0.2070623
120	0x3aa1ecb8	0.0012353873
121	0xbe948849	-0.29010227
122	0xbd688e0e	-0.0567761
123	0x3f0acb9e	0.54216945
124	0xbed0f65b	-0.40812954
125	0x3e2d2ca4	0.1691156
126	0xbe9d8fa7	-0.3077366
127	0xbe82ee1d	-0.2557229
128	0x3eb66781	0.35625842
129	0x3e46465e	0.1936278
130	0xbf077923	-0.52919215
131	0x3db576e6	0.08860569
132	0x3e9acbc0	0.30233574
133	0x3e0be062	0.13659814
134	0x3dba7877	0.09105008
135	0x3e9c59c4	0.30537236
136	0x3ed51b1c	0.41622245
137	0xbf0f555a	-0.5598961
138	0xbecc58b2	-0.3991142
139	0xbee393f4	-0.44448817
140	0x3e3003ec	0.17188996
141	0x3edfcbca	0.43710166
142	0x3bc3cbef	0.0059752385
143	0xbe9fea5b	-0.31233487
144	0x3eadb59e	0.33927625
145	0xbe1ab2fb	-0.15107338
146	0x3f3295ad	0.6975964
147	0x3e71b786	0.23605165
148	0xbed6cb66	-0.41952056
149	0x3e022c08	0.12712109
150	0xbf1301cf	-0.57424635
151	0x3dd8dcb9	0.105889745
152	0xbe99bab9	-0.3002527
153	0x3e2ddb93	0.16978292
154	0x3e347b25	0.17625101
155	0xbf1c831a	-0.61137545
156	0x3ee85175	0.45374647
157	0xbef72360	-0.48269176
158	0x3ec30fcb	0.38097987
159	0x3e405ffc	0.18786615
160	0x3eafac4f	0.3431115
161	0xbe5ec33b	-0.21754162
162	0x3ddc3e4d	0.107540704
163	0x3ec17862	0.37787157
164	0x3f014522	0.50496113
165	0xbcac9a26	-0.021069597
166	0xbf1535e9	-0.58285385
167	0xbe5a7996	-0.21335444
168	0x3de3d5d0	0.11124766
169	0x3dd1062b	0.102062546
170	0x3dec32a3	0.11533096
171	0xbe5b150e	-0.2139475
172	0x3e99ef5c	0.3006543
173	0x3e2650fa	0.16241828
174	0x3e5efe8e	0.21776792
175	0x3e5f8479	0.21827878
176	0x3e18bc78	0.14915645
177	0xbefdadd1	-0.49546674
178	0x3df3737e	0.11887263
179	0x3ede80f3	0.43457755
180	0xbce27fa2	-0.02764875
181	0xbdd1e8f4	-0.102495104
182	0xbe2e8834	-0.17044145
183	0x3e204a78	0.15653408
184	0xbebdc608	-0.37065148
185	0xbf80b366	-1.0054748
186	0x3db79dce	0.08965646
187	0x3e31d13e	0.17364976
188	0x3c9f087d	0.019413227
189	0xbf078664	-0.5293944
190	0xbf59adfb	-0.850311
191	0x3e1f3cb4	0.155505
192	0xbd85ab56	-0.0652682
193	0x3d7e79d0	0.06212789
194	0xbe18d294	-0.14924079
195	0x3e405fd1	0.18786551
196	0x3ea364d1	0.31912854
197	0x3e4e03ad	0.2011859
198	0xbf5f2726	-0.8716911
199	0xbf096585	-0.5367053
200	0x3de5fc92	0.112298146
201	0xbd7d4fc3	-0.061843645
202	0x3dd7c6ce	0.10535966
203	0xbf21cc63	-0.63202494
204	0x3cd4b632	0.025965784
205	0x3ec85710	0.39128923
206	0xbdd4bbc6	-0.103873774
207	0xbec82cdc	-0.39096725
208	0x3e2713a4	0.16316086
209	0x3e468f55	0.19390614
210	0x3eb7b0dc	0.3587712
211	0xbf46362b	-0.77426404
212	0xbedeb8e6	-0.4350044
213	0xbe88aaf2	-0.2669292
214	0x3ca9f437	0.020746334
215	0x3d4b093e	0.04956936
216	0xbe6f3265	-0.23359068
217	0xbf6a6559	-0.91560894
218	0xbee5029d	-0.44728556
219	0x3ea8a061	0.3293486
220	0xbe56403e	-0.20922944
221	0xbe6d92a5	-0.23200472
222	0xbed27dc3	-0.41111574
223	0x3eaa21f7	0.33229038
224	0x3e083710	0.13302255
225	0x3f2a0d82	0.6642686
226	0x3e16a638	0.14711845
227	0xbef0e87f	-0.4705238
228	0xbe178f6b	-0.14800803
229	0x3ea49959	0.32148245
230	0xbed0dbc0	-0.40792656
231	0x3f18dcd2	0.59711945
232	0xbe11c880	-0.14236641
233	0x3cb20371	0.021730157
234	0xbf61d5e1	-0.8821698
235	0xbea4db5a	-0.32198602
236	0x3e728e47	0.23687087
237	0x3dfebb22	0.124380365
238	0xbc130822	-0.008974107
239	0xbe22c3ca	-0.15895
240	0x3ea3b27e	0.31972116
241	0xbf24363d	-0.6414526
242	0xbf28850d	-0.6582802
243	0x3eb5fbd2	0.35543686
244	0x3ecec3b8	0.40383697
245	0x3e92b21c	0.28651512
246	0x3d91d144	0.071199924
247	0xbea76b3f	-0.3269901
248	0xbf21eb2d	-0.63249475
249	0xbdcad845	-0.099045314
250	0x3d1eb37d	0.038745392
251	0x3ca7dfc6	0.020492446
252	0x3e7e4efe	0.2483482
253	0xbdf6e96a	-0.12056239
254	0xbd6fc41a	-0.058536626
255	0x3eb04ab3	0.3443199

fc3.bias f4 [10]
0	0xbd178dce	-0.03700047
1	0xbd329aa5	-0.04360451
2	0xbc4a35ae	-0.0123419
3	0x3d06bfc2	0.03289772
4	0x3da394ab	0.079873405
5	0xbd6a1c5b	-0.057155948
6	0x3d12b44d	0.03581648
7	0x3d1f4e9d	0.03889333
8	0xbe14bb7c	-0.14524645
9	0x3db66cfc	0.08907506
