best_model_50.pth (torch, 249863 bytes, 10 tensors)

conv1.weight f4 [6, 1, 5, 5]
-1.1210269 -0.12282647 0.5728725 0.73307794 -0.35390076 -1.3545144 -0.36562848 1.1877449
1.2316722 0.022309544 -1.4596561 -0.235243 1.1686394 1.5803199 0.24939531 -1.1830592
-0.7721601 0.96623266 1.2810544 0.18928458 -1.562834 -0.97085905 0.75582206 0.87175214
-0.017251944 -1.0365446 -2.1165683 -1.7172498 -0.9123421 -0.41601145 0.9077225 0.4868974
0.27383983 0.6064208 -0.022617199 1.680951 5.5280447 4.5103025 1.3551114 -0.39205173
0.13338365 2.6770809 3.841908 1.198207 -0.07603015 -0.8515813 -0.6715345 0.3850578
0.20288377 -0.39459378 -0.23818868 -0.4261803 -0.37524614 0.6917263 0.7775617 -0.24390417
-0.93323284 -0.5066406 0.17230187 0.4996492 -0.42140254 -0.93688345 -0.5244291 0.3915543
0.8276492 -0.22501199 -0.9985927 -0.30276713 0.37968475 0.8151416 -0.1307691 -0.7510309
-0.43854013 0.58822894 0.7662668 -0.70170605 -0.69017065 -0.30835345 -0.4545931 -0.4800723
1.1852418 2.6494796 2.759631 0.67185783 -0.14272302 1.4417528 4.9528913 5.484151
3.3813999 0.64302146 -0.20549852 1.705276 4.3131385 2.51473 -0.13400605 -0.6803456
-0.41000098 0.5052656 0.36342588 -0.2728363 0.041252498 -0.5379881 -1.2496529 -0.82325536
0.1479729 -0.114074856 -2.9494467 -7.477255 -6.517045 -0.42046693 0.7187615 -1.1044201
-4.049653 -3.6672435 0.31232575 0.63953763 0.31823313 -0.26035753 -0.83459395 -0.23024651
1.1944994 0.79531264 0.27582148 0.19160934 0.47158194 0.05383119 -0.2673013 -0.5260454
0.51930094 0.54931843 0.23820336 -0.84854394 -0.80380654 0.07269361 0.7782003 0.2579895
-0.7291044 -1.1226099 -0.03350511 0.6993318 0.30334398 -0.90610826 -0.8448219 0.0046621165
0.6032009 0.5166638 -0.65453494 -0.91162574 0.19922781 0.8780214
00000000: cf7d 8fbf 728c fbbd c6a7 123f ffaa 3b3f
00000010: 7b32 b5be ba60 adbf a833 bbbe 0608 983f
00000020: 6fa7 9d3f 81c2 b63c 03d6 babf 8ae3 70be
00000030: fa95 953f ec47 ca3f 7c61 7f3e 7c6e 97bf
00000040: 49ac 45bf 065b 773f 97f9 a33f d1d3 413e
00000050: f20a c8bf 388a 78bf 8e7d 413f 262b 5f3f
00000060: f353 8dbc 7ead 84bf db75 07c0 d7ce dbbf
00000070: 408f 69bf 74ff d4be 8060 683f 9e4a f93e
00000080: bc34 8c3e 653e 1b3f b447 b9bc 6729 d73f
00000090: bee5 b040 6654 9040 4a74 ad3f 01bb c8be
000000a0: b995 083e 4b55 2b40 d2e1 7540 d95e 993f
000000b0: b2b5 9bbd 3b01 5abf afe9 2bbf 4c26 c53e
000000c0: c3c0 4f3e 3208 cabe bce7 73be 4e34 dabe
000000d0: 4320 c0be fa14 313f 490e 473f 04c2 79be
000000e0: 59e8 6ebf 33b3 01bf e76f 303e 05d2 ff3e
000000f0: 13c2 d7be 98d7 6fbf fc40 06bf ce79 c83e
00000100: d1e0 533f 8b69 66be c5a3 7fbf 4b04 9bbe
00000110: 0a66 c23e 1fad 503f 56e8 05be 9043 40bf
00000120: 5588 e0be 2c96 163f 102a 443f 02a3 33bf
00000130: 06af 30bf 81e0 9dbe 6dc0 e8be 09cc f5be
00000140: 01b6 973f 1391 2940 cb9d 3040 e0fe 2b3f
00000150: fc25 12be 5b8b b83f 167e 9e40 2a7e af40
00000160: db68 5840 0e9d 243f 346e 52be 7c46 da3f
00000170: 3b05 8a40 56f1 2040 e238 09be 212b 2ebf
00000180: a6eb d1be 1659 013f f512 ba3e 33b1 8bbe
00000190: 61f8 283d 97b9 09bf a0f4 9fbf ddc0 52bf
000001a0: 3586 173e 14a0 e9bd bcc3 3cc0 ac45 efc0
000001b0: a28b d0c0 7147 d7be c100 383f a35d 8dbf
000001c0: c296 81c0 1eb4 6ac0 29e9 9f3e bdb8 233f
000001d0: 74ef a23e 954d 85be f3a7 55bf bec5 6bbe
000001e0: 5be5 983f 9c99 4b3f 7938 8d3e 3d35 443e
000001f0: 3073 f13e 187e 5c3d b7db 88be e9aa 06bf
00000200: e8f0 043f 22a0 0c3f 95eb 733e 2d3a 59bf
00000210: 44c6 4dbf 63e0 943d 2338 473f 3317 843e
00000220: 96a6 3abf aeb1 8fbf a73c 09bd 6907 333f
00000230: e74f 9b3e b6f6 67bf 3f46 58bf abc4 983b
00000240: 606b 1a3f 1444 043f 9a8f 27bf 4e60 69bf
00000250: 6002 4c3e 03c6 603f

conv1.bias f4 [6]
-0.1626877 -0.5995297 0.22909947 -0.73020285 0.16972332 -0.06812443
00000000: 9b97 26be c77a 19bf 0d99 6a3e 93ee 3abf
00000010: f3cb 2d3e d284 8bbd

conv2.weight f4 [16, 6, 5, 5]
0.24918269 -0.32281822 -0.88156563 -0.60896534 0.01092589 0.09385622 -0.1577786 -0.19322772
-0.3098189 -0.22159171 0.2930661 -0.4351948 0.11981292 0.1574759 -0.3149236 0.39009938
-0.22152591 0.42466998 0.69481575 0.1794885 0.16331212 -1.0306315 -0.2407366 0.6313615
0.54543126 0.30229735 0.18147027 -0.049831286 -0.25840008 -0.1440094 0.24477579 0.13632768
-0.069735125 -0.04606232 0.1329166 0.19043022 0.082173 -0.029324736 0.15322252 0.19089909
0.24057291 0.27396277 0.19326095 0.23370862 0.3440277 0.40159872 -0.23806027 -0.6437394
-0.6957495 -0.45367357 -0.07731414 -0.61424214 -0.01012706 0.3114697 0.62362885 0.15913321
-0.610913 0.21954188 -0.0014235002 0.1652595 0.29212528 -0.7920362 0.5181657 -0.32603797
-0.7408312 -0.124763004 -1.3609455 0.5133242 -0.3282128 -1.1466813 -0.6456272 -1.1069684
0.97820675 0.4090659 -0.26380947 0.31165707 0.034322675 -0.13505633 -0.18602522 -0.17686963
0.038723193 0.036082476 -0.16777098 -0.108633205 0.06395406 3.870463e-07 -0.03228051 -0.17748286
-0.052414384 0.17355393 0.20175731 0.08740812 -0.027159987 0.07657148 0.1978364 0.15604427
-0.13073622 -0.17471005 -0.16078568 -0.16837895 -0.5172355 0.47822502 2.3037984 1.800154
0.60874766 -0.3960984 0.025103161 0.8314825 0.5371871 0.8387488 0.07045016 0.4415423
0.64322865 -0.22382529 0.16136734 0.054220818 0.26566938 0.31816885 -0.25107953 -0.36007148
0.053529732 0.6770018 0.87112135 0.5845289 -0.009642795 -0.07693964 -0.4486319 0.41968986
0.29670227 0.50530964 -0.074969165 -0.5616522 0.59220856 -0.2936716 0.015525535 0.012441998
-0.7386045 0.7094607 -0.85762393 -0.8082404 -0.28545046 -0.9185378 0.8905771 -0.69420713
-1.1718565 -0.5023661 -0.307786 1.7223936 0.46470094 -0.30279797 -0.121834435 -0.61076474
-0.56877726 0.38474932 0.43251047 0.1362818 -0.36075896 -0.57014 -0.21160841 0.21778445
0.4449347 -0.05500732 -0.6009495 -0.48910606 0.049922083 0.6519674 0.25054136 -0.31840312
-0.17161095 0.1774838 0.46179584 0.08941493 -0.2979367 0.17683952 0.55057716 0.48795307
0.13005108 -0.4476177 -0.2407642 0.18999946 0.50241137 0.32627818 -0.19389974 -0.2850307
0.041777056 0.51634556 0.3375974 -0.2238402 -0.33454397 -0.10628593 0.43190977 0.28018776
-0.12886892 -0.1680863 0.025758484 0.69111586 0.17220658 -0.4504297 -0.36473534 -0.008225006
-0.63013035 -0.56884444 0.58744407 0.8484813 -0.14097258 -0.29708314 -0.63215333 0.119772576
0.645861 0.20113592 -0.047745343 -0.722157 -0.40176135 0.4346231 0.23704465 0.15709354
-0.69358075 -0.5326882 0.215934 0.18979798 -0.08457544 -0.89442724 -0.3224953 0.42066535
0.27464685 0.4772382 0.1367669 -0.34729028 -0.1803659 0.3528255 0.48005426 0.19156785
-0.12426388 -0.20088136 0.14330298 0.500245 0.20998761 -0.26523122 -0.18214643 -0.006053484
0.46823424 0.13081051 -0.34126174 -0.24610338 -0.052383967 0.36615613 0.04885832 -0.36071283
-0.35354957 0.03411284 -0.7408911 0.712169 1.7277607 0.33351144 -0.7614349 -0.53662825
00000000: bf29 7f3e 6e48 a5be 49ae 61bf 27e5 1bbf
00000010: 8102 333c b137 c03d b790 21be 7ddd 45be
00000020: 95a0 9ebe f0e8 62be c30c 963e dad1 debe
00000030: 7a60 f53d 5d41 213e ab3d a1be 1bbb c73e
00000040: b0d7 62be 586e d93e 72df 313f d5cb 373e
00000050: 4b3b 273e bceb 83bf a883 76be e8a0 213f
00000060: 62a1 0b3f b8c6 9a3e 58d3 393e e41b 4cbd
00000070: 044d 84be 3377 13be 81a6 7a3e 7c99 0b3e
00000080: 4ad1 8ebd d8ab 3cbd 4a1b 083e 2400 433e
00000090: 514a a83d 6e3a f0bc 5de6 1c3e 0d7b 433e
000000a0: bf58 763e d944 8c3e 33e6 453e 5051 6f3e
000000b0: 6624 b03e 599e cd3e 12c6 73be 1bcc 24bf
000000c0: a41c 32bf e747 e8be e056 9ebd f93e 1dbf
000000d0: f8eb 25bc f578 9f3e 24a6 1f3f d1f3 223e
000000e0: cb64 1cbf 96cf 603e be94 baba c939 293e
000000f0: 7291 953e e2c2 4abf 82a6 043f 73ee a6be
00000100: 1da7 3dbf bf83 ffbd 7633 aebf 3769 033f
00000110: 820b a8be 74c6 92bf d347 25bf 24b1 8dbf
00000120: c26b 7a3f 1671 d13e 0912 87be 8491 9f3e
00000130: ef95 0c3d 354c 0abe 657d 3ebe 501d 35be
00000140: 369c 1e3d 38cb 133d 28cc 2bbe 167b debd
00000150: 59fa 823d 3dcb cf34 9138 04bd 11be 35be
00000160: 77b0 56bd 1fb8 313e 7899 4e3e 0703 b33d
00000170: 9f7e debc 82d1 9c3d a095 4a3e 12ca 1f3e
00000180: b7df 05be 31e7 32be 00a5 24be 886b 2cbe
00000190: 8c69 04bf e9d9 f43e 6f71 1340 726b e63f
000001a0: e3d6 1b3f 69cd cabe 25a5 cd3c 0adc 543f
000001b0: 1885 093f 3eb8 563f 2c48 903d d511 e23e
000001c0: a2aa 243f 7532 65be 7b3d 253e a616 5e3d
000001d0: d105 883e 07e7 a23e 7f8d 80be 4a5b b8be
000001e0: fe41 5b3d fd4f 2d3f cf01 5f3f b0a3 153f
000001f0: d0fc 1dbc 8892 9dbd 15b3 e5be 97e1 d63e
00000200: 5ce9 973e f95b 013f 6f89 99bd 70c8 0fbf
00000210: fb9a 173f 205c 96be d05e 7e3c 86d9 4b3c
00000220: 2f15 3dbf 379f 353f 3e8d 5bbf d8e8 4ebf
00000230: 9026 92be 4b25 6bbf dcfc 633f 8fb7 31bf
00000240: 65ff 95bf 119b 00bf 2096 9dbe 6577 dc3f
00000250: 48ed ed3e 5608 9bbe 5584 f9bd 145b 1cbf
00000260: 639b 11bf ddfd c43e 0372 dd3e 758d 0b3e
00000270: 66b5 b8be b2f4 11bf e0af 58be e302 5f3e
00000280: 7bce e33e 5b4f 61bd d4d7 19bf 1c6c fabe
00000290: 197b 4c3d 56e7 263f f546 803e bc05 a3be
000002a0: c8ba 2fbe 50be 353e 8170 ec3e 2d1f b73d
000002b0: 298b 98be 6b15 353e a0f2 0c3f fcd4 f93e
000002c0: 1c2c 053e 262e e5be e48a 76be 388f 423e
000002d0: 089e 003f ef0d a73e a78d 46be 8bef 91be
000002e0: 6b1e 2b3d 392f 043f 91d9 ac3e 5e36 65be
000002f0: 5949 abbe 70ac d9bd 4723 dd3e c574 8f3e
00000300: 37f6 03be d11e 2cbe 7503 d33c f8ec 303f
00000310: ec56 303e b99e e6be 97be babe 2dc2 06bc
00000320: 3950 21bf ca9f 11bf bc62 163f 1236 593f
00000330: 1e5b 10be 481b 98be cdd4 21bf 534b f53d
00000340: 2657 253f 93f6 4d3e 9f90 43bd 48df 38bf
00000350: aab3 cdbe eb86 de3e d5bb 723e 21dd 203e
00000360: 828e 31bf 415e 08bf cd1d 5d3e 675a 423e
00000370: e335 adbd 2ff9 64bf 1b1e a5be 7361 d73e
00000380: 839e 8c3e 9158 f43e 9f0c 0c3e 08d0 b1be
00000390: d7b1 38be 8ba5 b43e acc9 f53e 5d2a 443e
000003a0: 107e febd d8b3 4dbe 04be 123e 0e10 003f
000003b0: fe06 573e 63cc 87be 9884 3abe 4e5c c6bb
000003c0: 66bc ef3e 31f3 053e dcb9 aebe 8602 7cbe
000003d0: 9290 56bd d178 bb3e a91f 483d 5aaf b8be
000003e0: 7304 b5be e8b9 0b3d 0aab 3dbf b550 363f
000003f0: 4327 dd3f 03c2 aa3e 66ed 42bf 7860 09bf

conv2.bias f4 [16]
0.050590463 0.10938525 0.14893697 0.044480983 0.16438441 -0.061766014 0.036809243 0.032601457
0.03219913 -0.0052932645 0.027615974 0.08796076 -0.019104298 -0.03317244 0.13402298 -0.028479612
00000000: f237 4f3d 6005 e03d ef82 183e b131 363d
00000010: 6354 283e 5cfe 7cbd 4ac5 163d 1b89 053d
00000020: 3ce3 033d 1f73 adbb e53a e23c c524 b43d
00000030: 9e80 9cbc d3df 07bd 523d 093e 134e e9bc

fc1.weight f4 [120, 400]
0.017037734 0.05021368 0.3054752 0.028366175 -0.15315613 0.034118414 0.036738984 -0.13702394
0.37748802 -0.5424158 0.18271203 0.021133946 -0.20778647 -0.15085626 -0.2538672 0.2857637
-0.11912528 -0.13275436 0.058511466 0.15097405 0.29213607 -0.08844412 -0.061136886 -0.039111346
0.23043561 0.044978626 -0.0015877296 0.10972214 0.3891003 -0.4004535 0.13464263 -0.100809984
-0.14461696 0.065864034 -0.6728867 0.5549718 0.28802207 -0.8196945 -0.27562413 -0.24833539
0.8349504 -0.13731094 -0.3287393 -0.07465308 -0.23999165 0.27941483 -0.43417042 0.33078218
0.03349127 -0.5883294 -0.02128224 0.007693145 0.27970627 0.40718645 -0.34802496 0.09972793
0.038788892 -0.0989384 -0.049870994 -0.31563506 -0.14544924 0.277833 -0.21905239 -0.48515075
0.43302247 0.16481666 -0.009271799 -0.2643729 0.1648421 0.13194597 0.04025125 -0.17404915
0.03292275 0.23237199 -0.16681544 0.0759268 0.1642253 0.116553135 0.0730779 -0.0032223165
-0.027335085 0.02015942 0.031374354 0.16826013 -0.3452123 0.022503564 0.035659783 0.17002675
0.10442858 -0.42417085 -0.058404952 0.11122365 -0.0003861555 -0.14707834 0.083864756 -0.7137831
-0.10019919 0.08615716 -0.158653 0.19040215 -0.030563379 0.058847614 0.09004133 0.061149858
-0.015610701 -0.021920403 0.08059526 -0.020449463 0.0067197555 -0.16572337 0.019605387 0.20022246
0.13879779 -0.11272114 -0.4625104 -0.20054637 0.27344447 -0.18812701 0.0658862 0.058820713
-0.65460706 0.31409255 -0.4309913 -0.25359106 0.20941013 0.21564782 0.020635242 -0.101724505
-0.3438837 -0.21867807 0.11652151 -0.049732514 0.00244601 -0.14037508 0.07100713 0.11953103
-0.0021934204 0.08917871 0.04096613 0.037637573 0.1370776 0.120039664 0.056503873 0.042638693
0.03238407 0.18953493 0.042712044 0.02982811 0.055068903 0.0029095935 -0.012086044 0.16533871
0.105018154 0.12967353 0.06513594 -0.068011746 0.102953695 0.04479452 0.4095117 -0.00026172854
0.090190314 0.08120854 -0.30703786 -0.056030452 -0.4602805 -0.37545404 0.07633415 -0.23562399
0.11418074 -0.14906952 -0.90372986 -0.6550116 -0.061027534 0.84101117 0.15779395 0.043748595
0.12631693 0.051785465 0.07813337 -0.075248696 -0.11210198 0.12957115 -0.0050180256 0.0575891
-0.067803755 0.056685302 0.12382392 0.084818244 -0.07490479 -0.064400405 -0.0015558794 0.0022583355
0.1442285 0.016653083 -0.22093679 -0.09968773 -0.115133956 -0.03427103 0.015355775 -0.12143315
0.048472743 0.114056066 0.0403268 0.03651816 -0.09710477 -0.008308651 0.07012163 -0.020209583
0.12979534 -0.3764067 0.016833361 0.051991425 -0.07163653 0.083206065 -0.09932217 0.030888015
0.00047873153 0.14522666 0.040372368 -0.12121223 -0.06513772 0.0007300279 -0.08432669 -0.11278116
-0.10436365 0.06731534 0.043571655 0.058922324 0.08777678 -0.20103659 -0.0025190671 0.047252692
-0.107540965 0.084351435 -0.39105815 -0.2376783 -0.047527175 -0.08786901 -0.67145467 0.4266388
-0.466206 -0.03247202 -0.05907527 0.17994164 -0.02850761 -0.14325961 -0.072220534 -0.10320558
0.013908959 -0.072035454 0.37848505 0.07424369 -0.032754138 -0.24502005 -0.1949341 0.09599546
00000000: b892 8b3c dcac 4d3d 3f67 9c3e 2e60 e83c
00000010: f6d4 1cbe c0bf 0b3d 9e7b 163d 0150 0cbe
00000020: 1c46 c13e c3db 0abf dd18 3b3e 1921 ad3c
00000030: fac5 54be 107a 1abe e2fa 81be 9f4f 923e
00000040: f4f7 f3bd c2f0 07be b8a9 6f3d f198 1a3e
00000050: dc92 953e 3122 b5bd ac6a 7abd 3833 20bd
00000060: 50f7 6b3e 823b 383d 5d1b d0ba 00b6 e03d
00000070: 2838 c73e 3e08 cdbe c2df 093e 7775 cebd
00000080: 7816 14be b9e3 863d 4e42 2cbf a212 0e3f
00000090: a177 933e 80d7 51bf 9b1e 8dbe a24b 7ebe
000000a0: 4fbf 553f 3d9b 0cbe 8450 a8be b7e3 98bd
000000b0: 5fc0 75be 760f 8f3e 964b debe 485c a93e
000000c0: 242e 093d c19c 16bf 1858 aebc c716 fc3b
000000d0: a935 8f3e be7a d03e 5430 b2be 283e cc3d
000000e0: 1ae1 1e3d 37a0 cabd 8745 4cbd eb9a a1be
000000f0: a5f0 14be 2140 8e3e 454f 60be ae65 f8be
00000100: 1fb5 dd3e b3c5 283e bee8 17bc e25b 87be
00000110: 5ecc 283e d81c 073e 7fde 243d f139 32be
00000120: 01da 063d ecf2 6d3e abd1 2abe 837f 9b3d
00000130: ad2a 283e 69b3 ee3d dea9 953d 802d 53bb
00000140: d4ed dfbc 5e25 a53c 6582 003d 624c 2c3e
00000150: abbf b0be 6559 b83c fe0f 123d 7e1b 2e3e
00000160: a7de d53d ec2c d9be 083a 6fbd 3ac9 e33d
00000170: ea74 cab9 b49b 16be 49c1 ab3d 7dba 36bf
00000180: 3c35 cdbd 2a73 b03d ef75 22be c8f8 423e
00000190: 0d60 fabc 320a 713d 9767 b83d 4678 7a3d
000001a0: 07c4 7fbc 6b92 b3bc 210f a53d a285 a7bc
000001b0: 6531 dc3b 63b3 29be 7a9b a03c 1e07 4d3e
000001c0: 0221 0e3e 57da e6bd 2ace ecbe 075c 4dbe
000001d0: ea00 8c3e 5ea4 40be 58ef 863d fded 703d
000001e0: 5494 27bf bdd0 a03e e4aa dcbe b0d6 81be
000001f0: 9c6f 563e c8d2 5c3e 3d0b a93c f054 d0bd
00000200: 8611 b0be 25ed 5fbe d4a2 ee3d 52b4 4bbd
00000210: 3d4d 203b 7cbe 0fbe 306c 913d afcc f43d
00000220: 7dbf 0fbb 54a3 b63d 1acc 273d db29 1a3d
00000230: 125e 0c3e 5bd7 f53d 9b70 673d e9a5 2e3d
00000240: 29a5 043d 7215 423e d3f2 2e3d 155a f43c
00000250: ee8f 613d e1ae 3e3b 8b04 46bc 8d4e 293e
00000260: c213 d73d 23c9 043e fe65 853d be49 8bbd
00000270: 63d9 d23d 757a 373d 84ab d13e 9c38 89b9
00000280: b3b5 b83d aa50 a63d 1134 9dbe 3080 65bd
00000290: e3a9 ebbe 833b c0be 1455 9c3d 6a47 71be
000002a0: 98d7 e93d aea5 18be d75a 67bf d7ae 27bf
000002b0: 02f8 79bd 824c 573f bd94 213e ba31 333d
000002c0: 3a59 013e ff1c 543d 6304 a03d fd1b 9abd
000002d0: b995 e5bd 4dae 043e 406e a4bb 8ce2 6b3d
000002e0: b2dc 8abd d92e 683d 6597 fd3d 30b5 ad3d
000002f0: af67 99bd 5ce4 83bd a6ee cbba 9500 143b
00000300: a3b0 133e 0c6c 883c 413d 62be 1529 ccbd
00000310: 5acb ebbd c85f 0cbd ca96 7b3c f1b1 f8bd
00000320: 5b8b 463d 3a96 e93d b72d 253d 1194 153d
00000330: dede c6bd 0221 08bc ee9b 8f3d 918e a5bc
00000340: 12e9 043e 61b8 c0be 1ee6 893c f6f4 543d
00000350: 2cb6 92bd f167 aa3d 6c69 cbbd dd08 fd3c
00000360: 42fe fa39 4cb6 143e 7f5d 253d 1e3e f8bd
00000370: ed66 85bd 585f 3f3a 79b3 acbd cff9 e6bd
00000380: 9cbc d5bd a0dc 893d 3178 323d 8958 713d
00000390: 50c4 b33d 89dc 4dbe ef16 25bb 0a8c 413d
000003a0: 703e dcbd 72c0 ac3d c638 c8be f161 73be
000003b0: dbab 42bd abf4 b3bd 74e4 2bbf 6770 da3e
000003c0: 8eb2 eebe 6101 05bd e9f8 71bd 9f42 383e
000003d0: cb88 e9bc a6b2 12be 5ce8 93bd 725d d3bd
000003e0: 67e2 633c 5387 93bd cbc8 c13e 130d 983d
000003f0: 3429 06bd 89e6 7abe ce9c 47be 4599 c43d

fc1.bias f4 [120]
0.06196746 0.07760205 0.13976142 0.038701028 -0.050115712 0.004386454 2.382559e-05 -0.05956071
0.0773218 -0.02106551 0.0034330639 0.003070965 0.12108798 -0.005011703 -0.011066919 -0.012661152
0.057309326 0.09834194 0.0025539477 -0.086432986 0.048777442 -0.052036382 0.07080058 0.079428114
-0.10813094 -0.016575998 -0.0022109083 -0.033140227 -0.05235832 0.042455804 0.057635922 -0.03712231
-0.02672031 0.052416373 0.057836533 0.021846637 0.12572864 0.007266255 0.030169768 0.07257004
0.0916004 0.05920785 0.02285343 0.0633913 -0.012192192 0.011653798 0.08439019 -0.03680629
0.000772436 -0.08405093 0.07129424 0.1385314 0.038153183 0.03927888 0.029501436 -0.012828134
0.036011234 0.044436585 0.085698426 -0.037113875 -0.039471284 -0.008388591 0.07164875 0.15545061
0.08555305 -0.06428335 -0.015913365 0.031696532 0.11490176 -0.019128202 0.006863535 0.08018831
-0.06347741 0.009452485 0.1093894 0.13880767 0.065525375 -0.14807771 -0.12575044 0.10092546
0.03724068 -0.03246852 -0.048960757 -0.06662524 -0.020262215 -0.0798008 -0.043859307 -0.03437482
0.030289497 0.020966979 0.04656594 0.05598086 -0.0022630997 -0.012329353 -0.0124661885 -0.010374752
0.06968157 0.10156121 -0.1376565 0.112909324 0.0072979056 -0.12062771 0.057953134 0.021494431
0.07116777 0.05066956 0.08928648 0.010951356 0.021907613 -0.062329743 0.09257267 0.06523034
0.121115044 0.02850645 0.05417414 0.06623215 0.0324163 0.10409142 0.07159976 0.004060819
00000000: 97d1 7d3d d3ed 9e3d 9e1d 0f3e f884 1e3d
00000010: 2246 4dbd 3ebc 8f3b 11dd c737 eef5 73bd
00000020: e45a 9e3d 9491 acbc 41fd 603b 3e42 493b
00000030: fafc f73d 3639 a4bb 0652 35bc b870 4fbc
00000040: 2fbd 6a3d 8067 c93d 2260 273b c703 b1bd
00000050: dbca 473d 1a24 55bd e5ff 903d 35ab a23d
00000060: c173 ddbd 63ca 87bc e3e4 10bb 0cbe 07bd
00000070: ae75 56bd 23e6 2d3d a513 6c3d 900d 18bd
00000080: 8de4 dabc 8db2 563d 00e6 6c3d b8f7 b23c
00000090: 02bf 003e c419 ee3b 9726 f73c 9a9f 943d
000000a0: fe98 bb3d ee83 723d 1e37 bb3c 4cd3 813d
000000b0: c2c1 47bc 92ef 3e3c c4d4 ac3d 31c2 16bd
000000c0: 4d7d 4a3a e522 acbd b702 923d 2ddb 0d3e
000000d0: 8346 1c3d e4e2 203d ffac f13c 182d 52bc
000000e0: 8480 133d 2303 363d a882 af3d b804 18bd
000000f0: a4ac 21bd 4d70 09bc 94bc 923d 722e 1f3e
00000100: 7036 af3d fda6 83bd bf5c 82bc 39d4 013d
00000110: 9d51 eb3d bfb2 9cbc 81e7 e03b c539 a43d
00000120: 7200 82bd 98de 1a3c 8d07 e03d 9923 0e3e
00000130: 2b32 863d afa1 17be b9c4 00be 02b2 ce3d
00000140: af89 183d b6fd 04bd 138b 48bd d072 88bd
00000150: f2fc a5bc 9a6e a3bd d1a5 33bd 9ccc 0cbd
00000160: ae21 f83c f1c2 ab3c edbb 3e3d 304c 653d
00000170: 8350 14bb 0e01 4abc fc3e 4cbc ddfa 29bc
00000180: 36b5 8e3d 53ff cf3d d3f5 0cbe 013d e73d
00000190: 4523 ef3b a90b f7bd 4460 6d3d 1715 b03c
000001a0: 68c0 913d e28a 4f3d d4db b63d 516d 333c
000001b0: 9877 b33c 794d 7fbd bd96 bd3d 7c97 853d
000001c0: 2a0b f83d 5c86 e93c b4e5 5d3d b9a4 873d
000001d0: f4c6 043d e22d d53d e5a2 923d 9e10 853b

fc2.weight f4 [84, 120]
-0.6743405 0.19700094 -0.38163403 -0.41755292 -0.16722311 0.18357481 0.10804734 0.378421
0.46505708 -0.35270846 0.47881958 -1.0611134 0.22616148 -0.54802316 -0.007414155 0.15359557
0.34619236 -0.5772038 0.89637387 -0.19611588 -0.11781438 0.41693825 -0.35617214 0.31823567
-0.04350203 -0.7136898 -0.52428585 0.10390404 -0.37009045 -0.27119386 0.4446583 0.162937
-0.06769021 0.63566434 -0.42724746 -0.5106832 -0.16519374 0.61620545 0.119428046 0.42786792
-0.05187315 0.6030618 -0.13073401 0.5212288 0.5212176 -0.056294214 0.33180094 -0.78647023
0.115829945 -0.6819637 -0.33851653 -0.2891534 0.64645326 -0.26821586 -0.27974108 -0.41633588
-0.24758738 0.13088374 0.24107069 0.29668975 0.29008865 0.17929533 0.3338126 0.33392993
-0.15093865 0.023676058 -0.51387835 0.45064422 0.44205958 0.50431174 -0.24423607 0.2431367
-0.5287427 -0.5928451 0.052606605 -0.09106541 -0.3132921 0.24033974 0.402979 0.04782577
0.553172 0.19794674 -0.3850898 0.024501994 -0.05368452 -0.49464715 0.055146668 0.38920566
0.31706268 -0.10490996 -0.84542876 -0.06861533 0.5811306 -0.3365582 0.49253082 0.69657314
0.6110747 -0.31152034 0.25457188 0.024562186 0.7297828 0.17867753 -0.019523693 -0.19314352
-0.14934906 0.05343137 0.5166445 -0.13870326 -0.42020085 -0.055780474 0.030932069 0.40534782
-0.4002363 -0.5167705 -0.581392 0.0929452 0.0063206125 -0.26992375 -0.17213883 -0.24678873
-0.47102246 -0.15849288 0.19933787 -0.29072487 -0.08182805 -0.043734025 0.04344448 0.060216848
0.034085464 -0.5685832 0.029080784 -0.005071643 -0.050011236 -0.1480488 0.43631 0.30443832
0.38527218 0.05853972 -0.19222564 -0.2739515 -0.6318523 -0.066303864 0.13476762 -0.058570445
0.084237285 -0.009932658 0.042569943 -0.44551486 0.28393024 0.16403039 -0.071027115 -0.05432819
0.13398892 0.10938733 0.07990359 -0.14165497 0.33465627 0.18704556 -0.25610036 0.20358635
0.015208045 0.033572417 0.15878463 0.039085083 0.09205821 0.5982288 -0.23193713 0.4889266
-0.079649635 0.19969109 0.2698793 0.11747008 -0.17643753 -0.22240172 -0.5660496 -0.047240205
0.24623196 -0.28539386 -0.20488456 -0.36608115 -0.38106543 -0.18442962 0.58376104 0.00587345
0.7233662 -0.4878558 -0.037466425 -0.24681206 0.048545394 0.19253622 0.2607434 -0.14483032
0.5530999 -0.023431428 0.61838657 0.21453844 -0.2386734 0.5742757 -0.53564525 0.2890349
0.35281938 0.04526792 -0.021128101 0.019593606 0.10995593 0.17064871 0.39007786 -0.23538424
-0.00028417748 0.06834003 -0.06513041 0.30308557 -0.037924528 0.057613652 -0.40607464 -0.15775517
-0.08997974 -0.106658965 -0.21776834 0.75310814 0.22465649 -0.34732375 0.042411488 0.13895506
-0.19591786 0.15963681 0.037053347 -0.42060682 0.093051635 0.21036334 0.8071013 -0.13024235
0.3357006 0.26821506 -0.3464198 -0.2756054 0.22075659 -0.24164589 0.24828096 -0.22175835
0.24364185 0.677567 -0.09350525 0.12980106 -0.27848408 0.40875933 -0.26479444 -0.45779362
0.4171232 -0.15197855 -0.26626396 0.13543239 0.49291617 0.026566338 -0.28424832 -0.16695659
00000000: 94a1 2cbf 9dba 493e 8965 c3be 7fc9 d5be
00000010: 893c 2bbe 09fb 3b3e ec47 dd3d 66c0 c13e
00000020: f61b ee3e 3496 b4be d727 f53e 90d2 87bf
00000030: e096 673e 3f4b 0cbf 71f2 f2bb 2848 1d3e
00000040: 2040 b13e a1c3 13bf c278 653f 9ad2 48be
00000050: aa48 f1bd ee78 d53e 325c b6be c9ef a23e
00000060: 2f2f 32bd 60b4 36bf 9937 06bf a4cb d43d
00000070: 7f7c bdbe ecd9 8abe 41aa e33e f5d8 263e
00000080: 2aa1 8abd e6ba 223f 2ec0 dabe 22bc 02bf
00000090: 8c28 29be a4bf 1d3f b196 f43d 8111 db3e
000000a0: f178 54bd 4262 1a3f 23df 05be 406f 053f
000000b0: 846e 053f c394 66bd d0e1 a93e 1d56 49bf
000000c0: 4038 ed3d 2c95 2ebf 0a52 adbe ea0b 94be
000000d0: f67d 253f 9753 89be 393a 8fbe fa29 d5be
000000e0: 8c87 7dbe 6306 063e 3cdb 763e b8e7 973e
000000f0: 8086 943e 3299 373e 7ce9 aa3e ddf8 aa3e
00000100: a98f 1abe 4bf4 c13c 888d 03bf d7ba e63e
00000110: a255 e23e 931a 013f 0519 7abe d4f8 783e
00000120: ae5b 07bf b2c4 17bf 067a 573d 8080 babd
00000130: d267 a0be 9f1b 763e 4353 ce3e f4e4 433d
00000140: ae9c 0d3f 8db2 4a3e 7e2a c5be 68b8 c83c
00000150: 4de4 5bbd 6442 fdbe 79e1 613d f745 c73e
00000160: 0a56 a23e 08db d6bd 056e 58bf 3286 8cbd
00000170: fac4 143f 5b51 acbe 002d fc3e 9e52 323f
00000180: 646f 1c3f 987f 9fbe 3f57 823e a336 c93c
00000190: 0cd3 3a3f 3ef7 363e 27f0 9fbc 6ac7 45be
000001a0: f6ee 18be dada 5a3d d042 043f 3a08 0ebe
000001b0: 9124 d7be 117a 64bd 4065 fd3c c089 cf3e
000001c0: c6eb ccbe 124b 04bf 1bd6 14bf 0e5a be3d
000001d0: 241d cf3b 7233 8abe 2945 30be 2fb6 7cbe
000001e0: db29 f1be f54b 22be 3a1f 4c3e e4d9 94be
000001f0: 7795 a7bd 7322 33bd d7f2 313d f1a5 763d
00000200: 339d 0b3d ab8e 11bf d33a ee3c 0630 a6bb
00000210: 95d8 4cbd 1b9a 17be 0664 df3e 57df 9b3e
00000220: 6542 c53e 58c7 6f3d ccd6 44be 5f43 8cbe
00000230: 13c1 21bf 52ca 87bd 8600 0a3e 90e7 6fbd
00000240: 9984 ac3d 96bc 22bc d25d 2e3d 861a e4be
00000250: 4e5f 913e 95f7 273e aa76 91bd 3c87 5ebd
00000260: 6434 093e 7706 e03d 7ea4 a33d 000e 11be
00000270: 1158 ab3e df88 3f3e 961f 83be f178 503e
00000280: 2a2b 793c 3b83 093d 7098 223e ae17 203d
00000290: 0489 bc3d 8625 193f ed80 6dbe 9654 fa3e
000002a0: 591f a3bd d27b 4c3e 9f2d 8a3e 2794 f03d
000002b0: 0aac 34be 47bd 63be a0e8 10bf f27e 41bd
000002c0: 3b24 7c3e 251f 92be 42cd 51be fd6e bbbe
000002d0: 021b c3be 1edb 3cbe 5d71 153f 1276 c03b
000002e0: 872e 393f 3cc8 f9be 6576 19bd 4dbc 7cbe
000002f0: 89d7 463d 3728 453e 2980 853e 664e 14be
00000300: f497 0d3f 44f3 bfbc 954e 1e3f f7af 5b3e
00000310: cd66 74be bb03 133f 0c20 09bf 62fc 933e
00000320: bea4 b43e db6a 393d d714 adbc c582 a03c
00000330: 9330 e13d 89be 2e3e 49b8 c73e 9108 71be
00000340: a8fd 94b9 dcf5 8b3d 1863 85bd 082e 9b3e
00000350: c056 1bbd 4bfc 6b3d 04e9 cfbe 928a 21be
00000360: 4c47 b8bd 0470 dabd aafe 5ebe b2cb 403f
00000370: 5a0c 663e 6bd4 b1be abb7 2d3d 3c4a 0e3e
00000380: b19e 48be d577 233e 40c5 173d c759 d7be
00000390: db91 be3d 7d69 573e 319e 4e3f 405e 05be
000003a0: f3e0 ab3e 7c53 893e f05d b1be 271c 8dbe
000003b0: 040e 623e 0572 77be 5d3d 7e3e 9f14 63be
000003c0: 407d 793e 0875 2d3f ae7f bfbd 92ea 043e
000003d0: 7795 8ebe e748 d13e 2393 87be ed63 eabe
000003e0: 2c91 d53e 44a0 1bbe c053 88be caae 0a3e
000003f0: 825f fc3e a6a1 d93c ff88 91be abf6 2abe

fc2.bias f4 [84]
0.00011658635 0.03885381 0.038655896 0.13707922 -0.07715455 -0.13270041 -0.05547655 0.04799645
-0.028678766 0.016006188 -0.026229301 -0.052625105 -0.0071698455 0.16928843 0.08796395 0.12209395
-0.077794 0.043655865 -0.008352793 0.11585118 0.068912424 -0.017221656 -0.07676829 -0.0062840874
0.04604277 0.064568765 -0.041206203 -0.07389247 0.0129688475 0.033222 -0.13173583 -0.051418472
-0.07869475 -0.0005506833 -0.03992088 0.024455903 0.10575917 0.10794531 -0.11568685 0.00648435
-0.04289618 0.04793082 0.03766441 0.054385584 0.08780412 0.16812722 -0.079942666 0.090563096
-0.022025676 -0.004861335 -0.030407438 0.05386247 -0.005153608 0.006286358 -0.020398447 -0.043510094
0.013334784 -0.099990636 0.02507951 -0.07458808 0.052105784 -0.05673707 0.108285286 -0.12134042
0.055768367 0.036432087 -0.109419756 -0.032972444 0.01853952 0.06782211 0.02908157 -0.10462601
0.07967393 0.032817714 0.039266482 -0.07220142 0.0414984 0.011128747 0.10492368 -0.037547015
-0.034184836 -0.016932037 -0.03921513 0.004307795
00000000: d27f f438 2c25 1f3d a555 1e3d 7f5e 0c3e
00000010: 3403 9ebd 9ee2 07be 613b 63bd ed97 443d
00000020: bbef eabc 691f 833c d5de d6bc 6c8d 57bd
00000030: 06f1 eabb f259 2d3e 7226 b43d 650c fa3d
00000040: 7652 9fbd 7ed0 323d 27da 08bc 6243 ed3d
00000050: f521 8d3d 6e14 8dbc b138 9dbd bfea cdbb
00000060: 5897 3c3d a13c 843d d6c7 28bd ef54 97bd
00000070: 4a7b 543c cb13 083d c2e5 06be 2d9c 52bd
00000080: b72a a1bd bb5b 10ba 1484 23bd bf57 c83c
00000090: 4498 d83d 6e12 dd3d 3aed ecbd ac7a d43b
000000a0: e8b3 2fbd 1c53 443d ff45 1a3d 6bc3 5e3d
000000b0: a5d2 b33d 8b29 2c3e fbb8 a3bd 2579 b93d
000000c0: 316f b4bc d54b 9fbb 0519 f9bc e59e 5c3d
000000d0: 99df a8bb cbfd cd3b a51a a7bc a437 32bd
000000e0: 237a 5a3c e4c7 ccbd 8b73 cd3c a3c1 98bd
000000f0: e06c 553d 2165 68bd adc4 dd3d 5381 f8bd
00000100: 5f6d 643d d039 153d 7717 e0bd 1d0e 07bd
00000110: 31e0 973c 52e6 8a3d 793c ee3c 2946 d6bd
00000120: 162c a33d de6b 063d e4d5 203d 57de 93bd
00000130: 3afa 293d 5955 363c 3ae2 d63d e6ca 19bd
00000140: 6605 0cbd 0eb5 8abc 0ba0 20bd 6728 8d3b

fc3.weight f4 [10, 84]
0.12947774 0.32067406 0.31097057 -0.7783634 0.020249344 -0.15577695 0.6124245 -0.50148463
0.14580487 -0.15864038 -0.036786355 0.1709037 -0.31977436 0.17595293 -0.55458903 0.39478806
0.493455 -0.3397646 0.3956534 -0.4827083 0.06439892 -0.5095218 0.28544357 0.051695187
0.39794648 -0.19952725 -0.3041354 0.12052841 0.30476868 -0.54410255 0.2969796 0.25721392
0.061501656 -0.34736708 0.0011349403 0.24116606 -1.1330894 -0.2621627 0.1932272 -0.30690557
-0.15416938 0.20250963 0.3662358 -0.28652352 -1.1281191 -0.26067403 0.3291519 0.2723365
0.16794926 -0.598526 -0.6262321 -0.44412932 0.5057359 0.075099565 -0.18082578 -0.42681378
-0.62258375 -0.21876147 0.41592178 0.4759456 0.15502578 0.2943051 0.83791614 -0.2138138
0.445722 -0.1204741 0.2521938 -0.7945672 -0.87402517 -0.5949166 0.13694811 -0.17468534
-0.25078836 -0.19628961 0.018552909 0.11185806 -0.12948012 0.44859946 0.15582836 -0.51787263
0.24506962 0.07452745 -0.85109514 -0.81451565 -0.7894518 -0.41412959 -0.5543847 -0.26885146
0.47800377 -0.60022527 0.27697596 0.080353394 -0.009796877 -0.35709712 0.1597971 0.0111856405
0.010868009 0.16123243 0.18148316 -0.6536168 0.08585979 -0.3600262 -0.64832664 0.17277206
-0.6410493 -0.02229622 0.41758227 0.19649673 0.0757664 0.062375627 -0.2532761 -0.68631846
-0.019126201 -2.1415517 -0.5576332 0.33948395 -0.011504448 0.7546938 -0.78498137 0.046953008
0.67555207 0.37568763 -0.712516 -0.2865749 0.53662574 0.19593646 -0.62239563 0.7017837
0.2542532 1.2245673 -0.02338473 0.07401229 0.3473226 1.0938988 0.25493744 0.97502667
0.09477912 0.17302753 0.34653893 -0.8984094 -0.48634368 0.2679479 0.44519907 -0.2887906
-0.7531182 -0.49806854 -1.7148513 -0.6813188 0.22844791 0.24073201 -1.0609757 -0.03269771
0.24244505 -0.05015112 -0.5690981 -0.266747 0.74025553 -0.154959 0.27053303 0.06031809
0.15817301 -0.6815825 0.136562 -0.12391366 -0.06497421 0.22197865 -1.1447848 0.396253
0.23223168 -0.36370465 0.11953279 0.25238946 0.6447518 0.43041977 0.7818175 -0.4087919
0.08618337 -0.5430997 0.1372244 -0.15657298 0.09644995 0.616802 0.7375856 0.17214693
0.50978297 -0.18843241 0.2241508 -0.18457006 0.17793873 -0.25151163 -0.94588774 0.78544974
-1.2159456 0.15988272 0.18772084 -0.47827584 -0.65642977 -0.28063074 -1.1745533 0.27225736
0.11456418 -0.32311255 0.20438915 -1.0099283 -0.07675028 0.033983648 0.23468485 -0.36687735
-0.110670745 0.20634586 -0.04752806 -0.2952603 -0.36358926 -0.52873176 -0.7030854 0.20038636
-0.7634597 -0.34719768 -0.8642887 -0.20230602 -0.82923555 0.13370894 0.55358905 -0.23702925
0.24675909 -0.6480697 -0.81613034 -0.75431234 0.0428609 0.16069265 -0.62572646 0.15889701
0.95299584 0.19383192 0.110722475 0.19732185 -0.079315 -0.4133457 -0.6557745 -0.6097173
-0.030131426 -0.40420958 0.031493183 -0.050906375 0.12955324 -0.44598672 0.5765946 0.2459138
-0.685547 0.29742825 -0.41886064 0.3738838 0.17566799 -0.11731053 -0.68613744 0.15312818
00000000: d095 043e 642f a43e 8937 9f3e d342 47bf
00000010: f4e1 a53c fe83 1fbe dac7 1c3f 4c61 00bf
00000020: df4d 153e a072 22be 4aad 16bd 6101 2f3e
00000030: 77b9 a3be 012d 343e 8cf9 0dbf a921 ca3e
00000040: 22a6 fc3e a0f5 adbe 1593 ca3e 8b25 f7be
00000050: 95e3 833d 0570 02bf a925 923e 55be 533d
00000060: a4bf cb3e df50 4cbe a3b7 9bbe 99d7 f63d
00000070: a40a 9c3e 4e4a 0bbf b60d 983e 8bb1 833e
00000080: 29e9 7b3d 19da b1be 47c2 943a 3cf4 763e
00000090: 1309 91bf 303a 86be 5add 453e ba22 9dbe
000000a0: 94de 1dbe af5e 4f3e 4283 bb3e 36b3 92be
000000b0: 3566 90bf 1177 85be 9986 a83e b16f 8b3e
000000c0: e4fa 2b3e 0039 19bf bf50 20bf eb64 e3be
000000d0: e877 013f cdcd 993d 652a 39be 5687 dabe
000000e0: a661 1fbf 0203 60be b3f3 d43e 24af f33e
000000f0: 14bf 1e3e 28af 963e ac81 563f 01f2 5abe
00000100: ad35 e43e 20bb f6bd 8c1f 813e c268 4bbf
00000110: 1dc0 5fbf 744c 18bf 203c 0c3e b7e0 32be
00000120: 5567 80be 2500 49be 45fc 973c d715 e53d
00000130: 7096 04be d4ae e53e 7891 1f3e 4d93 04bf
00000140: 88f3 7a3e d9a1 983d 5fe1 59bf 1984 50bf
00000150: 8319 4abf cb08 d4be 28ec 0dbf e6a6 89be
00000160: e9bc f43e 5da8 19bf cbcf 8d3e 5290 a43d
00000170: 1583 20bc 6fd5 b6be daa1 233e fa43 373c
00000180: bc0f 323c 1d1a 253e b9d6 393e 6e53 27bf
00000190: 42d7 af3d 5b55 b8be bcf8 25bf 29eb 303e
000001a0: cf1b 24bf 90a6 b6bc 58cd d53e 7036 493e
000001b0: 6a2b 9b3d 967d 7f3d 68ad 81be 91b2 2fbf
000001c0: 8dae 9cbc 2f0f 09c0 0dc1 0ebf d7d0 ad3e
000001d0: 277d 3cbc 9d33 413f 8af4 48bf cc51 403d
000001e0: fbf0 2c3f 215a c03e 7367 36bf f2b9 92be
000001f0: 4e60 093f 91a3 483e 5255 1fbf 19a8 333f
00000200: 7a2d 823e 9fbe 9c3f 5591 bfbc c193 973d
00000210: 45d4 b13e e004 8c3f 2987 823e 599b 793f
00000220: 8e1b c23d 212e 313e 8d6d b13e 29fe 65bf
00000230: 0a02 f9be 7830 893e 22f1 e33e 5ddc 93be
00000240: 5bcc 40bf d702 ffbe 3f80 dbbf e96a 2ebf
00000250: 40ee 693e 7482 763e 0dce 87bf 09ee 05bd
00000260: 8443 783e 436b 4dbd 6ab0 11bf 1093 88be
00000270: 6381 3d3f 92ad 1ebe 4e83 8a3e 1a10 773d
00000280: 1bf8 213e 317c 2ebf e9d6 0b3e 72c6 fdbd
00000290: 3311 85bd 5f4e 633e 4f88 92bf ace1 ca3e
000002a0: 24ce 6d3e 7f37 babe 9bcd f43d 3139 813e
000002b0: 740e 253f fb5f dc3e 3125 483f 2c4d d1be
000002c0: e880 b03d 9508 0bbf 8e84 0c3e ab54 20be
000002d0: 8d87 c53d bce6 1d3f 69d2 3c3f 4947 303e
000002e0: 2381 023f 6df4 40be ca87 653e efff 3cbe
000002f0: 9235 363e 22c6 80be b325 72bf 3c13 493f
00000300: 1ba4 9bbf 4cb8 233e e439 403e 92e0 f4be
00000310: c80b 28bf d5ae 8fbe c357 96bf 5165 8b3e
00000320: a0a0 ea3d 026f a5be 644b 513e 5545 81bf
00000330: 402f 9dbd 7032 0b3d 3a51 703e 59d7 bbbe
00000340: 58a7 e2bd 544c 533e c8ac 42bd 5c2c 97be
00000350: 5f28 babe f75a 07bf 68fd 33bf 1532 4d3e
00000360: 1872 43bf e5c3 b1be 0642 5dbf 4f29 4fbe
00000370: c848 54bf ffea 083e 03b8 0d3f ccb7 72be
00000380: 6aae 7c3e e5e7 25bf ebed 50bf 9d1a 41bf
00000390: e98e 2f3d 9d8c 243e 9c2f 20bf e6b5 223e
000003a0: 89f7 733f e07b 463e 77c2 e23d bd0e 4a3e
000003b0: e76f a2bd 0ca2 d3be d6e0 27bf 6f16 1cbf
000003c0: 2ed6 f6bc 8ff4 cebe fffe 003d 3483 50bd
000003d0: 9ba9 043e 5f58 e4be b49b 133f d4d0 7b3e
000003e0: 0280 2fbf 8448 983e e774 d6be b36d bf3e
000003f0: 4fe2 333e 8140 f0bd b4a6 2fbf a2cd 1c3e

fc3.bias f4 [10]
0.08396048 -0.099452846 0.07122619 0.040152747 -0.074136086 -0.017899515 0.056696005 0.04574094
-0.033179518 0.08009409
00000000: 79f3 ab3d efad cbbd 09df 913d 3577 243d
00000010: a9d4 97bd 01a2 92bc 123a 683d da5a 3b3d
00000020: 3fe7 07bd 5f08 a43d
