best_model_epochs50_batches32.pth (torch, 250377 bytes, 10 tensors)

conv1.weight f4 [6, 1, 5, 5]
00000000: 9ddc 0a3d 063e 81bf 0aa8 09bf 8e50 583f
00000010: ed67 1c3f a479 bebd 6a34 92bf 986e 45bf
00000020: 66a1 4e3f beda 133f a94a a9be 7ffe 9abf
00000030: 2ab9 42bf 5d76 3e3f 0191 0f3f 50c1 53be
00000040: d9e0 7dbf 5048 2ebf 7b23 2f3f 2b8d 573f
00000050: 8511 1ebd a29d 66bf 2e6a 23bf 611c 523f
00000060: 1d2c 783f bd8a b53f 2596 f93f 51db 9e3f
00000070: 6672 e63f dd7f cf3f 405f 19bf c479 c8bf
00000080: 84c9 18c0 9e43 f93e aefc 8c3f c6df 49bf
00000090: b38c 8ec0 2bc2 a7c0 c6a1 d23c 4e00 8a3f
000000a0: acac 7f3f d398 02bf 97c9 c9bf 6285 f7be
000000b0: a5f0 bf3e f028 7b3f bef3 433f 3762 163e
000000c0: 657a 053d 961e 633e e386 653f ff31 313f
000000d0: 2ef7 babe ebd6 9abf 71fb 01bf 58f2 6e3f
000000e0: 74d3 823f f0ad dd3d 0f7f 9abf 47d9 5dbf
000000f0: 9f0d a53f ccdd 833f e153 15be 8dd3 ddbf
00000100: 5d59 a4bf 4875 a53f 9571 a53f 127f 8c3e
00000110: 276d adbf 7cb4 9bbf e196 863f fab9 993f
00000120: 194e abbd f434 bcbf d51f a2bf 5c05 2f3e
00000130: 25c9 5dbf ec38 b0bf f426 403f ae3a 383f
00000140: ffe0 573e 40b6 21c0 823d 2fc1 6fa4 9fc0
00000150: c2ff ad3f 45b9 5d3f bc85 c4bf 736e dbc0
00000160: b98d 5cc0 6299 a13f 77c8 2e3f b051 4e3e
00000170: 6557 1abf ceb1 64bf 3628 633d 1ad0 c43f
00000180: 4a23 e23e 17ee 2d3e 711e abbe 68ea 1c3f
00000190: acc0 8bbf 2643 9bbf c5de c6be 611c 12bf
000001a0: 2010 1cbf ca02 8b3f 486a 7540 5a08 9d40
000001b0: 57a8 1040 a090 a53c 2020 2540 ae33 0441
000001c0: 3456 0141 7f7c cd40 2fd7 623f 8179 3e3f
000001d0: b50b 8f40 9e91 ee40 beac ab40 e87a 3a3e
000001e0: 1bdb 98bf 8bea 93bf b84c f93e f6a7 463f
000001f0: 10b5 35be 8cda 103f b195 1e3f bab7 fe3f
00000200: e2ae f93f ad6b 8e3f 7133 a0be a77f ddbf
00000210: dc75 0bc0 15af b5bf a195 40be cf51 8bbd
00000220: 190e 50c0 9b33 2ac1 fdd8 0bc1 4bc2 80be
00000230: 606a ac3d e994 1fbf 5a7f 32c0 cab9 95c0
00000240: c56e 25bf 64d8 8d3f 7125 8e3f dc23 e23f
00000250: 0877 f43e 8d50 ae3e
0.0339018 -1.0097053 -0.5377203 0.84497917 0.6109608 -0.09300545 -1.1422246 -0.7712188
0.80715024 0.5775565 -0.33064774 -1.2108916 -0.7606379 0.7439936 0.56080633 -0.20679212
-0.99171215 -0.6807909 0.68413514 0.8419978 -0.038590927 -0.9008428 -0.6383389 0.8207455
0.9694231 1.4182965 1.9498945 1.241068 1.8003662 1.6210896 -0.59910965 -1.566216
-2.3872995 0.486844 1.1014612 -0.78857076 -4.454675 -5.242452 0.025711905 1.0781343
0.9987285 -0.5101444 -1.5764645 -0.4834395 0.37488285 0.9810934 0.76543796 0.14685903
0.032587428 0.22179636 0.89658946 0.69216913 -0.36516708 -1.2096838 -0.50774294 0.9333854
1.022078 0.108241916 -1.2070025 -0.86659664 1.2894782 1.0302062 -0.14582779 -1.7330185
-1.2839772 1.2926416 1.2925287 0.27440697 -1.3548936 -1.2164454 1.0514795 1.200988
-0.08364505 -1.470366 -1.2665964 0.17091888 -0.8663505 -1.3767371 0.7505944 0.7196454
0.21081923 -2.5267487 -10.952517 -4.9888225 1.3593676 0.86610824 -1.5353312 -6.8572326
-3.44615 1.2624934 0.68274635 0.20148349 -0.60289603 -0.8933381 0.05545827 1.5376008
0.44167548 0.16985355 -0.33421662 0.61295176 -1.0918174 -1.2129867 -0.38841835 -0.5707455
-0.60962105 1.0860226 3.834612 4.9072695 2.2602746 0.020210564 2.5800858 8.262617
8.083546 6.4214473 0.88609594 0.7440415 4.470179 7.4552755 5.3648367 0.18210948
-1.1941866 -1.1555952 0.48691344 0.7760004 -0.17744851 0.56583476 0.6194716 1.9899819
1.9506495 1.112661 -0.31289247 -1.7304581 -2.1790686 -1.4194056 -0.18807079 -0.06802713
-3.2508605 -10.637599 -8.740476 -0.25148234 0.08418727 -0.62336594 -2.789023 -4.6789293
-0.64622146 1.1081662 1.1105176 1.7667193 0.47747064 0.3404583

conv1.bias f4 [6]
00000000: 54e2 813e 9809 75bd 8528 d83e 21dd 0a3f
00000010: d762 90bf 1136 3a3f
0.25367987 -0.059823602 0.42218414 0.54243666 -1.1280164 0.7273875

conv2.weight f4 [16, 6, 5, 5]
00000000: c1f4 fbbd 0b10 d13e caa9 cf3e d0c3 193f
00000010: 4951 f8be c0cb 2cbb 2235 62be 407c 993e
00000020: d9c2 873f 2ef9 00bf c50a eb3c 8d0d d1be
00000030: 8093 c03d 36b4 c03f 6f34 41bf 347c 64be
00000040: a000 32bf 3078 293d 08dd e03f c1ba 7dbf
00000050: 5a95 0fbf e29c b9be 5d3c b53e c7f5 d33f
00000060: a5b0 5fbf 73cd 50bf 4ce4 bebe f93f be3e
00000070: e8c2 553e 7f53 7bbf eb6a 4bbf 3915 11bf
00000080: 9aff 4cbe 61d9 a9be 392e 00bf 0e96 b5be
00000090: 6212 8cbe 13d3 453f deac 893e b99d bcbf
000000a0: 501a 09bf 0cef d3be c550 d23e d712 063f
000000b0: 97e7 9fbf 294f adbe 164e cf3e b02a ac3f
000000c0: cf36 1c3f 75f0 aabf db91 033e 0d4d 27be
000000d0: f8a7 923c 27f3 ffbe 0a7a 053f 89b2 b6bd
000000e0: f06d d23d 2ddb 0b3d e5bb 5dbf 201f 1e3f
000000f0: 4bf7 19be ef46 a33e 0668 c63b c5dc a9bf
00000100: 08e7 e33e 682b b5bd faf7 203f 3b35 033e
00000110: 1188 febf 60ee e93e 6dd0 c83e 41d5 f63e
00000120: fbc4 1bbe ca89 15c0 0c22 c73d 81fa 70be
00000130: 8bc1 733f d068 d83f 96e9 2e3f 6fb8 0abf
00000140: f166 10bf 7beb 293e b782 313f f3ce 0d3d
00000150: b595 2ebe d2cf 11bf 888b 6f3e 4319 ce3f
00000160: b551 8cbe b8f1 3ebf 98ec 4dbf 9233 8c3d
00000170: e22b dc3f 0322 bbbd d145 8dbf c346 9ebe
00000180: db53 be3e 459e af3f 828d 97be b22d a1bf
00000190: 663c 443e 9749 17be 259b fdbe 5ca6 c5be
000001a0: d86b 35be ac44 7e3e 3dde 343c 8f74 e9be
000001b0: 4697 44bc 2e0b 6e3d 771c 993e 25bd bebd
000001c0: 03f6 dbbe 1f38 8e3d 88b4 c03e e173 5d3e
000001d0: 3ae9 97be 56c9 d3be d7fc 813d acc9 c03e
000001e0: f63a e3bd b839 b3be 9d9d 83be a48f c13d
000001f0: de4c af3e d71f 21be 9c4a 503f 90a5 ad3f
00000200: 6d9e 2d3f 85f9 5ebe 3cff d7be adb2 9a3e
00000210: 61bc 5d3f 76fe 0bbf e95f e0be 2f1a 20bf
00000220: 12cf e33e 4319 ca3f 15ca d1be 6678 98bf
00000230: 7d5c 93be fc06 9b3e e574 c93f 5417 4cbe
00000240: 847b 97bf e762 2c3f 3a97 9c3f 2160 bc3f
00000250: a1d4 08bf 354a c8bf 29e9 44be d79e b8be
00000260: dcce 22bf 3fd6 013d 2114 6ebd e520 7fbe
00000270: 48a7 a2be cb40 aabe 0a95 a9be 8108 1dbf
00000280: 0757 4e3e 838a 40bc 201f 57bd 612a 1fbf
00000290: 80a8 0dbf 570e 813e 2373 77be 6822 14be
000002a0: ee82 91bf 77b9 e8be 6a44 673e 8ebf 55be
000002b0: ae60 8cbd 8df4 7dbf c958 85be 4047 5fbe
000002c0: 413b 07bf dfc2 febe 7aad 773e 7f4a d2bd
000002d0: 9b11 f23c 35bc 70be 0acb 21be 41fb b5be
000002e0: 9455 28be 3a66 123f 87cf db3d 6e64 ba3e
000002f0: 3b51 b7bc 6e0f b7bd a2be f83e 957b 1dbf
00000300: 3da2 1abf d863 11bf 04a2 de3e 0273 123f
00000310: b136 fd3d 3f4f c43e 419b 973e c86f 623f
00000320: 8bcb 53be 9ec0 323e f5ba 9f3e 34a9 f03b
00000330: f51f d5bc a08c 1bbe 78b6 95bc 1744 d2bd
00000340: 5dde 64bd bcab c33e 7ef7 99bd dc91 50be
00000350: 7ee4 3ebe e321 1e3e 279f 073f a526 23be
00000360: a93c 0f3e cd46 83bd dfb3 b33e e6a6 283f
00000370: dc4a 063b 1161 ef3e 41a7 d9bd cd02 023f
00000380: 4c89 2b3f 2e23 a83d a934 a2bc 0751 d0bd
00000390: 11e5 f53e 3cee 8d3d ff31 a43d 7616 49be
000003a0: ad05 88bd 4c29 33be 720c 28be d1a0 e73e
000003b0: 2e20 94bb fed5 e13e 33b0 00bf 6bbb 95bd
000003c0: 4f3f 7c3e c0d3 94bf a100 c2bf 7d6a 3cbf
000003d0: 8774 b73d 9286 e03d 62ec 81bf c9f1 30bf
000003e0: f55b 24bf 387b 0d3f c495 afbe cdfb 1dbe
000003f0: b903 54bc f48c a7bc 13c8 61be 487f 9ebe
-0.123025425 0.40832552 0.40559226 0.6006441 -0.48499516 -0.0026366562 -0.22090581 0.29977608
1.0606338 -0.5038022 0.028691659 -0.4083065 0.094031334 1.5054996 -0.7547063 -0.22313005
-0.69532204 0.041374385 1.7567453 -0.9911309 -0.5608727 -0.36252505 0.35397616 1.655938
-0.87378913 -0.8156349 -0.37283552 0.37158182 0.20875132 -0.9817428 -0.7946002 -0.5667301
-0.2001938 -0.3317366 -0.5007053 -0.35466045 -0.27357775 0.772752 0.268897 -1.4735633
-0.53555775 -0.41393316 0.41077247 0.523725 -1.2492551 -0.33849457 0.40489262 1.3450527
0.6102113 -1.3354632 0.12848608 -0.16337986 0.01790236 -0.49990198 0.5213934 -0.08920772
0.10274875 0.03414457 -0.8661483 0.61766243 -0.15035741 0.31890056 0.006054881 -1.3270499
0.445122 -0.0884617 0.6287838 0.12813275 -1.9885274 0.45689678 0.39221516 0.48209575
-0.15211861 -2.336535 0.09723291 -0.2353306 0.952172 1.6906986 0.68325174 -0.54187673
-0.56407076 0.16593735 0.6934008 0.03462119 -0.17049296 -0.56957734 0.2339307 1.6101459
-0.27406088 -0.74587584 -0.8043914 0.06845774 1.7200892 -0.091373466 -1.1036931 -0.30913362
0.37173352 1.3720175 -0.2960015 -1.259207 0.19163665 -0.14774166 -0.49532428 -0.38603485
-0.1771692 0.24830884 0.011039314 -0.4559674 -0.011998957 0.05811613 0.2990453 -0.0931342
-0.4296113 0.06944298 0.37637734 0.21626236 -0.29670125 -0.41364545 0.063470535 0.37653863
-0.1109523 -0.35004973 -0.25706187 0.094512254 0.34238333 -0.15734802 0.81363845 1.3566151
0.67819864 -0.21774872 -0.42186916 0.30214444 0.8661557 -0.5468515 -0.43823174 -0.62539953
0.4449392 1.5788959 -0.4097449 -1.1911743 -0.287815 0.30278766 1.5738798 -0.19930774
-1.1834569 0.67338413 1.2233651 1.4716836 -0.53449446 -1.5647646 -0.19229569 -0.36058685
-0.6359689 0.03169846 -0.058124665 -0.24914892 -0.3176825 -0.33252558 -0.3312152 -0.613411
0.20150386 -0.011751774 -0.052519917 -0.6217404 -0.55335236 0.25206253 -0.24165015 -0.1446625
-1.1368082 -0.45453998 0.22584692 -0.20873854 -0.06854378 -0.9920128 -0.260443 -0.21804523
-0.5282479 -0.4975805 0.2418727 -0.10268115 0.02954941 -0.23509295 -0.1580011 -0.35543254
-0.16438895 0.57187235 0.10732942 0.36404747 -0.0223776 -0.0893849 0.4858294 -0.61516696
-0.60403806 -0.56792974 0.43482983 0.5720674 0.12363947 0.3834171 0.29610637 0.88451815
-0.20683114 0.1745629 0.31197324 0.0073443893 -0.026016215 -0.15190363 -0.018275484 -0.10266893
-0.055876125 0.3821696 -0.075179085 -0.20368141 -0.1864185 0.15442614 0.5297722 -0.1593271
0.13987984 -0.064099886 0.35098168 0.65879667 0.0020491397 0.46753743 -0.10627604 0.50785524
0.67006373 0.08209835 -0.019800501 -0.10171705 0.48026326 0.06930205 0.080173485 -0.19637474
-0.066417076 -0.17496222 -0.16410998 0.4523988 -0.0045204377 0.44108576 -0.5026886 -0.07311138
0.24633525 -1.1627121 -1.5156442 -0.7359999 0.08957773 0.10963167 -1.0150263 -0.69118935
-0.64202815 0.5526614 -0.3429395 -0.15428086 -0.012940341 -0.020452954 -0.22048979 -0.30956483

conv2.bias f4 [16]
00000000: 2364 c13d 02ba 78be c57f 2abe af1a 843d
00000010: 679c 76bb 67b1 62be 90e1 103d 465a 6abd
00000020: 0ae5 8e3d 4a4d 2f3e 1f0f fb3d 5459 513d
00000030: 3c48 43be 8d01 c23c 9ffb cdbd a916 6fbe
0.09442928 -0.24289706 -0.16650303 0.06450402 -0.0037629844 -0.22137986 0.035371363 -0.057214998
0.069772795 0.17119327 0.122587435 0.05111058 -0.19070524 0.02368238 -0.100577585 -0.23348488

fc1.weight f4 [120, 400]
00000000: 9829 36bf 964f 9ebf 1c9b 9b3f df56 31bf
00000010: 219d 42bf 3ab4 97be a3e5 00bf 938f 96bd
00000020: eacf 213f 81bd 24be 762e 023e a955 72bf
00000030: 726a 07be 83d6 2d3c bfac a83e 9bcc 183e
00000040: 39ec 99bd f6da f8be e28b 56bd 6983 89be
00000050: 6543 d0bc 8cb5 4bbf a47a 4d3e 5c53 ef3e
00000060: 8271 11be f99c 323e d606 093e 0a9e ae3e
00000070: 1f6f 793e 8c4d 053f e854 f53d c35a 1dbd
00000080: 23fb 9dbb db22 d53d c1e2 ea3d ec91 78bc
00000090: eacb 17be cb4d 38bd 8a95 38be 76e2 c9bd
000000a0: 748a c43d 37b7 b0bd 41de 8b3d 9745 4fbe
000000b0: 7634 fbbc ddd7 aabd a831 72bd a8e3 16be
000000c0: 038a dfbd f9cd fc3d e888 9abe daf2 9d3f
000000d0: f6e4 173f a62e 053f 7ce2 2b3f 1178 343e
000000e0: 194c 473e ca39 2abc 8f31 67be 236b 37be
000000f0: f84b 17bf 1a01 91bd 3158 923e e92f 753c
00000100: bc78 abbe 662a b7bd 8287 283c 2239 2a3d
00000110: 88f6 57bd fca0 08bf 991f 233e 34dc 03be
00000120: e70f af3d 21ee 053d d7fe 943e faed 0d3d
00000130: 08ba fd3e f5ee 1d3d 35bc c03c ddfa 423d
00000140: 8158 09bf 3ab1 6b3e 44b8 b2bd 9927 4f3b
00000150: d6f0 45bd 479b 44be 0217 403d fb04 acbd
00000160: 7116 a73c 0965 43bb df6e b3be bee5 ec3d
00000170: ab60 a9bd 41cd 7bbd 64e1 27bc 27b1 1c3d
00000180: 7ddc a23d 965a 843d 5ca3 98bd 91ad bb3c
00000190: 37be 9ebf f01d 09c0 5cce 22bd 16c6 04c0
000001a0: 9621 93bf 9c41 59bf f3f0 0f3f 5e15 953d
000001b0: 9210 5a3f 6d40 90bd 6572 843e 5727 383f
000001c0: 86c7 463e 8c4a 133e 6e83 ccbe 777c 00be
000001d0: 538a ac3e a739 cc3c 84d2 6fbe 3d12 a73e
000001e0: b4a6 d8bb de5e 0abe be8a 213c 768d 973d
000001f0: b0d3 8e3e 1d02 dd3e b64e 293e e712 a3bf
00000200: 845b e93e c633 a43f 37a2 a93e ac47 a5be
00000210: 9b61 b5bd 0ef0 6c3e 6aaf 173e 33db 283d
00000220: e006 353c 6e2f b33d 6452 7d3d e21f 0abd
00000230: 6698 673e 77c8 0abe 32d9 86bd fb82 003f
00000240: b551 cb3d baa6 623e 9848 1a3e fda8 07bf
00000250: 90df d8bd 9aa1 063f 3b0d 8a3f 4824 013d
00000260: 20c1 5dbf daf5 fe3f df12 d03d f7b5 073e
00000270: 463f ffbe 5315 0c3f 5dbc 193f ca53 6ebe
00000280: 7889 8bbe c869 7dbe 6ca9 a73e b633 d33d
00000290: e037 233e e512 69be 562a c2bd a308 ed3e
000002a0: 7543 3b3e bf38 fd3d a83e 903d d1c7 c6bd
000002b0: d409 38bf a1e7 8dbe f975 8ebe 5ef3 073f
000002c0: 289c 193f b75d a3bf 282e 823f 222b 6b3d
000002d0: 5460 273b bb50 f7be 0d7e f83d 6f41 edbd
000002e0: fd5c 0fbd 2092 83bd e40b 20be e1e1 92bd
000002f0: 2392 323e 823e dbbd 2154 18bd 0889 073e
00000300: 0e9f 343e 80ec f9bc a6a5 893e b614 a53e
00000310: ccf7 a23c 125c 133f 62f2 a13e 74b8 50be
00000320: 1bd4 04be 7f9f d8bf 51d2 d93f 6ec6 45bf
00000330: a400 b5bf eb79 a6bd 8f44 873f a217 7c3f
00000340: 6b1d dc3e fe43 3dbf 6797 df3d 937f b13e
00000350: f8c1 893e 1cd0 9a3e bcb3 f83d 9b58 b1bb
00000360: 436e e5bc 7498 153e dbad 493e 6d1c c1be
00000370: 03fb 3c3e 03c1 f5bd f5a0 453e f6d5 b0bd
00000380: 3f10 63be d84a b63f d031 b53e 68ef 053d
00000390: 7420 853c bf06 283e 1252 0a3f e8c6 2e3e
000003a0: 1f97 6d3d bb1a 67bc 76b9 0c3d e459 6dbe
000003b0: 66a4 183e b32b be3c b439 3dbd 5233 d13b
000003c0: 25ac cebe 1892 303d 8219 69bd 59a2 0ebc
000003d0: 52cb 3c3d ff2b 39bd 2317 313d 24b7 073d
000003e0: f000 90bd 1a0b 543c 8299 ea3f 67b3 093e
000003f0: 2361 a0bf d7c4 993f 6d34 00bf a704 a63d
-0.7115722 -1.2368038 1.2156711 -0.6927318 -0.7602101 -0.2962969 -0.503504 -0.07351603
0.63207877 -0.16087915 0.12713036 -0.9466196 -0.132242 0.010610226 0.32944295 0.14921801
-0.07515759 -0.48604554 -0.052379496 -0.2685807 -0.025422761 -0.79573894 0.20066315 0.46743286
-0.14203456 0.17442693 0.13381514 0.3410495 0.24358796 0.5207145 0.11979085 -0.038416635
-0.0048211976 0.10407039 0.11469031 -0.015171509 -0.14823881 -0.044996064 -0.18025795 -0.09857647
0.0959672 -0.086286955 0.06829501 -0.2024139 -0.030664664 -0.08341954 -0.059129387 -0.14735281
-0.109149955 0.12343974 -0.30182576 1.2339737 0.5933374 0.52024305 0.6714246 0.17623927
0.19462623 -0.010389755 -0.22577499 -0.17911963 -0.59100294 -0.07080288 0.2858291 0.014965036
-0.3349055 -0.08943634 0.010286214 0.041558392 -0.052725345 -0.5337064 0.15930022 -0.1287697
0.08547955 0.0326978 0.29100677 0.03465078 0.49555993 0.038557965 0.023527244 0.047602523
-0.5365067 0.23016825 -0.08726552 0.0031609295 -0.048325382 -0.19199859 0.046896942 -0.083993874
0.020396443 -0.002981486 -0.35045525 0.11567257 -0.08270391 -0.061475042 -0.010246608 0.038254883
0.07952211 0.064625904 -0.07453033 0.022909911 -1.2401799 -2.1424522 -0.03974758 -2.0745902
-1.1494625 -0.84865737 0.56227034 0.07279466 0.85181534 -0.07043538 0.25868526 0.7193503
0.1941205 0.14383906 -0.39944023 -0.1254748 0.33699283 0.024929835 -0.23420149 0.32631102
-0.0066116694 -0.13512751 0.009859739 0.074000284 0.2789588 0.43165675 0.16533932 -1.2740144
0.45577633 1.28283 0.33131573 -0.32281244 -0.088565074 0.23138449 0.14813009 0.04122467
0.011049002 0.08749281 0.061846152 -0.033721812 0.22616729 -0.13553034 -0.065843955 0.5019986
0.09927694 0.22133914 0.15066755 -0.5299223 -0.10589516 0.52590334 1.0785288 0.03152874
-0.8662281 1.9918778 0.101598494 0.13253008 -0.4985296 0.5472004 0.60053045 -0.2327415
-0.27253318 -0.24747384 0.32746446 0.103125975 0.15939283 -0.22761114 -0.09480731 0.46295652
0.18287452 0.12364339 0.07043201 -0.09706081 -0.71889997 -0.2771578 -0.2782438 0.53105724
0.600039 -1.2762975 1.0170336 0.05741418 0.0025539594 -0.4830378 0.12133417 -0.11584746
-0.03500079 -0.064243555 -0.15629536 -0.07171989 0.17438559 -0.10705282 -0.037189607 0.13235867
0.176388 -0.03050828 0.26884192 0.32242364 0.01989355 0.57562363 0.31630236 -0.20382863
-0.12971537 -1.6923674 1.7017308 -0.77255905 -1.414082 -0.08128723 1.0567797 0.9847356
0.42991194 -0.7393187 0.109175496 0.34667644 0.269058 0.302369 0.121436566 -0.005412174
-0.028006678 0.14608938 0.19695227 -0.37717 0.18455128 -0.11999705 0.19299681 -0.0863456
-0.22174166 1.424159 0.35389566 0.03269902 0.016250826 0.16408823 0.5403148 0.17068064
0.05800545 -0.014105494 0.034356557 -0.23178822 0.14906463 0.023214197 -0.046197608 0.0063842917
-0.4036571 0.043108076 -0.05690909 -0.008705699 0.04609234 -0.045207974 0.043234956 0.03313364
-0.07031429 0.0129421 1.8328097 0.13447343 -1.2529644 1.2013196 -0.50079995 0.08106356

fc1.bias f4 [120]
00000000: 1dd5 7d3d 8f48 56bd 0970 943c 7544 72bd
00000010: a8c2 173c 5f7a fb3c 3f56 6d3d 5a87 3ebd
00000020: 5747 163d f1ad 80bd df85 40bd 93db 7c3d
00000030: 4644 4d3d b7ce 36bd c8f6 66bc 0026 f8bc
00000040: e05a 233c cf3c 743e b8df 373e d1b3 8cbd
00000050: 3c46 3c3e 71f8 7ebc f307 7fbc 50c9 413e
00000060: eedd 99bd 6550 9b3c 434e 273d 7395 00bc
00000070: 3449 74bc 8ff6 fb3d 78f7 09bd 3e11 473c
00000080: ebd1 b6bd 318f 5ebc 8c5f 1cbc 5006 65bd
00000090: e623 8cbb 0f7f 043c 79e8 84bd 495e b83d
000000a0: 4a4c f33c 0988 b2bd 76ea 7f3d e6cd 4ebd
000000b0: b65a f43c 3e66 02bd 7ccc 75bd 491f 903d
000000c0: 6d74 ab3d e08b 143d 87f8 34bd be7d 2c3b
000000d0: 29dc 17bd c6b1 6d3d 59db 1cbd b2fe e63c
000000e0: e754 9cbd af73 2ebd 59ab 5a3d bbc0 61bc
000000f0: 8f3d f23d f517 9fbd b363 dfbd afbc 7f3b
00000100: 0733 023d e148 14be 6d94 1fbd 1133 b83b
00000110: f2c5 0b3c ca4d 723b 88dd 8fbd d31a 15bd
00000120: 4144 f7bd da2c dcbc 9157 b3bd f83b 04be
00000130: dc1d 0ebe 6852 0e3d 68b2 b8bc 4a45 743d
00000140: b444 8cbd ed61 c6bc 7bb7 e5bd 3f12 3fbd
00000150: 39dd 6b3c 7e27 fe3d 7098 00be c5dd 4f3c
00000160: 651a 713d 628b 653c cb95 da3c fefd 423d
00000170: d9e5 07be 168f 98bd 8821 743c 26b0 54bc
00000180: 5d47 433d 5f68 0b3c 44d5 0e3c ffe4 1fbd
00000190: f735 153c b8e2 863d 7e8b b13d 3801 113c
000001a0: 7685 e3bd 8285 91bd 26af 84bc 9e07 c83d
000001b0: 1cce 0dbe 79b3 463e c233 51ba 22e0 923c
000001c0: 2b25 f53c 3b4c 2cbe fabf a53d 9b7b 97bd
000001d0: 1ea8 163e 8cce 90bd 53f2 fbbc f03d 60bd
0.06197082 -0.05231529 0.018119829 -0.059147317 0.009262718 0.030698 0.05794358 -0.0465158
0.03668913 -0.06283177 -0.04700267 0.06173284 0.05011394 -0.044630732 -0.014096923 -0.030291557
0.009970397 0.23851322 0.17956436 -0.06870235 0.18386167 -0.015562163 -0.01556586 0.18924451
-0.07513033 0.018959234 0.04084612 -0.0078481315 -0.014910031 0.12302887 -0.03368327 0.012150107
-0.089267574 -0.013583944 -0.0095442645 -0.055914223 -0.0042767404 0.008086934 -0.06489653 0.090023585
0.029699463 -0.08717353 0.06247946 -0.05048933 0.02982841 -0.031835787 -0.060009465 0.07037217
0.08371816 0.036266208 -0.044182327 0.0026320065 -0.037075195 0.058030866 -0.038295124 0.02819762
-0.07633381 -0.042590793 0.053386066 -0.013778861 0.118281476 -0.07768241 -0.10907688 0.0039022376
0.031786945 -0.14480926 -0.03895991 0.005621322 0.008531081 0.0036972635 -0.070246756 -0.036402535
-0.12073565 -0.026876856 -0.08756936 -0.12913501 -0.13878578 0.034746557 -0.022546008 0.05963639
-0.068490416 -0.024216617 -0.11216637 -0.04664826 0.014396005 0.12409876 -0.1255815 0.012687151
0.058863062 0.014010282 0.026682755 0.047605507 -0.13271274 -0.074491665 0.014900573 -0.01298145
0.04767548 0.008508771 0.008717839 -0.039036747 0.0091071045 0.06586212 0.08669184 0.008850388
-0.1110944 -0.07105543 -0.016196799 0.09767078 -0.13848156 0.19404401 -0.000798043 0.01792914
0.02992495 -0.16825955 0.08093257 -0.07396623 0.14712569 -0.07070646 -0.030755198 -0.05474657

fc2.weight f4 [84, 120]
00000000: 5022 dabf 9cdc 053e 60e8 83bd 5272 08bf
00000010: cdf9 86bd 29ab b3bf acc8 4f3e bb4d 35be
00000020: 09a2 6cbd 04c9 f93e b293 aabe f5aa c4bc
00000030: c4c9 58bd 92e7 58bf b00f 57be 321f d13c
00000040: f78b 16be d526 b93d a0e2 aa3e 86b8 6d3e
00000050: 9df1 aa3e 414e cabe 59a3 2abf 2ba6 df3d
00000060: bdd5 13bf 652a 373e 28a4 f83d 3f39 0abf
00000070: a136 91bf 4661 233e cd8b ca3e edcc 5d3f
00000080: 0dd0 0dbe d021 39be ed23 bb3d a1c8 873e
00000090: d6c4 c53e 6e14 e63d 2e9e c3bf b717 2d3e
000000a0: a3a6 fa3c 8654 433e bec7 8f3e a570 17be
000000b0: ada2 303f b300 10be 8c91 e3bc 1b66 373e
000000c0: a03e 7abe c105 cabe 5276 b13c f8c9 9abe
000000d0: 8ff6 eb3d 16a8 fbbe a0d8 0ebc 92e3 21bf
000000e0: 8b78 3d3f de03 513e ebed 003f 00d1 b3bd
000000f0: 99ff 003f 5c17 09bf 8ab2 e0be faf6 abbe
00000100: 75ad 133f 448f 303f 5c6f 9dbe b5a5 aebe
00000110: 3445 ad3e 4872 9cbd 136b 28be 1cd4 4dbf
00000120: 4f39 673e f95b b0be d32f adbe 7d69 62bf
00000130: 9d87 6abe 3be9 f83e 4012 543d 61a8 3b3e
00000140: 5d72 413f d7f6 b3be 170b d4bd 3c2a 563e
00000150: d34d b1bd ac64 313e bc8b 91bf f7e4 c93e
00000160: f74a d8be 9a58 8f3f 5295 663e 2fb0 933b
00000170: 4732 24bf bcfc 98be 839d f9bc 1344 313d
00000180: 84e9 15bf 18c6 553e 89d3 fcbe 3017 ffbe
00000190: d80d 893e c73a a63e 508c 0c3e b454 7dbe
000001a0: 6cbb 85bd 36bb 9b3c a03c b3be 10a7 da3e
000001b0: ace6 99bf 974f eb3d df5e 853d 29d8 a03e
000001c0: 32ce 17bf 734e e8bd 720c b4bd 88de c3bd
000001d0: e3c5 d2bd fd04 523d 1467 063b b277 a8be
000001e0: 587e 96be 9947 92bd 1c36 1cbf db32 603f
000001f0: 44b2 0d3e 05d7 49be 6a06 103e 1af6 563f
00000200: 4338 4ebc 7e73 933f 43b4 f23d 2255 fe3e
00000210: 15f1 783e c887 393f 3581 a23c 11b5 1abe
00000220: 189a 0abf c4e1 3cbd de3c 3abf fc4d 7abe
00000230: 093c 97be 3c70 203f bb01 7dbe 8440 19bd
00000240: c613 003f d0ec 07be 3e62 a9bd eadf 08be
00000250: 2997 763e 1bb5 393e 8f43 1e3e f5f0 a03d
00000260: b5e8 b9bd 9aac a1bc 4d80 2c3f ca3d 96be
00000270: 8fa2 2abe eb48 02bf 758e 7e3f c0dc bdbe
00000280: a921 d73d 8e9a bebd 1381 66bb 13fb 973e
00000290: 473e b93e a1a3 5fbc cfa0 1dbd 0c14 00be
000002a0: a13d 973e 794a 50be 88e9 5ebd 0044 263f
000002b0: 92bb ea3f 3e6e 98bd e485 c5be 2188 94bc
000002c0: 5912 333e 79d8 0cbe fec4 a5bd f9b6 5c3d
000002d0: 7097 4fbe ed5f d7bd b1ab 8abe 8524 af3e
000002e0: bab6 36bd bab4 0ebd 4c8b 043d 1ab4 023f
000002f0: 3e76 abbe 7ed6 353f 2d3e 883c 1965 133f
00000300: fff2 cc3f 41d2 1c3f db66 d43e a3cb cc3f
00000310: f7dd 92bd b123 42bf 4cb5 e73c d6c5 2fbf
00000320: f984 3ebf c85a 9b3e 8b8b 47be 02f2 493f
00000330: b194 b0be 8e7a 91bf a019 0abf 8383 14be
00000340: 82cf 80be 3d3d 97bc 6ff5 3ebf 1df0 003e
00000350: bde8 00bd 3457 de3c ca1e 89bd f280 db3e
00000360: e612 57be 0187 e1be 5aa1 6bbe d063 75be
00000370: 5a0a 37bf 2918 8cbe 1971 09bc 42bb a8bc
00000380: 3ff9 b23e c20f 6e3a 0d95 273f 1414 f13b
00000390: b3ac 713f e251 a6bd 208e 873e 5497 eabe
000003a0: bd96 bc3d 3cc5 123f 0793 113e b323 8b3e
000003b0: aa2f 5fbe 466c d93d 7af9 9f3a ab2f cabd
000003c0: b871 223e ac14 0d3f 219a 453e 02a4 abbe
000003d0: 27f3 29be 1d89 d7be 369b 4cbd 6476 5abf
000003e0: 2bf7 b0be d32e 86bf aef1 a03a 11d0 fbbe
000003f0: 22a1 27bf 7c5c a03e 2ced 413e 2ccd b43e
-1.7041721 0.13072437 -0.064408064 -0.5329944 -0.065906145 -1.4036609 0.20291394 -0.17705433
-0.057771716 0.48786175 -0.33315808 -0.0240073 -0.052926794 -0.8472835 -0.21002078 0.02552757
-0.1470183 0.0904061 0.33376026 0.23214921 0.3338746 -0.39512828 -0.666555 0.10920366
-0.57748014 0.17887266 0.12140685 -0.539936 -1.1344796 0.15955076 0.39559785 0.86640817
-0.13848896 -0.18079305 0.09137712 0.26520255 0.38626736 0.112343654 -1.5282648 0.16903578
0.030597037 0.19075212 0.2808208 -0.14789064 0.68998224 -0.14062767 -0.027779363 0.17910044
-0.24437952 -0.39457515 0.021662865 -0.30232215 0.11521637 -0.49151677 -0.00871864 -0.6323787
0.7401206 0.20411631 0.50363034 -0.08780098 0.5039001 -0.5355127 -0.43886214 -0.33586866
0.5768655 0.68968606 -0.30749023 -0.341108 0.3384186 -0.07638985 -0.16447096 -0.8040178
0.22580455 -0.3444517 -0.3382555 -0.8844221 -0.22903295 0.4861544 0.051775217 0.1832595
0.7556513 -0.3514926 -0.10353678 0.20914549 -0.08657422 0.1732356 -1.1370769 0.394325
-0.42244694 1.1198914 0.22517899 0.0045070867 -0.6413922 -0.2988032 -0.030470615 0.04327781
-0.5855944 0.20876348 -0.4938014 -0.49822378 0.26768374 0.3246672 0.137254 -0.24739343
-0.065298885 0.019010168 -0.3500719 0.42705584 -1.202352 0.1148979 0.06512236 0.31414917
-0.59299004 -0.11343088 -0.08791436 -0.09563929 -0.1029165 0.05127429 0.0020508217 -0.3290382
-0.29393268 -0.071425624 -0.61020064 0.875776 0.13837534 -0.1971093 0.14064947 0.8396927
-0.012586656 1.151962 0.118507884 0.49674326 0.24310715 0.7247281 0.019837001 -0.15108134
-0.5414138 -0.046113744 -0.72749126 -0.24443811 -0.2953799 0.62671256 -0.24707691 -0.037415043
0.5003017 -0.1327393 -0.08270691 -0.13366666 0.240811 0.18135493 0.15455459 0.07858459
-0.090775885 -0.019735623 0.6738327 -0.29344016 -0.16663574 -0.50892514 0.9943612 -0.3708248
0.10504467 -0.09306823 -0.003517215 0.29683742 0.36180326 -0.013649852 -0.038483437 -0.12507647
0.29539207 -0.20340909 -0.05442193 0.6494751 1.8338492 -0.07442902 -0.38578713 -0.018131318
0.17487468 -0.13754453 -0.08094214 0.053885434 -0.20272613 -0.10516343 -0.27084115 0.3420755
-0.044607855 -0.034840323 0.032359406 0.51056063 -0.3348865 0.71030414 0.01663121 0.5757614
1.6011657 0.6125832 0.41484722 1.5999645 -0.07171243 -0.7583571 0.028284691 -0.6866125
-0.7442165 0.30342698 -0.19486825 0.788849 -0.34488443 -1.1365526 -0.5394535 -0.14503293
-0.25158316 -0.018461818 -0.7459325 0.12591596 -0.031471957 0.027141191 -0.06695326 0.42871815
-0.21003303 -0.44048312 -0.2301077 -0.23963857 -0.7150017 -0.27362183 -0.008388781 -0.020597104
0.34955785 0.00090813276 0.6546181 0.00735713 0.94404143 -0.08121087 0.2647562 -0.4581858
0.092084385 0.57332206 0.14216243 0.27175674 -0.21795526 0.10616355 0.0012205087 -0.09872373
0.15863693 0.5510967 0.19297077 -0.33523566 -0.16596662 -0.42096797 -0.04995271 -0.853369
-0.34563574 -1.048304 0.0012279057 -0.4918218 -0.65480244 0.3132056 0.1893813 0.35312784

fc2.bias f4 [84]
00000000: 3153 2f3c ac19 053d 05d5 083d bc27 543d
00000010: 2aaa 993c b89b 92bc 66a8 a43d 40b2 44bb
00000020: 8ebc 66bd 6e9c 79bd 6610 cabd a2d4 533c
00000030: 9fe7 0ebc 31cc 6b3d 2a77 64bd ecef 6e3c
00000040: d790 7a3d dab3 43bd 3579 abbd 8069 dc3d
00000050: aee1 fe3d bc0f bbbd e012 aabd f22d 8a3d
00000060: dfb4 c13c a4a2 853c 6951 26bd 7dbd 87bc
00000070: 8d7a 183e 201f a03d 25ff 9fbd a33f f2bc
00000080: 4e5b c9bd 9f10 e83c a785 003e 6a08 59bb
00000090: 3083 6dbd 10d3 b33c b658 283c 1915 ccbc
000000a0: 24a7 ecbc 0e6b e13d 6475 a0bc 3c0e 533d
000000b0: 595b f7bd 4564 2e3d ab68 c33d db0a 11bd
000000c0: 3dbf f3bd 87e7 9c3b ed54 c0bd 68bd f6bd
000000d0: 595f 103d 32eb e63c 3de0 aa3d 1c60 abbd
000000e0: 17a3 d23d c8df 53bd 8b27 92bc dc55 9c3d
000000f0: 764b 343d b6d2 f6b7 22b0 f6bd 71fe eb3d
00000100: f966 04bd 9f29 a73c d764 913b a188 853d
00000110: 55cf ddbd d380 113d 483b d5bb ecb3 cabd
00000120: 2670 083c 897f bebc d68e 45bd 1d42 c93d
00000130: 66a4 de3c 1d80 41bc 2f31 cc3d d189 45bc
00000140: a7a9 cbbd ed06 0a3d 55ee 4c3d 91a4 64bc
0.010700987 0.032495186 0.033406276 0.051795706 0.018757898 -0.017896518 0.08039932 -0.0030013472
-0.056332164 -0.0609402 -0.09866409 0.012929114 -0.008722215 0.05756778 -0.055777706 0.014583569
0.061173286 -0.04777894 -0.08372728 0.1076231 0.12445389 -0.091338605 -0.08304381 0.067470446
0.023645816 0.016312905 -0.040604983 -0.016569847 0.148905 0.078184366 -0.07812337 -0.02957136
-0.09831868 0.028328238 0.12550984 -0.0033116587 -0.05798644 0.021951228 0.010275057 -0.024912404
-0.028888293 0.11006747 -0.019587226 0.051527247 -0.1207797 0.042576093 0.09541448 -0.035410743
-0.1190171 0.0047883424 -0.09391198 -0.12047845 0.03524718 0.028188322 0.08343551 -0.08367941
0.10285013 -0.051727086 -0.017841121 0.07633564 0.044017278 -2.9423605e-05 -0.120453134 0.1152314
-0.032324765 0.020405589 0.00443707 0.065202005 -0.10830561 0.035523247 -0.006507311 -0.098975986
0.0083275195 -0.023254173 -0.048231922 0.09827063 0.027178 -0.01181033 0.099703185 -0.012056784
-0.09944468 0.03369801 0.05003198 -0.013955251

fc3.weight f4 [10, 84]
00000000: 226c 88be 3e56 26bf 98eb 653e 8f47 34bf
00000010: 0d66 2bbe c683 9c3e 18e1 ad3e 0eb1 69bf
00000020: d11d 9cbf 5e3d ce3d 850d 87bf 4677 cbbe
00000030: 47fc 24bf 9716 d73d 3063 39bf 1f0d 75bf
00000040: d3b7 ae3e 071d f9be e3f6 303d aa1f bebe
00000050: d06f f63e b18f 023e 226f 1040 85f8 39c0
00000060: cdfa a73e 1669 86bf 7f71 3f3f 00b9 5b3f
00000070: 3419 24bf 997e 83bf 0886 123f e981 cebc
00000080: 128b 353e 2dfb 813e fec9 093e d606 47bf
00000090: de68 98bf 9cc8 f43d 82da 8ebf 9d22 74be
000000a0: 0743 11bf 9961 443e dafc 71bf 5678 09bf
000000b0: 6db9 b13e df45 7d3e 7127 e63d 319f fa3e
000000c0: 40ec f23c bc2a ed3c af1f b23e 649e 4e3e
000000d0: 2e49 823e 441e 153e dc8d f6be 2a9b 673e
000000e0: 6f58 973e 923c 87bf 8538 e03d f90a ddbe
000000f0: d7ce d13e c3b8 133e b013 5cbf b2b4 a53f
00000100: f02d 953e 72e2 953e 85c6 313e e068 69bf
00000110: 0734 8c3e e99e 183e 2912 8a3e 932a 163e
00000120: aa8d b6be 60be e63e ffd8 15bf 5401 583f
00000130: 2495 953e 11b0 573e dc59 613e 1766 c5bc
00000140: 46cb 6c3d 84b3 d13e c478 483f 3d2f fbbc
00000150: 4fe2 8fbe 614c 503e 7fab 81bf 2d80 2ebf
00000160: e235 863e aacc 2f3e 4d4a 58bf e139 30be
00000170: 0452 073f d9a2 7dbf 8d77 ed3f adef a23b
00000180: 717f 3e3e d458 b73e 5989 18bf f72e 09bf
00000190: bec1 17c0 15cf 1cc0 de23 e23d b3c9 bdbe
000001a0: 20ae b3bf a55d 373e e18c febf 7e6e cfbf
000001b0: 0321 843c 81a0 003f 44cf 16bf 9bbb 7abf
000001c0: e3f9 c13d de9a 533f a37a 02bc ac60 4e3f
000001d0: a433 34bf 4298 9ebf e661 833e 7d91 62bf
000001e0: 6f75 72bf a48c 773e ca4b 24bf f6eb 81be
000001f0: 8cf4 b73d f699 0b3e 3354 943d 0443 f6bc
00000200: 30b9 703e e4b1 0dbd c884 3b3e 710d 103e
00000210: 25e8 0b3f 8887 10c0 2121 383f 6c9a b73e
00000220: d7db 28be d631 edbb 9b46 993d 6a17 be3e
00000230: 36ee 6e3e f6c2 d53e 53b8 82bf 23e1 303e
00000240: 703b 7ebf 4d1e 7ebf 71f7 b93d db11 93bf
00000250: a663 823e 1476 a33d ec63 d23f 4a6e a03e
00000260: 727f 313f 4127 623f 47e6 a0bf fc72 2e3f
00000270: ab3e e13e c440 83bf 24d1 b9be 1a3f 943f
00000280: c9e4 3b3e d219 99bf ac4b 56bf 952a f13d
00000290: bbfe 15bf 0ec3 e9be 0d98 f03e 34a2 913e
000002a0: f94f 6ebf 0a2e bd3d f6f7 253e f398 b53e
000002b0: b027 a7bf 3519 8e3d 085b 113f 9a24 25be
000002c0: ac8d 013f 7dfd 033e 31ea 93bf 9be4 f1bc
000002d0: e55a edbe b1e3 143e eef9 073f 816d b7bf
000002e0: 3253 053f e0a7 a7bf da4c 403d 3e8a 36be
000002f0: 5870 b83e 47d8 94bf f9c2 9abf 1501 0fc0
00000300: b11c 383f 82ee f4be ab4a b93e aeb0 1bbd
00000310: 3883 21bf 119e 46bf 4655 99bd 4962 823e
00000320: 2b80 0b3e 0807 363e 5085 843d f870 d83e
00000330: cbe8 bcbe 1314 3c3f 8fdd 893e 136a 163f
00000340: ffe1 86be 5f96 953e 9c37 5d3e ac02 90bf
00000350: dc56 c8bf dc28 8b3e aff1 213f d70b fd3e
00000360: f1c7 d13e 834e edbe 5c97 14bf 4c6f 09bf
00000370: ca03 343e aabb b13d 470f c53e 090b a2bf
00000380: 16c7 dbbe a886 05be 01f9 ed3d 19b4 633d
00000390: 31e2 513d 1e58 423e fbce 3ebd 5273 e0be
000003a0: d32a c03d 12a8 123e d921 33bf 2634 83bf
000003b0: 8d09 9e3e 1985 993e 727b b33e 3518 b4bf
000003c0: f5af 4fbd 5074 50be c860 10bf 9131 0fbf
000003d0: 5708 4bbf 9a11 6e3e 3a4f 783e 7819 263e
000003e0: 93c5 8ebf e1ef 613e fa74 5f3e 8d19 f4be
000003f0: 409f ce3e e208 e63e 2215 6dbf b2ec 813c
-0.26645 -0.64975345 0.22453153 -0.7042169 -0.16738148 0.30569285 0.33960795 -0.9128579
-1.2196599 0.100702986 -1.0551001 -0.39739436 -0.64447445 0.105023555 -0.72416973 -0.95723146
0.34124622 -0.4865496 0.0432042 -0.37133533 0.4813218 0.12750126 2.256783 -2.9057934
0.32808533 -1.050082 0.74782556 0.8582916 -0.64100957 -1.027301 0.57235765 -0.02520843
0.17728832 0.25386944 0.1345596 -0.77744806 -1.1907003 0.11952326 -1.1160433 -0.23841329
-0.567429 0.19177856 -0.94526446 -0.53699243 0.3471178 0.24733685 0.112379916 0.48949578
0.029653668 0.028951041 0.34789798 0.20177609 0.25446457 0.14562327 -0.48155105 0.22617784
0.29559657 -1.056536 0.1094828 -0.43172434 0.4097812 0.1442595 -0.8596754 1.2945769
0.2913661 0.29274327 0.17360885 -0.9117565 0.27383444 0.1490437 0.2696698 0.14664678
-0.35654956 0.4506712 -0.58534235 0.84377027 0.29215348 0.21063258 0.22006935 -0.024096532
0.057811044 0.40957272 0.78309274 -0.030662173 -0.28102347 0.20341636 -1.0130461 -0.6816433
0.26212984 0.17167917 -0.84488374 -0.17209579 0.5285952 -0.9907661 1.8552109 0.0049724192
0.18603303 0.35809958 -0.59584576 -0.5358729 -2.3712 -2.4501393 0.110419974 -0.37067947
-1.4037514 0.17906816 -1.9886743 -1.6205595 0.016129022 0.5024491 -0.5891001 -0.97942513
0.0947149 0.82658184 -0.007963809 0.8061626 -0.703913 -1.2390215 0.25660628 -0.8850325
-0.9471044 0.24174744 -0.64178145 -0.25375336 0.089821905 0.1363295 0.07242622 -0.030061252
0.23508143 -0.034593478 0.18312371 0.14067627 0.546511 -2.2582722 0.7192555 0.35860002
-0.16490112 -0.007238607 0.0748417 0.3712724 0.23333058 0.41750306 -1.0212501 0.17273383
-0.99309444 -0.99264985 0.09080399 -1.1489824 0.2546665 0.07981506 1.6436744 0.31334144
0.6933509 0.88341147 -1.2570275 0.681442 0.43993124 -1.025414 -0.36292374 1.1581757
0.18348993 -1.1961005 -0.83709216 0.117757 -0.5859181 -0.45656627 0.46991006 0.28444064
-0.9309078 0.09237297 0.16207871 0.35468253 -1.3058987 0.069384016 0.5677953 -0.16127244
0.506068 0.12889667 -1.1555845 -0.029527953 -0.4635841 0.14539982 0.5311574 -1.4330293
0.5208007 -1.3098106 0.04694829 -0.17826173 0.3602321 -1.1628503 -1.2090751 -2.234441
0.7191878 -0.47838217 0.3618978 -0.03801029 -0.6309085 -0.7758494 -0.07486968 0.2546561
0.13623111 0.1777612 0.0647074 0.42273688 -0.36896357 0.7346813 0.26926848 0.58755606
-0.26344296 0.29216287 0.21603245 -1.1250815 -1.5651507 0.2717961 0.63259405 0.49423096
0.40972856 -0.46348962 -0.58043456 -0.5368545 0.1757957 0.08678372 0.38488218 -1.2659618
-0.42925328 -0.13039649 0.11619759 0.055591676 0.051241104 0.18978927 -0.04658411 -0.43837982
0.09383168 0.14321926 -0.6997352 -1.025029 0.30866662 0.29984358 0.3505512 -1.4069887
-0.050704915 -0.2035687 -0.56397676 -0.5593501 -0.793096 0.23248902 0.24248973 0.16220653
-1.1154045 0.22064163 0.21821967 -0.47675744 0.40355873 0.44928652 -0.9261037 0.015859935

fc3.bias f4 [10]
00000000: 2c1f a5bd f323 2a3d 6710 723d dac6 1abd
00000010: 4038 e43b c327 cabd 13f8 c3bb e7b9 8b3d
00000020: 9e65 4fbd 3e57 04be
-0.08062586 0.04153819 0.059097674 -0.037787296 0.0069647133 -0.09870865 -0.0059805005 0.068225674
-0.05063402 -0.12923905
