best_model_epochs50_batches128.pth (torch, 250377 bytes, 10 tensors)

conv1.weight f4 [6, 1, 5, 5]
0	0xbebd45a4	-0.36967194
1	0x3e31f897	0.17379986
2	0x3f36eee6	0.7145828
3	0x3e9953fe	0.29946893
4	0xbe053dc2	-0.1301184
5	0xbf21a973	-0.63149184
6	0x3ec4cc11	0.3843694
7	0x3f1f2af3	0.6217491
8	0x3f34f96c	0.7069309
9	0x3d4e5f07	0.050383594
10	0xbef29179	-0.47376612
11	0xbd43ece0	-0.047833323
12	0x3f4e933b	0.80693406
13	0x3f530584	0.8243029
14	0xbe915944	-0.28388417
15	0xbf422863	-0.75842875
16	0xbedb260a	-0.4280246
17	0x3ee2f187	0.44324896
18	0x3efe9519	0.49723127
19	0xbdcc4b95	-0.09975354
20	0xbf93cc99	-1.1546813
21	0xbefca52c	-0.49344766
22	0x3de8dba6	0.113700196
23	0x3df69866	0.120407864
24	0xbdf4a141	-0.11944819
25	0xbefc1707	-0.49236318
26	0x3eb77cbe	0.35837358
27	0xbdb9da09	-0.0907479
28	0xbf1bf7bd	-0.60924894
29	0xbf7a04f2	-0.97663796
30	0x3cdc52f5	0.026895026
31	0x3f19c8b8	0.600719
32	0x3f1e1eed	0.6176594
33	0xbe0af37f	-0.13569449
34	0xbf5bb058	-0.85815954
35	0xbc005ab2	-0.007834123
36	0x3f59b1cc	0.8503692
37	0x3f58f351	0.8474627
38	0x3e62cc23	0.22148184
39	0xbee9a8d5	-0.4563662
40	0xbf05691a	-0.521135
41	0x3f41ef1f	0.75755495
42	0x3f47e58d	0.7808464
43	0xbcf8e855	-0.030384222
44	0xbede9c0b	-0.43478426
45	0xbebed4e4	-0.37271798
46	0x3ecfddc4	0.4059888
47	0x3f105ca5	0.56391364
48	0x3e129aa0	0.14316797
49	0xbf0bd879	-0.54627186
50	0x3ef7dc4b	0.48410258
51	0x3f4e0511	0.8047648
52	0x3f649a4d	0.89297944
53	0x3f412f13	0.75462455
54	0x3ee29012	0.44250542
55	0xbe14d0ae	-0.1453273
56	0xbf9f7f77	-1.2460774
57	0xc008a1bc	-2.1348715
58	0xbf5d484b	-0.86438435
59	0x3f1350b8	0.5754504
60	0xbf39bb31	-0.72551256
61	0xc0b47789	-5.6395917
62	0xc0f924de	-7.7857504
63	0xc0591052	-3.391621
64	0x3e7bf3f4	0.2460478
65	0x3eb7f8b2	0.35931927
66	0xc0055317	-2.0831964
67	0xc0b5426a	-5.664357
68	0xc02cec63	-2.701928
69	0x3e6a9bd7	0.2291101
70	0x3f9eb666	1.2399414
71	0x3f64d7d7	0.89391845
72	0xbe6f0f6d	-0.23345728
73	0xbe140eb3	-0.14458732
74	0x3e833a9d	0.25630656
75	0xbf70a09d	-0.93995076
76	0xbf1338fa	-0.57508814
77	0x3e01176b	0.1260659
78	0x3f3929a7	0.7232918
79	0x3f010c09	0.5040899
80	0xbf294ce3	-0.66132945
81	0xbf1a39b0	-0.60244274
82	0x3da33c7d	0.079705216
83	0x3f85305e	1.0405385
84	0x3f15f845	0.58581954
85	0xbf676300	-0.90385437
86	0xbf29486d	-0.6612614
87	0x3e6e5d73	0.23277836
88	0x3f78c686	0.9717792
89	0x3f203e34	0.62594914
90	0xbf52846d	-0.82233316
91	0xbf613549	-0.8797193
92	0xbc8803ae	-0.016603317
93	0x3f91bed6	1.1386364
94	0x3f27aa58	0.654943
95	0xbf598a34	-0.84976506
96	0xbf7d0dda	-0.9884926
97	0x3dc6651d	0.096872546
98	0x3f602270	0.8755255
99	0x3f2c239f	0.67241853
100	0x3dbac82d	0.09120212
101	0xbec27854	-0.37982428
102	0x3e1dd71a	0.15414086
103	0x3ecb660e	0.397263
104	0x3f6933fe	0.9109496
105	0xbe9b3c1a	-0.3031929
106	0xc010fdf6	-2.2655005
107	0xbff5bef4	-1.9198899
108	0xbef67392	-0.48135048
109	0x3ea05d84	0.31321347
110	0xbd8c390b	-0.068468176
111	0xc0018bf5	-2.0241673
112	0xc018fb27	-2.3903291
113	0xbf9f477d	-1.2443691
114	0xbe6f6842	-0.23379615
115	0x3f5e1968	0.86757517
116	0x3d6c50e6	0.05769434
117	0xbe0ca76e	-0.13735744
118	0xbe936cff	-0.28794095
119	0xbe9d8f49	-0.3077338
120	0x3fd243b5	1.6426913
121	0x3f108776	0.56456697
122	0x3ebace85	0.36485687
123	0x3d3a2ff6	0.045455895
124	0x3e7c85e9	0.24660458
125	0x3f20b669	0.62778336
126	0xbe822fce	-0.25427097
127	0xbf610fec	-0.8791492
128	0xbe13c427	-0.14430295
129	0x3f1df245	0.616978
130	0x3f3fddce	0.7494782
131	0xbe64f83a	-0.22360316
132	0xbf8e04d1	-1.109522
133	0xbf4f4771	-0.80968386
134	0x3ee0e933	0.43927917
135	0x3f1c2fc6	0.61010396
136	0xbeee40e9	-0.46533898
137	0xbfbdaf5f	-1.4819144
138	0xbf48c217	-0.7842116
139	0x3e76ddb8	0.24108016
140	0x3f8bd686	1.0924842
141	0xbe16f821	-0.14743091
142	0xbf5e79b0	-0.8690443
143	0xbf3d3a7a	-0.73917353
144	0x3ec6b295	0.38808122
145	0x3f893ae8	1.0721102
146	0x3ecef2c1	0.40419582
147	0xbef62f47	-0.48082945
148	0xbe58eee6	-0.21184883
149	0x3f06d038	0.52661467

conv1.bias f4 [6]
0	0xbe451d72	-0.19249514
1	0x3d8cb25d	0.068699576
2	0x3ef40e5f	0.47667214
3	0x3d9b71f6	0.07590096
4	0x3f31ae16	0.6940626
5	0xbe360f06	-0.17779168

conv2.weight f4 [16, 6, 5, 5]
0	0xbe99d0b1	-0.3004203
1	0x3e77ab0f	0.24186347
2	0x3eae6b6c	0.3406633
3	0xbf188153	-0.59572333
4	0xbd447829	-0.047966156
5	0xbe99c455	-0.30032602
6	0x3dc9e1d9	0.0985753
7	0x3e4873f6	0.19575486
8	0xbf49453e	-0.7862128
9	0xbd918f3a	-0.071073964
10	0xbdd63a73	-0.10460367
11	0x3e447095	0.19183572
12	0x3e113d4f	0.14183544
13	0xbf1c33e8	-0.610167
14	0xbe184110	-0.1486857
15	0xbe38b0d7	-0.18036209
16	0x3e14084c	0.1445629
17	0x3e810fc8	0.25207353
18	0xbe7bd732	-0.24593809
19	0x3db7ec9e	0.08980678
20	0xbe19b57b	-0.15010636
21	0xbde2e930	-0.11079633
22	0x3e3e39c1	0.18576719
23	0xbe8e9bb9	-0.27853182
24	0x3cb9983f	0.022655604
25	0xbe86382a	-0.26214725
26	0xbef074d3	-0.4696413
27	0x3ee1e95a	0.44123346
28	0xbc1baf60	-0.009502262
29	0xbe7f7993	-0.2494872
30	0xbe6a1e97	-0.22863232
31	0xbee06e79	-0.43834284
32	0x3ecd5dd5	0.4011065
33	0xbe545cef	-0.20738576
34	0xbe4024e9	-0.1876408
35	0xbe742f7f	-0.23846243
36	0xbebb6ae2	-0.36604983
37	0x3e9c345d	0.305087
38	0xbe10c5ac	-0.14137906
39	0xbe6718da	-0.22568074
40	0xbe518d42	-0.20464042
41	0xbef2e6c4	-0.47441685
42	0x3cf44926	0.029820036
43	0xbe1ae622	-0.15126851
44	0xbe18ed14	-0.14934188
45	0x3cd6221e	0.026139315
46	0xbe8ca6d9	-0.27471045
47	0xbd9568cf	-0.07295381
48	0xbea74076	-0.32666367
49	0x3cb49d9a	0.022047807
50	0x3f132293	0.5747463
51	0xbec1914c	-0.37806165
52	0xbfb22809	-1.3918468
53	0xbeaa2bee	-0.3323664
54	0x3f2ce2d3	0.67533606
55	0x3e921175	0.28528944
56	0xbee24a06	-0.441971
57	0xbf8878e7	-1.0661896
58	0x3c24cddb	0.010058845
59	0x3f22715f	0.6345424
60	0x3e8d5a69	0.2760804
61	0xbee1fae0	-0.44136715
62	0xbf8b9735	-1.090552
63	0xbe88d3a9	-0.26723984
64	0x3ea4cae8	0.32186055
65	0x3e8a4c57	0.27011368
66	0xbe645dcd	-0.22301407
67	0xbf6b8f8d	-0.92015916
68	0xbe9ac75b	-0.3023022
69	0x3cc36120	0.023850024
70	0x3e76f06a	0.24115148
71	0xbe9b4474	-0.30325663
72	0xbf28de29	-0.6596399
73	0xbee4fa7b	-0.4472235
74	0xbe282b2e	-0.16422722
75	0x3e399fac	0.18127316
76	0x3f377532	0.716632
77	0xbc7d385d	-0.015455333
78	0xbf3909d6	-0.72280633
79	0x3e7c26a9	0.24624123
80	0x3e5309f3	0.20609264
81	0x3f346021	0.7045918
82	0xbe408294	-0.18799812
83	0xbf650364	-0.894583
84	0x3e764123	0.24048285
85	0x3dafe071	0.08587731
86	0x3f2eeeb5	0.6833299
87	0xbe429e7a	-0.19005767
88	0xbf327de9	-0.69723374
89	0x3e8b9ffd	0.272705
90	0x3dabf88c	0.08397016
91	0x3f0f1cbf	0.5590324
92	0xbbc533ad	-0.006018123
93	0xbf02fcfc	-0.51167274
94	0x3e9e3694	0.30901015
95	0xbdab6e5d	-0.083706595
96	0x3ea88a3c	0.32917964
97	0x3d807328	0.06271964
98	0xbe98a373	-0.29812202
99	0x3e8b66fe	0.27227014
100	0x3f0e2dff	0.55538934
101	0x3dd42e37	0.10360377
102	0xbf7e8fbe	-0.99438083
103	0xbdaa8ede	-0.08328031
104	0x3f1c1c21	0.6098042
105	0x3ee35c4d	0.44406357
106	0x3e30c71f	0.17263459
107	0xbf2eaed6	-0.6823553
108	0x3ea36e9a	0.3192032
109	0x3f36ccce	0.7140626
110	0x3e8ab0a8	0.27087903
111	0x3db352dd	0.08756039
112	0xbf377564	-0.716635
113	0x3df8a448	0.12140709
114	0x3f141206	0.5784
115	0x3e36afec	0.17840546
116	0x3e109806	0.14120492
117	0xbf100415	-0.5625623
118	0xbdcd2688	-0.10017115
119	0x3e2b754e	0.16743967
120	0x3e1c7a78	0.15281093
121	0x3e2a4fa6	0.16631946
122	0xbef6dd9d	-0.48215953
123	0xbdc281c6	-0.094974086
124	0xbda65829	-0.08122284
125	0x3e9745f7	0.29545566
126	0xbe0a5fd6	-0.13513121
127	0xbf91a51d	-1.1378514
128	0x3f20fe56	0.62888086
129	0x3e8e8851	0.27838376
130	0x3dec3f17	0.11535471
131	0x3cdb3b02	0.026761536
132	0xbf2448bd	-0.6417349
133	0x3f836efc	1.0268245
134	0x3ecae8d8	0.3963077
135	0x3d7e4a15	0.06208237
136	0xbe60b443	-0.21943764
137	0xbf202311	-0.6255351
138	0x3f3a766d	0.72836953
139	0x3e62cd40	0.22148609
140	0x3d5cb8a4	0.053887025
141	0x3ccdb6c9	0.025111573
142	0xbebc16bc	-0.36736095
143	0x3f1ddd3c	0.616657
144	0xbdfddac4	-0.12395242
145	0xbe10a51c	-0.14125484
146	0x3e1c75c6	0.15279302
147	0xbe9b6faf	-0.30358645
148	0x3f140e87	0.57834667
149	0xbe1d2d1e	-0.15349242
150	0xbd3641a2	-0.044496186
151	0x3dd25a05	0.10271076
152	0x3e2d9075	0.16949637
153	0x3df001f7	0.11719125
154	0xbea5d890	-0.32391787
155	0x3bc22330	0.005924605
156	0x3e7d2568	0.247213
157	0x3e811225	0.25209156
158	0x3f19346d	0.5984562
159	0x3e24eb10	0.16105294
160	0xbd7ff753	-0.062491726
161	0xbd82eaaf	-0.063924186
162	0x3d614800	0.055000305
163	0x3ed2b7e5	0.41155925
164	0x3e4e177e	0.20126149
165	0xbe7aa670	-0.24477553
166	0xbe3949de	-0.18094584
167	0x3d0ed100	0.034867287
168	0x3e43bada	0.19114247
169	0x3eb9bd30	0.3627715
170	0xbe99b901	-0.3002396
171	0xbea6414c	-0.32471693
172	0xbe84539d	-0.25845042
173	0xbe9b446d	-0.30325642
174	0x3e861763	0.26189718
175	0x3b88f8e1	0.0041800593
176	0x3e41564c	0.18880576
177	0x3e6a07e5	0.22854574
178	0x3ed3f689	0.4139903
179	0x3ed65978	0.41865134
180	0xbd51c8f1	-0.051217023
181	0x3bb605b5	0.0055548795
182	0xbd5cf183	-0.05394126
183	0x3e571839	0.21005334
184	0x3e7f6762	0.24941781
185	0xbaf988cb	-0.001903796
186	0xbe00867d	-0.12551303
187	0xbdcf8edf	-0.101346724
188	0xbe22e255	-0.15906651
189	0x3dfe4fb3	0.12417545
190	0x3ce4bd82	0.027922396
191	0xbd4e3247	-0.050340917
192	0xbdc6a278	-0.09698957
193	0xbe86ba65	-0.26314083
194	0xbd261988	-0.040551692
195	0x3d788ae6	0.06067934
196	0xbe54d5a4	-0.20784622
197	0xbe6954ca	-0.2278625
198	0xbecfcc47	-0.4058554
199	0xbe1182b5	-0.14210017
200	0x3ea60b94	0.32430708
201	0xbe6a8ed0	-0.22906041
202	0xbf6a51d0	-0.91531086
203	0xbf899c1d	-1.0750767
204	0xbee6aa86	-0.45051974
205	0x3eafa2f8	0.34304023
206	0xbd1b6ab7	-0.037943568
207	0xbee8bebc	-0.4545802
208	0xbf60a6dd	-0.87754613
209	0xbf40a8cf	-0.7525758
210	0x3ee9f842	0.45697218
211	0x3f521b78	0.82073164
212	0x3f083ef9	0.5322109
213	0x3e70319b	0.23456423
214	0xbd2b4bf7	-0.041820493
215	0x3f2252ca	0.63407576
216	0x3fb86f10	1.4408894
217	0x3faeef92	1.3666861
218	0x3f9f467e	1.2443388
219	0x3f4a9230	0.79129314
220	0x3e646873	0.22305469
221	0x3fefe3e4	1.8741422
222	0x401b839f	2.4299085
223	0x401dd527	2.4661348
224	0x3fcfdac9	1.6238643
225	0x3ec14821	0.37750342
226	0x3ea8ac70	0.3294406
227	0x3e24c494	0.16090614
228	0xbe8a2f22	-0.26989084
229	0xbf714d17	-0.94258255
230	0x3e8b743f	0.27237126
231	0x3e14b6f7	0.1452292
232	0x3da4612b	0.08026346
233	0x3e1dc4b2	0.15407065
234	0xbf31eee2	-0.6950513
235	0x3d687423	0.05675138
236	0xbd268ca9	-0.040661488
237	0xbe06eb66	-0.13175735
238	0x3e7b9469	0.24568333
239	0xbea59367	-0.32339022
240	0xbeb71d1a	-0.3576439
241	0xbeba63b6	-0.36404198
242	0xbe942d8c	-0.28941
243	0x3e1cd6fe	0.15316388
244	0x3d9c32de	0.0762689
245	0xbf28209a	-0.65674746
246	0xbefa9c50	-0.48947382
247	0xbef229db	-0.47297558
248	0x3d7e33ca	0.06206111
249	0x3f073984	0.52822137
250	0x3e97c502	0.29642493
251	0xbef5d1eb	-0.48011717
252	0xbf80101d	-1.0004917
253	0xbf4fd272	-0.8118049
254	0xbebd2764	-0.36944115
255	0xbe4e8cfe	-0.20170972

conv2.bias f4 [16]
0	0xbc79beb8	-0.015243225
1	0xbdcee348	-0.10101944
2	0x3db3a935	0.08772508
3	0xbd757dad	-0.059934307
4	0x3d76c82a	0.060249485
5	0xbdceede7	-0.1010397
6	0xbdc0843d	-0.094002225
7	0xbd5056c3	-0.050863992
8	0xbd8a66f4	-0.06757918
9	0x3c9ec51b	0.019381097
10	0xbd29d23c	-0.04146026
11	0x3d5eb95f	0.054376002
12	0xbdbffb1c	-0.09374067
13	0x3d4ae36b	0.04953329
14	0xbd404e99	-0.046949957
15	0x3d933247	0.07187324

fc1.weight f4 [120, 400]
0	0x3d49d8e3	0.049279105
1	0xbebd4bc8	-0.3697188
2	0xbdca456f	-0.09876525
3	0xbdaffdfc	-0.085933656
4	0x3eebf87e	0.46088022
5	0xbe505244	-0.20343882
6	0xbf056b72	-0.52117074
7	0x3e9ffc6e	0.31247276
8	0xbda5fc0c	-0.08104715
9	0x3eb0aeaa	0.34508258
10	0xbe3b88c4	-0.1831389
11	0xbe43155c	-0.19051117
12	0x3ded6ee3	0.115934156
13	0x3de2b9ce	0.11070596
14	0x3d7d98c6	0.061913274
15	0x3e1a9dcc	0.15099257
16	0xbd807870	-0.06272972
17	0x3d359b06	0.044337295
18	0x3e62d8f6	0.22153077
19	0x3e2686ec	0.16262406
20	0x3da6f80f	0.08152782
21	0x3de3f653	0.11130967
22	0x3e136491	0.14393832
23	0x3c30fdd3	0.010802704
24	0xbd0372ef	-0.03209203
25	0xbe03bf62	-0.12865975
26	0xbe33a240	-0.17542362
27	0xbf4dcc65	-0.80390006
28	0xbe812b36	-0.2522828
29	0xbea0c516	-0.31400365
30	0x3e69560c	0.2278673
31	0x3e149a88	0.14512074
32	0x3ec28117	0.37989113
33	0xbe117065	-0.14203031
34	0xbccbb525	-0.02486665
35	0xbe57c37d	-0.21070667
36	0x3e27ae35	0.16375048
37	0x3f205526	0.62629926
38	0xbe5b7f25	-0.2143522
39	0xbee69187	-0.45032904
40	0xbe3e20ea	-0.18567243
41	0xbbb4b3d4	-0.0055146012
42	0x3de35c91	0.1110164
43	0x3dd4f263	0.10397794
44	0xbea7c4de	-0.32767385
45	0xbe82f5b4	-0.25578082
46	0xbc38d4b5	-0.011281182
47	0x3e739e28	0.237908
48	0x3ed9aaea	0.4251321
49	0x3e7c3f0c	0.24633425
50	0xbf094fa6	-0.5363716
51	0xbe9c6454	-0.30545294
52	0xbcf22e2e	-0.029563036
53	0xbef757d5	-0.48309198
54	0x3e4059e9	0.18784298
55	0xbed0576c	-0.40691698
56	0x3d4316e0	0.047629237
57	0x3e048cb5	0.129443
58	0xbdca47dd	-0.09876988
59	0xbd480a77	-0.048838105
60	0xbec543f0	-0.38528395
61	0x3e3a6017	0.18200718
62	0x3e30735c	0.17231506
63	0x3e205306	0.15656671
64	0x3cba12df	0.022714077
65	0xbdb3f19f	-0.0878632
66	0x3db39ee7	0.087705426
67	0x3ddb408a	0.10705669
68	0x3e5286f1	0.20559289
69	0x3bac01f0	0.0052492544
70	0xbbae1f40	-0.005313784
71	0x3dd4dae0	0.103933096
72	0x3d67acbf	0.056561228
73	0xbe4f8e4f	-0.2026913
74	0x3d2ac8c8	0.041695386
75	0xbd63c6b8	-0.055609435
76	0x3e09dbf4	0.13462812
77	0x3ec4ced8	0.3843906
78	0x3e951248	0.2911551
79	0xbe31467b	-0.17312042
80	0xbd54774e	-0.05187159
81	0x3e857ee3	0.2607337
82	0x3eba50e7	0.3638985
83	0x3e85ef42	0.26159102
84	0x3dbe4bd8	0.0929181
85	0xbe1b4c3c	-0.151658
86	0x3df29248	0.11844307
87	0x3e82310a	0.2542804
88	0x3da6991f	0.08134674
89	0x3e3bb5c7	0.18331061
90	0xbeb43243	-0.35194597
91	0x3dfad4cd	0.1224762
92	0xbd47fa0c	-0.048822448
93	0xbe85ffdb	-0.26171765
94	0xbe50cf67	-0.20391618
95	0xbee6afa4	-0.45055878
96	0xbe4f74c2	-0.20259383
97	0xbc8034e1	-0.015650215
98	0x3e897cbd	0.2685298
99	0xbea0fb35	-0.31441656
100	0xbea618dc	-0.3244084
101	0x3d70d6de	0.058798663
102	0xbd198afd	-0.037486065
103	0xbe512cba	-0.20427218
104	0x3ec12bc9	0.37728718
105	0xbeeb4305	-0.4594957
106	0x3d1521bb	0.03640912
107	0x3dae4c70	0.08510673
108	0xbe3c34d0	-0.18379521
109	0x3e41a46b	0.18910377
110	0xbdd5b02f	-0.10433995
111	0x3c44cb0f	0.012011304
112	0x3e44c8e9	0.19217266
113	0x3c4e00dc	0.012573447
114	0xbdf850ec	-0.121248096
115	0x3e2716de	0.16317317
116	0x3ab885f7	0.001407801
117	0x3dd2d292	0.10294069
118	0x3e4dd28c	0.20099849
119	0x3e1a2541	0.15053274
120	0x3e8201a4	0.25391877
121	0x3e279492	0.16365269
122	0x3d295451	0.041340176
123	0xbe906720	-0.28203678
124	0x3ed527ae	0.41631836
125	0x3d5ec073	0.054382753
126	0x3d7bbbe2	0.061458476
127	0xbe1dcbdb	-0.15409796
128	0xbbaf35e0	-0.0053469986
129	0xbcbb3324	-0.022851534
130	0x3e044504	0.12916952
131	0x3da929db	0.082599364
132	0xbd27d37b	-0.040973168
133	0x3e2cae30	0.16863322
134	0x3ca6b5c4	0.020350344
135	0x3cc82559	0.024431871
136	0x3d217d4f	0.039426144
137	0xbd090016	-0.033447348
138	0xb99c176d	-0.00029772092
139	0x3e1cad14	0.15300399
140	0xbe3b7f47	-0.18310271
141	0xbe93dc29	-0.28878906
142	0xbe3ae8a3	-0.18252806
143	0xbe36160b	-0.17781846
144	0xbd43176b	-0.047629755
145	0xbe391c38	-0.18077171
146	0x3cf7fcd5	0.030271927
147	0x3b34e25d	0.0027600743
148	0x3e86a188	0.26295114
149	0xbd723082	-0.059128292
150	0xbf43d228	-0.7649255
151	0xbe9b69ac	-0.3035406
152	0xbcdd6afd	-0.027028555
153	0x3d994d12	0.07485403
154	0x3dc79f95	0.09747235
155	0xbf2f238f	-0.68413633
156	0xbf25fac1	-0.64835745
157	0x3f178dc8	0.59200716
158	0x3e71a054	0.23596317
159	0x3db6a3a6	0.08917932
160	0xbeebc562	-0.4604903
161	0xbe95fb3e	-0.29293245
162	0x3eb422f2	0.3518291
163	0x3e93ca78	0.2886541
164	0x3eb4b186	0.3529169
165	0x3e0be7b3	0.13662605
166	0xbda35555	-0.0797526
167	0xbcaf3da0	-0.02139169
168	0x3e86bd47	0.26316282
169	0x3e8cce91	0.27501348
170	0x3eb3bc18	0.35104442
171	0xbe9c9b5a	-0.30587274
172	0x3b313e2d	0.0027045116
173	0xbde91c01	-0.113822944
174	0xbe5af4dd	-0.2138247
175	0xbf7a1576	-0.97688997
176	0xbe86e0ca	-0.26343375
177	0xbcfdc761	-0.03097886
178	0xbf44b1b9	-0.76833683
179	0xbebc5782	-0.36785513
180	0xbf4107ec	-0.7540271
181	0x3e692693	0.22768621
182	0x3e90d77a	0.28289396
183	0xbf111613	-0.5667431
184	0xbf0469fb	-0.51724213
185	0xbf05a050	-0.5219774
186	0x3d607429	0.05479828
187	0x3df4d9ff	0.11955642
188	0xbe2f9964	-0.17148358
189	0xbf00771f	-0.50181764
190	0xbee5c2ac	-0.44875085
191	0x3ae85005	0.0017724043
192	0xbc735ce8	-0.014853694
193	0xbf055d14	-0.5209515
194	0xbd07f419	-0.033191774
195	0xbde96027	-0.11395293
196	0xbdee842b	-0.11646303
197	0xbe7d722b	-0.24750583
198	0xbf809c17	-1.0047635
199	0xbda9401d	-0.08264182
200	0x3e8198bf	0.2531185
201	0xbeccd522	-0.40006357
202	0xbf02c579	-0.5108257
203	0x3ce0dd9b	0.02744942
204	0xbddb3172	-0.1070279
205	0xbc76794b	-0.015043567
206	0xbed3d8d3	-0.4137636
207	0xbe4e36a0	-0.20138025
208	0x3e993e32	0.29930264
209	0x3e5c52d9	0.21515979
210	0xbec37704	-0.3817674
211	0xbe342ab6	-0.17594418
212	0xbe28bb8f	-0.16477798
213	0xbd3f511b	-0.046708208
214	0x3dad1c9a	0.08452721
215	0xbd6f5223	-0.05842794
216	0x3bf38169	0.0074311984
217	0xbd2ea3b0	-0.042636573
218	0x3e613bac	0.2199542
219	0x3d9fb0ac	0.07797369
220	0x3e5297f8	0.20565784
221	0xbe402351	-0.18763472
222	0x3e6bbbb8	0.23020828
223	0x3dbeb42f	0.09311711
224	0x3ad1c9b8	0.0016005551
225	0xbd88dac0	-0.06682348
226	0xbf7836f4	-0.9695885
227	0xbf000356	-0.5000509
228	0x3da743f9	0.08167262
229	0x3ad18320	0.0015984513
230	0xbdfd648a	-0.12372692
231	0xbe516042	-0.20446876
232	0x3e6251f6	0.22101578
233	0x3e5156ab	0.20443217
234	0x3cd7cddf	0.026343284
235	0x3ee16573	0.44022712
236	0x3e835d64	0.2565719
237	0x3e54d5ce	0.20784685
238	0xbdf83471	-0.121193774
239	0xbe139f0f	-0.14416145
240	0x3e1bd011	0.1521609
241	0x3e24d04b	0.16095082
242	0x3e6185cf	0.220237
243	0x3eb9f995	0.36323228
244	0xbeda7130	-0.4266448
245	0x3ea90978	0.33015037
246	0xbe442e81	-0.19158365
247	0x3e0f921c	0.1402058
248	0x3e1b543c	0.15168852
249	0xbe2d0517	-0.16896473
250	0xbec4f6c2	-0.3846951
251	0xbedead19	-0.43491438
252	0xbe2a6967	-0.1664177
253	0xbea52617	-0.32255623
254	0x3ea237b9	0.31683138
255	0xbe8e5adc	-0.27803695

fc1.bias f4 [120]
0	0xbcc16026	-0.023605417
1	0x3d59c4b0	0.05316609
2	0x3d005b67	0.031337168
3	0xbaa3dbad	-0.0012501382
4	0xbcefd487	-0.029276146
5	0xbcaac5ca	-0.020846266
6	0x3c8d0ccf	0.017218022
7	0x3cf043d1	0.029329212
8	0x3da77a09	0.08177573
9	0xbda0b44c	-0.07846889
10	0xbc0fe2bf	-0.008782088
11	0x3d58175a	0.052756645
12	0xbda55bec	-0.08074173
13	0x3d7c9839	0.06166861
14	0xbcd6dc8f	-0.026228217
15	0x3bdb8b50	0.006699957
16	0x3d25be17	0.040464487
17	0xbd343075	-0.043991525
18	0x3ce5eff7	0.028068526
19	0x3cd45ce7	0.025923206
20	0x3d2bd208	0.04194835
21	0x3b172703	0.0023064024
22	0xbdc4c86a	-0.096085384
23	0xbd290284	-0.041262165
24	0x3d8e5338	0.069494665
25	0x3dc51425	0.09622983
26	0x3cda44b3	0.026644086
27	0x3d2d872b	0.042365234
28	0x3dc0b633	0.09409752
29	0x3c3a73c0	0.011380136
30	0x3d7eeee5	0.062239546
31	0xbc8aa600	-0.016924858
32	0xbda31b71	-0.079642184
33	0x3d39ea88	0.045389682
34	0x3d3e93d3	0.046527695
35	0x3cee5337	0.029092414
36	0x3d8a46c1	0.067517765
37	0xbcd4f4bc	-0.025995605
38	0xbb5c5611	-0.0033620636
39	0xbc9d9433	-0.019235706
40	0xbd534fb1	-0.05158967
41	0x3c3b6db5	0.01143973
42	0x3da2a9e8	0.07942563
43	0xbdfa2f70	-0.12216079
44	0xbd1ee107	-0.03878882
45	0xbcdc1202	-0.026864056
46	0xbc3be757	-0.01146873
47	0xbdbbb5d3	-0.091655396
48	0x3d8c2a1b	0.068439685
49	0x3bd5b497	0.006521772
50	0xbd6ee703	-0.05832578
51	0x3c21bbc5	0.009871428
52	0x3dbba9dc	0.091632575
53	0x3c59a388	0.013283618
54	0x3caf8ef7	0.021430476
55	0x3c7cee16	0.0154376235
56	0x3dc79c3c	0.09746596
57	0xbcdea2d2	-0.027177248
58	0xbcd9956c	-0.026560508
59	0x3cde9ad5	0.027173439
60	0x3ca27909	0.019833105
61	0x3d04f2e3	0.032458197
62	0x3b74009e	0.0037231813
63	0xbd92fc7d	-0.071770646
64	0x3a5c44e3	0.0008402599
65	0x3ca4e37f	0.02012801
66	0x3db071ca	0.086154535
67	0xbc9c248c	-0.019060396
68	0x3d20d2fd	0.039263714
69	0xbd952d01	-0.072839744
70	0xbcd4cbd6	-0.025976103
71	0x3bea747a	0.0071549984
72	0x3d78e912	0.06076915
73	0xbc99ad9c	-0.018759541
74	0xbceb243c	-0.028703801
75	0x3d528a76	0.051401578
76	0xbc5791e5	-0.013157343
77	0x3df16d96	0.1178848
78	0xbc6c10fd	-0.014408347
79	0xbdc0514c	-0.09390506
80	0x3ce79c6f	0.028272836
81	0x3cab4edf	0.020911632
82	0xbd3a18d9	-0.045433853
83	0x3d08e678	0.033422917
84	0x3c898812	0.016788516
85	0x3d5c33b5	0.05376025
86	0xbc189a4a	-0.009314129
87	0xba2e0c5f	-0.00066394167
88	0xbd3efe87	-0.046629455
89	0xbcd48261	-0.025941076
90	0xbae4284a	-0.0017407027
91	0x3e01becb	0.12670438
92	0x3e0e74ae	0.13911697
93	0xbcddf115	-0.027092496
94	0x3ce233f3	0.027612662
95	0x3c90ce81	0.017676594
96	0x3d053fb1	0.032531444
97	0x3dbc4e99	0.09194679
98	0x3d533a87	0.051569488
99	0x3d2bd262	0.041948684
100	0xbd5694e1	-0.052388076
101	0x3b0a81b5	0.002113444
102	0x3cb7e685	0.022448787
103	0x3bf1218e	0.0073587364
104	0xbd83c7b6	-0.06434576
105	0x3dd0a30d	0.101873495
106	0x3c81a56b	0.015825948
107	0x3cbb753b	0.022883048
108	0xbd392982	-0.0452056
109	0x3df0fb23	0.117666505
110	0xbbb8be35	-0.005637909
111	0x3cd36fdc	0.025810175
112	0x3c975a34	0.01847563
113	0xbc3fda13	-0.011709708
114	0xbd00c8c1	-0.031441454
115	0x3c77a949	0.015116044
116	0x3d6958a8	0.056969315
117	0xbdbaa4cc	-0.09113464
118	0x3cfcab1e	0.030843314
119	0x3cf28cd0	0.02960816

fc2.weight f4 [84, 120]
0	0xbe0a7512	-0.13521221
1	0xbe1a21cc	-0.15051955
2	0x3e763906	0.2404519
3	0x3e6f189b	0.2334923
4	0xbe9bc9d1	-0.3042741
5	0xbed80b3a	-0.42196065
6	0xbd960c78	-0.07326597
7	0x3cd972dd	0.026544029
8	0x3e077b17	0.13230549
9	0xbf6fa66c	-0.93613315
10	0x3ea5d9e7	0.3239281
11	0x3ea5d8d8	0.32392
12	0xbe4ff274	-0.20307332
13	0x3dc43127	0.095796876
14	0xbd0ea2d9	-0.034823272
15	0xbeb4a2cb	-0.3528045
16	0x3d6a22ad	0.057161976
17	0xbda8983d	-0.08232162
18	0x3f500bbb	0.812679
19	0xbe864f1b	-0.26232228
20	0xbe723292	-0.23652104
21	0x3ebed204	0.37269604
22	0x3e82631c	0.2546624
23	0xbf1f57b5	-0.62243205
24	0xbcd6e061	-0.02623004
25	0x3ed56ab0	0.4168296
26	0x3fa98aad	1.3245445
27	0x3eed5fc1	0.46362117
28	0x3eb9cfe5	0.36291423
29	0xbe982d1b	-0.29721913
30	0x3e779fb1	0.24182011
31	0x3e2a670b	0.1664087
32	0x3cc5bfc3	0.02413929
33	0xbe83ffc8	-0.25781083
34	0xbda73876	-0.08165066
35	0xbf0898e1	-0.53358275
36	0xbeb535f7	-0.35392734
37	0x3e8a09a4	0.2696048
38	0xbe659409	-0.22419752
39	0xbe36a7be	-0.17837426
40	0xbc85e49c	-0.016344361
41	0x3e81b0f0	0.25330305
42	0xbd17e55c	-0.03708397
43	0x3edb61f4	0.4284817
44	0xbd66c522	-0.056340344
45	0x3da4674a	0.08027513
46	0x3fa0b28b	1.2554487
47	0xbf0a7f12	-0.54100144
48	0x3e47359b	0.19454043
49	0xbe7421cd	-0.23841019
50	0x3de9d387	0.11417299
51	0x3ec25144	0.37952626
52	0xbedce4f6	-0.43143433
53	0x3e8eeadb	0.27913556
54	0xbe5d381d	-0.21603437
55	0xbf013281	-0.5046769
56	0x3d6c18e4	0.057640925
57	0x3de2f5ba	0.11082025
58	0x3e9b4e87	0.3033335
59	0x3ea1ada7	0.315778
60	0x3e9dc365	0.30813137
61	0x3d8d525d	0.06900475
62	0xbe71abe5	-0.23600729
63	0x3dc664ce	0.09687196
64	0xbecabf49	-0.39599064
65	0x3eb8882d	0.36041394
66	0xbe05d72a	-0.1307036
67	0x3c9b4055	0.018951574
68	0x3eb4a06e	0.35278648
69	0x3f2cf1c8	0.6755643
70	0xbd5723bf	-0.052524325
71	0x3de9055c	0.11377975
72	0xbeb4f29c	-0.35341346
73	0x3ec872f1	0.39150193
74	0xbec46aaa	-0.38362628
75	0x3f0e01a2	0.5547124
76	0xbe5bfeea	-0.21483961
77	0x3e8f01f9	0.27931193
78	0x3f06ad38	0.5260806
79	0xbfb73b5b	-1.4314989
80	0x3ea233d4	0.31680167
81	0xbcb0f670	-0.021601886
82	0xbf180258	-0.59378576
83	0x3eaeacd8	0.34116244
84	0xbed1b927	-0.40961573
85	0x3e75823f	0.23975466
86	0x3e61fc4c	0.220689
87	0x3e0c7684	0.13717085
88	0xbe10e303	-0.14149098
89	0x3f87def0	1.061491
90	0xbf14b8b0	-0.5809431
91	0x3e89d870	0.2692294
92	0xbe3db6a9	-0.1852671
93	0xbdd42a69	-0.103596516
94	0x3ebbaba8	0.366544
95	0x3d08091a	0.033211805
96	0x3df05d1d	0.1173651
97	0x3f1231c2	0.57107174
98	0x3f3d55af	0.7395887
99	0xbe27bc59	-0.16380443
100	0xbe635cde	-0.22203395
101	0x3e848ebe	0.25890154
102	0xbebc5155	-0.367808
103	0xbecd3676	-0.40080613
104	0x3c803dc2	0.015654448
105	0xbe1a1f33	-0.15050964
106	0xbf686acd	-0.90787965
107	0x3e473667	0.19454347
108	0x3d372225	0.044710297
109	0x3e245cb3	0.16050987
110	0xbf758443	-0.9590494
111	0x3e140f6b	0.14459006
112	0x3e92d0fb	0.28675064
113	0x3dc01af3	0.0938014
114	0x3f23b7fc	0.6395261
115	0xbf54d7e9	-0.8314195
116	0xbd7c8f28	-0.061659962
117	0xbc764560	-0.015031189
118	0x3b9a6444	0.0047116596
119	0xbe9ed3b5	-0.31020895
120	0xbe9f24c0	-0.31082726
121	0xbe152916	-0.14566454
122	0xbdc30b08	-0.095235884
123	0x3ee7da84	0.45283902
124	0xbe4cfd01	-0.20018388
125	0x3d2abea4	0.041685715
126	0x3d21afb3	0.0394742
127	0x3d9bff8d	0.07617102
128	0x3d18153b	0.037129622
129	0x3e6760b9	0.2259549
130	0x3e6b1706	0.22958001
131	0xbe02c9e7	-0.12772332
132	0xbf03176e	-0.51207626
133	0xbdf25d32	-0.11834182
134	0xbec1db0d	-0.37862435
135	0xbd49640d	-0.04916768
136	0xbf3ecb13	-0.74528617
137	0x3ec62b5b	0.38704953
138	0x3d460308	0.048342735
139	0x3e92684f	0.28595206
140	0xbf0f29b2	-0.55922997
141	0xbf7fb81a	-0.9989029
142	0x3f18b42f	0.5964994
143	0x3e96960d	0.29411355
144	0x3e90b75c	0.28264892
145	0xbd0558b1	-0.032555286
146	0xbf209363	-0.62724894
147	0xbf1065d2	-0.56405365
148	0x3e274529	0.16334976
149	0x3d44252a	0.047887005
150	0xbf0a690a	-0.54066527
151	0x3e583162	0.21112588
152	0xbcd33774	-0.025783278
153	0x3e92dd71	0.2868457
154	0xbbb3154f	-0.0054651867
155	0xbe50eb57	-0.20402275
156	0x3e1a8109	0.15088286
157	0x3eaadf5a	0.3337353
158	0xbe58a71c	-0.21157497
159	0x3f008a1d	0.50210744
160	0x3c923687	0.017848266
161	0xbebd0b15	-0.36922517
162	0x3ead97d1	0.3390489
163	0x3eb9bf55	0.36278787
164	0x3ed23f93	0.41064128
165	0x3f666e29	0.9001184
166	0x3ed9e6de	0.4255895
167	0xbde9d6b0	-0.114179015
168	0x3e230e49	0.15923418
169	0x3f2f3ed1	0.68455225
170	0x3e6848a2	0.22683957
171	0x3d694c72	0.05695767
172	0xbd8d60bc	-0.06903216
173	0x3e42176d	0.18954249
174	0x3e25b85a	0.16183606
175	0xbe82fc88	-0.2558329
176	0x3e3ed4f0	0.18635917
177	0x3d277638	0.040884227
178	0x3e8d6c73	0.27621803
179	0xbef7263b	-0.48271355
180	0xbe8d4973	-0.275951
181	0xbdf27551	-0.118387826
182	0x3ea6b666	0.32561034
183	0x3eeff89b	0.46869358
184	0x3e14b6b9	0.14522828
185	0xbec4cad3	-0.38435993
186	0xbe38cb98	-0.18046415
187	0x3e4ebcf2	0.20189264
188	0xbf036985	-0.51332885
189	0x3e0499d4	0.12949306
190	0x3ea0a087	0.31372473
191	0xbf09aea3	-0.537821
192	0x3c1ef8b5	0.009702851
193	0x3ddb841b	0.107185565
194	0xbebadba6	-0.36495703
195	0xbc826982	-0.01591945
196	0x3f1ecd2d	0.62031823
197	0x3ddddb79	0.10832877
198	0xbe394d71	-0.18095948
199	0x3f51d588	0.8196645
200	0xbec4d127	-0.3844082
201	0xbaa7a17a	-0.0012789213
202	0x3eea01fd	0.45704642
203	0xbe2b6690	-0.16738343
204	0x3e8c4995	0.2739989
205	0x3d85a536	0.06525652
206	0x3f1dbb4c	0.6161392
207	0xbf04fa61	-0.5194455
208	0x3d99556f	0.07486998
209	0xbe2c9e02	-0.1685715
210	0xbd996105	-0.07489208
211	0x3c2f8fae	0.010715408
212	0xbc6ef309	-0.014584311
213	0xbf203bcb	-0.62591237
214	0xbdc97e28	-0.098385155
215	0xbed638f6	-0.41840333
216	0xbf2275a3	-0.6346075
217	0xbe2e6c4b	-0.17033498
218	0xbe9ab0d9	-0.3021305
219	0x3d1ec8e6	0.03876581
220	0xbebab156	-0.36463422
221	0x3f943f23	1.1581768
222	0xbe1b7de6	-0.15184745
223	0xbeb4a23c	-0.35280025
224	0x3f6144a0	0.8799534
225	0x3e450e89	0.19243826
226	0xbc924b43	-0.017858153
227	0xbde5ccc8	-0.112206995
228	0xbe0aa9ae	-0.1354129
229	0xbc0c42d4	-0.008560855
230	0x3e5fe6be	0.21865365
231	0x3e407a52	0.18796661
232	0x3cbbdd47	0.022932662
233	0xbd84d51c	-0.0648596
234	0xbe840e12	-0.25791985
235	0x3c1cc0c9	0.009567448
236	0xbd756c7b	-0.05991791
237	0xbc92797a	-0.01788019
238	0xbc8c6657	-0.017138643
239	0x3d79bb63	0.06096972
240	0x3aa56095	0.0012617285
241	0x3d3ff739	0.04686663
242	0x3d536100	0.05160618
243	0xbe412419	-0.18861426
244	0xbe33c907	-0.17557155
245	0x3e7c1be1	0.2462001
246	0xbe85f51b	-0.26163563
247	0xbe82e450	-0.25564814
248	0xbcc84d62	-0.024450962
249	0x3e3ff0ac	0.18744153
250	0xbddf6234	-0.10907403
251	0xbde66fb8	-0.112517774
252	0x3ea9910e	0.3311848
253	0xbc833c5c	-0.016019993
254	0xbe3c79f4	-0.18405896
255	0xbe195c96	-0.14976725

fc2.bias f4 [84]
0	0xbe276980	-0.16348839
1	0x3d9a9097	0.075471096
2	0xbca877aa	-0.020564873
3	0xba711b58	-0.0009197495
4	0x3d48db2e	0.04903715
5	0x3d90476e	0.07044874
6	0x3da7368d	0.081647016
7	0xbc88a7fc	-0.016681664
8	0xbb9c940b	-0.0047783903
9	0x3d9cbe69	0.07653505
10	0x3d78156b	0.0605673
11	0x3d1793fa	0.037006356
12	0xbd1bb8a5	-0.038017888
13	0xbd28161e	-0.041036718
14	0xbe126c88	-0.14299214
15	0xbc29ddb2	-0.010367798
16	0x3c2b40a6	0.010452425
17	0xbda213a8	-0.079139054
18	0x3dc4ae74	0.09603587
19	0x3db00e86	0.0859652
20	0x3dd5c8c7	0.10438686
21	0x3c666f87	0.014064676
22	0x3cdd873e	0.027042028
23	0x3d47899b	0.048715215
24	0xbd80f286	-0.06296258
25	0xbd9941c3	-0.07483246
26	0x3d81a15d	0.06329606
27	0xbd0e0be9	-0.034679327
28	0x3ddaa156	0.10675304
29	0x3d961431	0.0732807
30	0xbcb36720	-0.02189976
31	0x3d3d2063	0.046173465
32	0xbcea6d96	-0.028616708
33	0x3bb3185f	0.0054655517
34	0x3b162962	0.002291285
35	0xbdbe85b3	-0.09302845
36	0x3de1f492	0.11032976
37	0x3d05bab1	0.032648746
38	0x3d6926b4	0.056921676
39	0xbd018430	-0.031620204
40	0xbe229e32	-0.15880659
41	0xbcb485ed	-0.022036517
42	0xbd987a36	-0.07445185
43	0xbd398b63	-0.045298945
44	0xbd679f71	-0.05654854
45	0x3e27825c	0.16358322
46	0xb97cc5bd	-0.00024106256
47	0x3e0545af	0.13014863
48	0xbc1e2278	-0.009651773
49	0x3dd7c662	0.105358854
50	0xbc94a6a6	-0.01814587
51	0x3c1365c6	0.008996433
52	0x3ce13243	0.027489787
53	0x3ba476a8	0.0050190277
54	0x3bc961a4	0.006145673
55	0xbcded850	-0.027202755
56	0x3d882673	0.066479586
57	0xbc470ac8	-0.012148567
58	0x3d318b76	0.04334589
59	0xbdf70d20	-0.1206305
60	0x3e15aa46	0.14615735
61	0xbd21d1d9	-0.039506767
62	0x3d349405	0.044086475
63	0x3d419879	0.04726455
64	0xbcba5683	-0.02274633
65	0x3d911400	0.07083893
66	0xbd698854	-0.05701478
67	0x3d97e76b	0.07417186
68	0xbd12f756	-0.03588041
69	0xbc2832c4	-0.01026601
70	0xbd43fef9	-0.047850583
71	0xbd14931c	-0.036273107
72	0x3d4f8df9	0.050672505
73	0xbd3672aa	-0.044542946
74	0x3d5ce12b	0.053925674
75	0xbcb37ba9	-0.021909552
76	0x3d8f17b0	0.0698694
77	0x3c877d22	0.01653916
78	0x3de74027	0.11291533
79	0x3d29a1a3	0.041413914
80	0xbc05d484	-0.008168343
81	0xbdf1e929	-0.1181205
82	0xbd366c67	-0.044536974
83	0x3d48e279	0.049044106

fc3.weight f4 [10, 84]
0	0x3eab3188	0.33436227
1	0xbadbcc0e	-0.0016769187
2	0x3da8b7f6	0.08238213
3	0x3e93a358	0.2883556
4	0x3e681a02	0.22666171
5	0xbf1c8387	-0.61138195
6	0xbf3318c7	-0.6995968
7	0x3ee96491	0.4558454
8	0xbd931b3b	-0.07182928
9	0x3ec5d5ef	0.3863978
10	0xbf112167	-0.5669159
11	0x3e975413	0.2955633
12	0xbee2e3b7	-0.44314358
13	0x3f10b8b8	0.5653186
14	0x3f1b10bc	0.6057241
15	0x3d29d088	0.041458637
16	0x3dbbe5f6	0.09174721
17	0x3ea64097	0.32471153
18	0x3e1c248b	0.15248315
19	0xbf0a7448	-0.5408368
20	0x3eafcb68	0.34334874
21	0x3e6d8085	0.23193558
22	0xbf47bb19	-0.78019863
23	0x3de5c9ad	0.11220107
24	0x3e9a736d	0.30166188
25	0xbf1011c0	-0.56277084
26	0xbee278b2	-0.44232708
27	0xbf8aa84a	-1.0832608
28	0xbeedbe48	-0.46434236
29	0x3ed7b4ed	0.42130223
30	0xbdd37d53	-0.10326638
31	0x3e39ef31	0.1815765
32	0x3e47a060	0.19494772
33	0x3d1f192c	0.038842365
34	0x3ef03288	0.46913552
35	0x3deed70e	0.11662112
36	0xbee9b575	-0.45646253
37	0x3e6df32a	0.23237291
38	0xbef4fc04	-0.47848523
39	0x3e83a953	0.25715122
40	0x3e967b0b	0.2939075
41	0x3e1cadb3	0.15300636
42	0x3db89f73	0.090147875
43	0xbc934f78	-0.01798223
44	0x3ea341f1	0.31886247
45	0x3d4d77f0	0.05016321
46	0xbedfc8a6	-0.4370777
47	0xbf611c5f	-0.87933916
48	0x3f0e2112	0.5551921
49	0xbefe898b	-0.49714312
50	0xbe11a7b4	-0.1422413
51	0xbf5f870e	-0.8731545
52	0x3e6f9fa7	0.23400746
53	0xbfa48220	-1.2852211
54	0xbf420276	-0.75785005
55	0xbec3658a	-0.38163406
56	0xbe4b2988	-0.19840062
57	0xbef6a3b7	-0.4817178
58	0x3e47ea30	0.19522929
59	0xbe208182	-0.15674403
60	0xbdd15004	-0.1022034
61	0x3e98d7af	0.29852054
62	0xbf39cd6e	-0.72579086
63	0xbf1e9c9e	-0.6195773
64	0xbeb6387c	-0.3558997
65	0x3e8cb6a4	0.27483094
66	0x3e882f20	0.26598454
67	0x3f20ee1e	0.6286334
68	0x3ea572cb	0.32314143
69	0xbf5374cd	-0.826001
70	0x3e74e173	0.23914127
71	0x3f33bfc2	0.70214474
72	0xbef7afe8	-0.48376393
73	0x3d95b69a	0.07310219
74	0xbcbf716c	-0.023369513
75	0x3eef71bc	0.4676646
76	0x3e8a52e7	0.27016374
77	0x3e05ad37	0.13054357
78	0xbf0fd531	-0.5618468
79	0x3d989fe9	0.074523754
80	0x3e883126	0.26599997
81	0x3dacd368	0.0843876
82	0x3e96a429	0.2942212
83	0xbf552126	-0.83253706
84	0x3f18c732	0.5967895
85	0x3e9bd67d	0.3043708
86	0x3d6cd729	0.05782238
87	0x3ee27278	0.44227958
88	0x3e7c56a3	0.24642424
89	0x3e456a09	0.1927873
90	0xbf90bdde	-1.1307943
91	0xbf290afb	-0.6603238
92	0x3ea0eb5a	0.3142956
93	0x3e84b875	0.2592198
94	0xbe22d961	-0.15903236
95	0xbe12ab83	-0.14323239
96	0xbedd2fbc	-0.4320048
97	0x3ec1b6a3	0.37834653
98	0xbeab2e6e	-0.3343386
99	0xbf1b04b7	-0.6055407
100	0x3e545b61	0.20737983
101	0x3d6b148c	0.057392642
102	0xbf1a8275	-0.6035531
103	0xbf05a3f9	-0.5220333
104	0x3d7522ac	0.05984752
105	0x3e388c04	0.18022162
106	0xbf75026e	-0.9570683
107	0x3e54baef	0.20774435
108	0xbe8befe9	-0.27331474
109	0xbf0d73d9	-0.55254894
110	0xbeb90a8e	-0.36140865
111	0x3f85b47e	1.0445707
112	0x3e375814	0.17904693
113	0x3ea856ae	0.3287863
114	0x3efcd990	0.49384737
115	0xbf5482cf	-0.830121
116	0xbf9be881	-1.218033
117	0x3e9b1111	0.30286458
118	0x3e9a93c5	0.30190864
119	0x3e02a2b6	0.12757382
120	0xbf14a562	-0.58064854
121	0x3bc3eb39	0.0059789685
122	0x3eafe77b	0.34356293
123	0x3de252cd	0.11050949
124	0xbe1d9a80	-0.15390968
125	0xbebefec3	-0.37303743
126	0xbf422d4f	-0.75850385
127	0x3f0bd27c	0.5461805
128	0x3ebe095f	0.37116525
129	0xbf3ebed9	-0.7450996
130	0xbe904e6f	-0.2818484
131	0x3ee5d221	0.44886878
132	0xbf0ffd62	-0.56246006
133	0xbf67cad1	-0.9054385
134	0x3ec9b033	0.39392242
135	0xbeaae7eb	-0.33380064
136	0xbf321e9a	-0.69577944
137	0x3f2d12c9	0.6760679
138	0x3e916d05	0.28403488
139	0x3f3492e9	0.7053667
140	0x3e6e8033	0.23291092
141	0x3e82f808	0.25579858
142	0xbf57300e	-0.840577
143	0xbe104ed5	-0.14092572
144	0x3e197672	0.1498659
145	0xbf10f8db	-0.56629723
146	0x3f47a429	0.77984864
147	0x3eef21cd	0.46705475
148	0xbe528cb6	-0.2056149
149	0xbe1c6df1	-0.15276314
150	0xbf783704	-0.9695895
151	0x3f0bdffd	0.54638654
152	0x3f06ed69	0.5270601
153	0x3f042841	0.5162392
154	0xbe53c86b	-0.20681922
155	0xbf5edb15	-0.8705304
156	0x3ef61d0c	0.48069036
157	0x3e9bc9a6	0.30427283
158	0xbf5856cc	-0.8450744
159	0xbe36cbbc	-0.17851156
160	0x3e9a6734	0.30156863
161	0x3e02a69b	0.12758867
162	0x3f01b8ee	0.50672805
163	0x3e64802f	0.22314523
164	0xbf2e581d	-0.681032
165	0xbf9f611d	-1.2451512
166	0xbf4010f7	-0.75025886
167	0xbdcf532d	-0.101232864
168	0xbf47fd26	-0.7812065
169	0x3dd99a55	0.106251396
170	0x3e92a90c	0.28644598
171	0xbf43617a	-0.7632061
172	0x3e25f2a2	0.16205838
173	0x3e97f2bf	0.29677388
174	0xbcc0a7a7	-0.023517443
175	0x3e98df41	0.2985783
176	0x3f53002b	0.8242213
177	0x3ebef377	0.37295124
178	0xbdc59e47	-0.0964933
179	0x3eafefd5	0.34362665
180	0x3f02d90b	0.5111243
181	0xbf1d5399	-0.61455685
182	0xbf999feb	-1.2001928
183	0xbf7693b0	-0.96319103
184	0xbbd2acc5	-0.006429287
185	0x3d521c53	0.051296543
186	0x3e523af4	0.20530301
187	0xbedd6349	-0.4323981
188	0x3e9d3b35	0.30709234
189	0x3d6fd960	0.058556914
190	0xbeec55a1	-0.4615908
191	0x3c796fc5	0.015224402
192	0xbeec6373	-0.46169624
193	0x3e5814ad	0.21101637
194	0xbe5ee142	-0.21765617
195	0xbf5fc4e7	-0.87409824
196	0xbf2d5074	-0.67700887
197	0xbe89ff90	-0.2695279
198	0x3d548400	0.051883698
199	0x3d265a5c	0.040613517
200	0x3e644c2c	0.22294682
201	0x3ee1a07f	0.4406776
202	0xbf675424	-0.90362763
203	0x3d959f25	0.07305745
204	0x3e8913dc	0.26772964
205	0xbed97ed0	-0.42479563
206	0xbeeb6b32	-0.4598022
207	0x3e161468	0.14656222
208	0xbeb9479b	-0.36187443
209	0xbf4d3696	-0.80161417
210	0x3e68e90e	0.22745153
211	0xbf1e3fd7	-0.6181616
212	0xbf52d297	-0.82352585
213	0x3e882333	0.26589355
214	0x3e807673	0.2509037
215	0x3e8eab1c	0.2786492
216	0x3dbeee16	0.09322755
217	0x3ea48de2	0.32139498
218	0xbcef1e5a	-0.029189277
219	0x3d8b75b9	0.06809563
220	0x3d6ff55b	0.0585836
221	0xbefe4a0f	-0.49665877
222	0xbeee78dc	-0.46576583
223	0x3ebc5562	0.36783892
224	0x3f15f971	0.5858374
225	0x3ea16b13	0.31527004
226	0xbf7d255c	-0.9888513
227	0xbe5efe8c	-0.2177679
228	0x3e0c06b5	0.13674434
229	0x3e50f263	0.20404963
230	0xbea77502	-0.32706457
231	0xbed789eb	-0.4209741
232	0x3ea212d6	0.31654996
233	0x3d9e963c	0.07743499
234	0x3db41d9e	0.087947115
235	0x3f181c6d	0.59418374
236	0x3e99c61f	0.30033967
237	0xbc468bfa	-0.012118334
238	0xbdbeeb49	-0.09322221
239	0xbf4e8a83	-0.806801
240	0x3eaadbc1	0.33370784
241	0x3bcb1a1a	0.00619818
242	0xbf8d846e	-1.1056039
243	0x3e5ba8d8	0.21451128
244	0x3da89fec	0.08233628
245	0x3b3741f9	0.0027962907
246	0x3e96d66b	0.29460463
247	0x3df4824c	0.11938915
248	0xbf2a3c92	-0.6649867
249	0xbf11e7ab	-0.5699412
250	0x3e7a7135	0.24457248
251	0x3d94f7ba	0.072738126
252	0xbdf86b3e	-0.1212983
253	0x3e11fb94	0.14256126
254	0xbd80fa17	-0.06297701
255	0x3dd0def9	0.10198779

fc3.bias f4 [10]
0	0x3d90ef67	0.070769124
1	0x3e1b148e	0.1514456
2	0xbd810930	-0.063005805
3	0x3991278e	0.00027686026
4	0x3d8c8f5c	0.06863281
5	0xbd5a0f47	-0.053237226
6	0x3d4ba51e	0.049718015
7	0x3b956919	0.0045596478
8	0x3c69fdc4	0.014281694
9	0xbc94af7c	-0.018150084
