best_model_10.pth (torch, 250594 bytes, 10 tensors)

conv1.weight f4 [6, 1, 5, 5]
000000 ec 5b af 3e 39 4b 85 3d b2 04 81 3d dd 66 bd 3e
       0.34249818 0.06508488 0.06299724 0.3699254
000010 87 90 c0 3e 1b fb 2d 3e 3f 6d d5 be 59 fe 26 bf
       0.37610266 0.1699032 -0.4168491 -0.65231854
000020 4b 78 81 3c 7a ee c0 3e 3b 26 da be 08 60 9e bf
       0.01580443 0.37681943 -0.42607293 -1.2373056
000030 4f 58 e9 bf 17 01 47 bf ce a8 84 3e f5 da 3f bd
       -1.8230075 -0.7773604 0.25910038 -0.046839673
000040 23 bd 8b bf 44 37 ba bf d5 01 d9 be 64 a8 9d 3e
       -1.0917095 -1.4548116 -0.4238421 0.30792534
000050 71 0d 8e 3e 1d 78 0e be 2a 03 44 bf 2e 51 07 3c
       0.2774463 -0.13913007 -0.7656733 0.008259101
000060 48 84 b4 3e c0 fc df 3e 35 c9 80 be af 11 3c bf
       0.35257173 0.4374752 -0.2515351 -0.73464483
000070 f5 08 1a bf 70 3b 6c bc da 84 0c 3f 8f ad 35 bd
       -0.6016992 -0.014418468 0.54890215 -0.04435497
000080 aa f8 6f bf 39 b2 40 bf 7b 0c e3 bb 42 f5 e5 3e
       -0.93738806 -0.75271946 -0.006928978 0.4491368
000090 17 32 35 be 1c dd 6e bf bc e9 2a bf 55 89 ab 3e
       -0.17694889 -0.93306136 -0.667629 0.33503214
0000a0 f4 18 23 3f 97 6d 1e bd 70 9e cc be 70 48 f4 be
       0.6370995 -0.03867873 -0.39964628 -0.47711515
0000b0 c6 e2 0d 3f 77 a8 1f 3f 20 3a d1 3d e6 77 de be
       0.55424154 0.6236643 0.102161646 -0.4345085
0000c0 f3 a9 87 bd b0 9e 8d 3e bc 4b 6e 3e aa 90 22 bb
       -0.06624212 0.2766013 0.23271078 -0.0024805465
0000d0 92 dc 1a bf fd fa 77 be d8 50 7d 3e 51 fe c0 3e
       -0.60492814 -0.24216838 0.2473787 0.37694028
0000e0 f0 c1 92 be c6 40 d9 be 87 08 ec be 9c 8b 02 bc
       -0.28663588 -0.4243223 -0.46100256 -0.007967856
0000f0 30 8c dc 3e a7 1d c9 bd 70 3d 27 bf 35 53 5f bf
       0.43075705 -0.09820109 -0.6532812 -0.8723634
000100 b9 d2 62 3e 10 5a f1 3e 12 58 33 3e 2c c8 2f bf
       0.22150697 0.47139025 0.17514065 -0.68664813
000110 40 15 2a bf df c1 d0 3c 79 2e 33 3f 07 b0 e4 3b
       -0.66438675 0.02548307 0.69992787 0.006978992
000120 5d fd ad be 77 50 1b bf 86 27 7e 3e 6a 79 84 3e
       -0.33982363 -0.60669655 0.24819764 0.25873882
000130 f0 09 6a 3e e9 27 0c 3e 3a f8 e7 3d 12 72 d8 3b
       0.22855353 0.136871 0.11326642 0.006605395
000140 da ba b3 3e dc 3e 86 3e a0 5e 09 be 49 75 74 be
       0.35103494 0.26219833 -0.13415003 -0.23872866
000150 45 81 7f be f3 5f c4 bc 77 8b 3a bc 57 75 18 be
       -0.24951656 -0.023971533 -0.01138579 -0.14888512
000160 00 25 b2 be 01 c5 93 be 81 29 72 3d ac 27 28 bd
       -0.34793854 -0.2886124 0.059121612 -0.04105346
000170 42 ee 44 be ab 42 9d be 38 fe 51 be 00 da 62 3d
       -0.19231513 -0.30714926 -0.20507133 0.055383682
000180 52 c2 34 be 56 a9 95 bd 3e d5 20 be 14 3a 2c be
       -0.17652252 -0.07307689 -0.15706345 -0.1681903
000190 07 ad 37 be be 5e ce be ce 51 6d be 6c b3 e7 be
       -0.17937098 -0.40306658 -0.23175737 -0.45254076
0001a0 4c 82 41 bd 9a da 10 bf 69 9d 82 bf 31 d4 c7 bf
       -0.0472434 -0.5658356 -1.0204288 -1.5611631
0001b0 35 24 95 bf 47 59 18 be f2 fa c1 be 4d 33 ba bf
       -1.1651675 -0.14877807 -0.3788677 -1.4546906
0001c0 1f 50 e5 bf 84 e0 c8 bf 68 a7 c8 be 68 08 91 3e
       -1.7915076 -1.5693517 -0.3919022 0.28326726
0001d0 b3 8c 1f bf 87 e7 75 bf 6d 30 93 bf cd 24 5a be
       -0.62324065 -0.9605641 -1.1499153 -0.21303101
0001e0 fb 68 d3 3e ea 51 6d 3d d5 95 b2 be d8 2d 1d be
       0.4129103 0.057939447 -0.34879938 -0.15349519
0001f0 99 1a c9 3d 3f bb ce bd 8e f3 04 bf 87 5a f1 be
       0.09819526 -0.10094308 -0.51934135 -0.4713938
000200 db 63 2d bf 51 61 9d bd 6e 8b 4f bf 34 0d be bf
       -0.6773049 -0.07684577 -0.8107213 -1.4847779
000210 4c 83 b3 bf 3e fe ad bf d6 cf 0d bf 0a 42 7f bf
       -1.4024444 -1.3593214 -0.5539526 -0.9971014
000220 9d ca e8 bf 7c 14 e6 bf 3f ac a3 bf 3d 3f d9 be
       -1.8186833 -1.7975001 -1.278694 -0.4243106
000230 60 86 b3 be f5 e6 94 bf ae e5 c0 bf d9 10 85 bf
       -0.35063457 -1.1632982 -1.5070093 -1.0395766
000240 a4 70 80 be 46 95 5d 3e 33 c2 bd be 67 ac 15 bf
       -0.25085938 0.21638975 -0.37062225 -0.5846619
000250 86 8b 91 be b9 28 32 be
       -0.2842676 -0.17398347

conv1.bias f4 [6]
000000 bd c7 b4 3e 7a cb 7b 3d 3b c1 ab 3e e8 94 43 bb
       0.35308638 0.061473347 0.3354586 -0.0029843394
000010 86 da b9 3e 10 ef a1 3d
       0.36299533 0.07906926

conv2.weight f4 [16, 6, 5, 5]
000000 d8 c0 66 3d 43 5d ca bd 2d b5 e0 be 86 34 e1 be
       0.056336254 -0.098810695 -0.43888226 -0.43985385
000010 69 fc 5d be 00 4b 58 3d 16 4b de bd 1c 2c 0b be
       -0.21678318 0.0528059 -0.10854165 -0.13591045
000020 56 ee d1 bd d8 04 aa bd 19 55 90 bd 21 87 f7 bd
       -0.10250537 -0.08301705 -0.07047481 -0.12086321
000030 45 77 79 bd 64 3b b5 3c d5 96 42 bd 47 36 a4 bc
       -0.06090476 0.022123046 -0.047507126 -0.020045413
000040 9f 45 23 bc c2 32 1d 3d 7c 7f 50 3e 56 65 94 3d
       -0.009965329 0.038378485 0.20361131 0.07245891
000050 51 98 32 3c 30 27 fd 3d a1 a6 cb 3e 19 e6 c2 3e
       0.010900573 0.1236099 0.39775565 0.38066176
000060 12 4f 80 3e 92 2f 98 bc 9b 6e 81 be 2b 1a e9 be
       0.25060326 -0.01857737 -0.25279698 -0.45527777
000070 1d 46 ee be 7a 0c 45 be fe b2 28 be 8e dd 7e be
       -0.46537867 -0.1924304 -0.1647453 -0.24889204
000080 d9 56 d1 be 44 ef 87 be 25 0e 3c be 43 a2 90 bc
       -0.40886572 -0.26549733 -0.1836477 -0.017655497
000090 02 f2 22 be 27 1e 19 be 9f af da bd c8 cc a8 bd
       -0.15912631 -0.14952908 -0.10678028 -0.08242184
0000a0 5a b8 e2 bd d6 dc 19 bc dd f3 36 3d 10 b6 a1 3d
       -0.110703185 -0.00939103 0.04466616 0.07896054
0000b0 24 b0 85 3c c5 e6 65 bd 0f 12 59 3e dc f0 7f 3e
       0.016319342 -0.056128282 0.21198295 0.24994224
0000c0 d9 36 45 3e f0 86 ee 3d 7f 43 16 3d b6 45 8e be
       0.19259204 0.11646831 0.036685463 -0.2778756
0000d0 6b 09 a0 be 4f de ad be e2 78 77 bd 6f c3 2a bc
       -0.31257185 -0.3395867 -0.060418017 -0.010422572
0000e0 c6 08 83 be 56 03 9e be f0 81 40 be 74 ea a0 bd
       -0.2559263 -0.3086192 -0.18799567 -0.078572184
0000f0 cc 18 a8 bc 68 2e 0e be 16 3e 81 bd 73 f2 9c bd
       -0.020519637 -0.1388489 -0.0631067 -0.07663431
000100 85 ea 01 3d 9b b7 b2 bd 07 9c 85 bc 83 2c 68 3e
       0.031717796 -0.08726426 -0.016309751 0.2267323
000110 e5 0c ef 3d 8f b8 f5 3c e2 03 4c 3d c8 86 23 3e
       0.11672381 0.029995231 0.04980839 0.15969384
000120 6a a1 e4 3e 58 cd b8 3e 63 55 47 3e db 91 9b 3d
       0.446544 0.36094165 0.19466166 0.07596179
000130 fd 66 56 3d 0c 30 c1 3d fa fc 6e 3e b7 54 af 3e
       0.05234431 0.09432992 0.2333869 0.3424432
000140 93 c0 39 3e fc 73 33 3e 0e d0 91 3e 01 03 5f 3e
       0.18139867 0.17524713 0.28479046 0.2177849
000150 ec fd 93 3e dd 7f c6 3d 91 75 24 3e 2e a6 2c 3e
       0.28904665 0.09692357 0.16060473 0.16860268
000160 5b dd 40 3e 93 8f c7 3d ab 72 93 3d 6c 98 39 3e
       0.1883444 0.097441815 0.071996056 0.1812455
000170 ea f1 86 3e 88 35 80 3e 25 84 0e 3e ce 54 01 3e
       0.2635644 0.2504084 0.13917597 0.12630007
000180 01 70 bd 3e d7 af a1 3e 1f 6e 69 3e 3e 96 fd 3d
       0.36999515 0.31579468 0.22795914 0.12382172
000190 ad 65 93 3d e5 6a 9e be 67 36 f8 be f7 4e fb be
       0.071971275 -0.3094093 -0.48479006 -0.49083683
0001a0 27 8a 62 be 8c 93 8b bd 1b 7b 71 be f2 a6 88 be
       -0.22123013 -0.06815252 -0.23582117 -0.2668987
0001b0 04 19 5c be 03 08 2a be 7d 23 46 bd cb 63 10 be
       -0.21493918 -0.16604619 -0.048373688 -0.14100568
0001c0 1d 1d 08 bd 2c 31 80 bd ad 82 6c bc 9d 57 d1 bd
       -0.03323089 -0.06259379 -0.014435452 -0.10221789
0001d0 2f 1a a7 bd 03 a6 4d 3c 7d ed a5 3d 18 4e c4 3d
       -0.08159291 0.012551787 0.08101938 0.09585208
0001e0 ad 60 82 3d 50 53 24 3e 52 0e af 3e a7 b8 68 3e
       0.06366096 0.16047406 0.34190613 0.2272669
0001f0 34 17 ab 3d 51 ee 79 bb ee 4f 74 be bc d4 26 bf
       0.08354035 -0.0038136432 -0.23858616 -0.65168357
000200 57 d6 0e bf b3 78 b1 be 7c 32 0b be c2 24 6c be
       -0.55795807 -0.346624 -0.13593477 -0.23060897
000210 5a 1c c3 be d6 70 ba be 99 5c ac be f9 59 17 be
       -0.38107568 -0.36414212 -0.33664396 -0.14780416
000220 7d b4 3f be c0 4a 8c bd d4 7d 0d be 3f 5d 20 be
       -0.18721195 -0.06850195 -0.13817531 -0.1566057
000230 1d 9e e9 bd 4d 8b 68 be bf f0 b1 3c e2 1b f3 bd
       -0.11407111 -0.22709389 0.021721242 -0.118705526
000240 e0 35 4f bd a8 6a db bd 68 2d da 3c 82 6d fb 3d
       -0.05058849 -0.107137024 0.02663298 0.12276746
000250 bb ce f8 3d cd 57 b5 3d 1a 69 1a 3e 25 41 cc be
       0.12148806 0.08854637 0.15079156 -0.3989345
000260 92 4e 61 bf 97 2c f3 be 55 09 2a 3d ab a6 5e bc
       -0.88010514 -0.47494957 0.041512806 -0.013589541
000270 e6 dd ca be 9c 77 39 bf 9c 20 ce be 20 75 1a 3d
       -0.3962242 -0.72448134 -0.40259254 0.037709355
000280 62 c9 e3 3d b6 d8 58 be e0 4c d7 be b9 b7 b1 be
       0.11122395 -0.21176419 -0.42050838 -0.34710482
000290 24 77 3d 3d 51 fe 93 3d 88 13 ba bb 40 ee fe 3d
       0.0462562 0.072262414 -0.005678598 0.12447786
0002a0 2b 5d b9 3c 71 d3 e3 3d c8 e3 02 3e 40 85 b2 3d
       0.022627434 0.111243136 0.12782204 0.08716822
0002b0 e7 a2 b8 3e 73 b3 03 3e 14 1d 85 3d 83 32 a6 bd
       0.36061785 0.12861423 0.06499687 -0.08115103
0002c0 fc c9 59 bf 62 1d 65 bf ab be 9d be 13 9f f8 3c
       -0.8507383 -0.8949796 -0.3080953 0.03034929
0002d0 d4 64 55 be 07 13 53 bf e8 cd 83 bf 19 f5 a4 be
       -0.20839244 -0.8245091 -1.0297213 -0.32218245
0002e0 88 02 86 3c 3b 5a 14 be 99 72 43 bf 69 0d 8b bf
       0.016358629 -0.14487545 -0.7634674 -1.0863467
0002f0 79 fa a2 be ab d7 84 3d de ce ad 3d d6 6a d9 be
       -0.3183172 0.06486448 0.084867224 -0.42464322
000300 19 8f 0f bf df eb 61 be 5c 25 18 3e 94 3e 25 3e
       -0.56077725 -0.22062634 0.14858001 0.16137153
000310 48 1e d4 bd 5d de 38 be 4a a1 ab bd 1e f9 54 3e
       -0.10357338 -0.18053575 -0.08380373 0.20798156
000320 b1 99 24 be 5c 2f 41 bf 34 4d 59 bf ce 22 8e be
       -0.16074254 -0.7546289 -0.8488343 -0.2776093
000330 df 84 5f 3d 83 19 2d be bb ba 36 bf 81 cc 5f bf
       0.054570075 -0.16904263 -0.7137868 -0.87421423
000340 19 e5 87 be 7e 74 a9 3c 1c 1c 33 be 91 2c 14 bf
       -0.26541975 0.02068543 -0.17491192 -0.578805
000350 e7 c7 45 bf ad bd ba bd 8d d8 9e 3d 73 56 f0 3d
       -0.7725815 -0.09118209 0.077561475 0.11735239
000360 3c d8 62 be 77 eb aa be d6 24 e9 bb 06 26 31 3e
       -0.221528 -0.3338277 -0.007114987 0.17299661
000370 d5 6e ef 3d 65 94 c9 3c fe 88 42 bd e6 de cf bc
       0.116910614 0.024606893 -0.047493927 -0.025374841
000380 8a 39 f3 3d e3 b8 7e 3d 05 26 0b 3e db b8 86 3e
       0.11876209 0.06218804 0.13588722 0.2631291
000390 a7 68 6c 3e 5f 75 9a 3e 01 bf 90 3d 7f e0 19 3e
       0.23086797 0.30167672 0.07067681 0.15027045
0003a0 a1 00 96 3e 95 62 9c 3e b7 de 8c 3e db a5 10 3e
       0.29297355 0.30543962 0.27513668 0.14125769
0003b0 ef 9e 24 3e 40 3e 1e 3e 2b 33 67 3e b9 05 95 3e
       0.16076253 0.15453434 0.22578113 0.2910593
0003c0 7f 49 66 3e 91 83 80 3e ba 58 75 3e 98 2d b8 3e
       0.22488974 0.25100377 0.23959628 0.35972285
0003d0 55 ea 82 3e b2 cc 8b 3e 4d 69 8c 3e ad f9 2f 3e
       0.25569406 0.27304608 0.27424088 0.17185088
0003e0 d2 90 8d 3e 1c 08 77 3e 07 39 65 3c cc b7 21 bf
       0.27649552 0.24124187 0.013990647 -0.63171077
0003f0 cd 48 6c bf 17 47 c4 be b1 39 c3 3d e5 fc 9d 3c
       -0.92298585 -0.38335487 0.09532488 0.019285629

conv2.bias f4 [16]
000000 73 9b 1d 3e ef 84 77 3e f9 20 89 3e 0e f1 a1 be
       0.1539133 0.24171804 0.2678297 -0.31629223
000010 79 3d f6 bd f6 ec b3 3d c0 fc fe bd 57 95 09 3e
       -0.12023444 0.08785431 -0.12450552 0.13435875
000020 72 06 7e 3e 3f db 80 3e 5d 3e 15 3e fb 43 5a 3d
       0.24807146 0.25167271 0.14574571 0.053287487
000030 aa 29 20 3e 08 2e 06 3e 0d 6b 9a 3e 6f 84 87 be
       0.15640894 0.13103497 0.30159798 -0.26468226

fc1.weight f4 [120, 400]
000000 6b 92 b0 bd 38 03 93 be 5f 51 aa be 32 30 cc be
       -0.08621677 -0.28713393 -0.33265206 -0.3988052
000010 b0 4d b1 bd 5d d8 2f 3e 82 db 82 3d 52 8c 91 bb
       -0.08657396 0.1717238 0.06389524 -0.0044417763
000020 53 12 5e bc c8 cf b9 bd e1 b7 5b 3e 9c e2 f8 3d
       -0.0135541735 -0.09072834 0.21456863 0.12152597
000030 b1 f6 1b 3d 50 e2 c4 bd 10 ef 5d 3c 2c e4 a2 3d
       0.03807706 -0.09613478 0.0135457665 0.079536766
000040 3c 80 53 3e e1 14 3d 3d 48 c2 44 bb e2 d0 c7 3d
       0.20654386 0.04616249 -0.0030023027 0.09756638
000050 0a 79 ca bc db 84 b2 bd e5 92 45 bd dc ee 0c bc
       -0.024715919 -0.087167464 -0.048235793 -0.00860187
000060 ac c1 38 bc 8e e1 40 be 4c 43 c8 be 58 ec eb be
       -0.011276644 -0.18836042 -0.39113843 -0.46078753
000070 65 fc 1d bf e0 b5 9c be 36 92 13 be 71 28 d1 3d
       -0.6171325 -0.3060751 -0.14411244 0.10212792
000080 f2 f6 0f bd b4 42 06 be be 2e 00 be 76 79 d7 3d
       -0.035147615 -0.13111383 -0.1251783 0.10521214
000090 e6 62 8f 3d 4c f0 34 3d 8e 86 8e bd 39 e7 24 3e
       0.07001285 0.044174477 -0.06959258 0.1610383
0000a0 97 6a 11 3e 72 a0 83 bc f9 fe 17 3e d8 cd 27 bc
       0.14200817 -0.016067717 0.14843358 -0.010241948
0000b0 1c da 46 3e 09 c2 04 3e cf b4 09 be 1e 2d d7 3d
       0.1941914 0.12964644 -0.13447879 0.10506652
0000c0 0f 8c 10 3c 1c 55 65 3c f6 14 f4 be d1 b1 d6 be
       0.008822455 0.013997342 -0.47672242 -0.41932538
0000d0 95 2f db be 2a 00 e5 be ab 61 6a 3d 48 0c c3 bd
       -0.4280974 -0.44726688 0.05722205 -0.09523827
0000e0 9d 2c 70 bd c8 c1 b7 bd ed 8b 9b bc a1 f0 2a be
       -0.058636297 -0.08972508 -0.01898762 -0.16693355
0000f0 ba 79 b3 3d f1 0b 74 bb 42 34 a5 bd ca 3f a0 bb
       0.08763452 -0.0037238563 -0.08066608 -0.0048904167
000100 20 71 5c 3e 1b b7 86 3d cd 58 ea 3c b4 fe 4e 3d
       0.21527529 0.06577893 0.028606797 0.050535873
000110 15 64 9e 3d d1 05 cd 3d b8 fd d7 3b c8 b8 c2 3d
       0.07733933 0.10010875 0.006591525 0.095079005
000120 3b 85 7f 3e 4e 7f 17 3d 91 aa 99 bd b5 e5 d1 3d
       0.24953167 0.03698664 -0.07503236 0.10248891
000130 14 83 0f 3e 04 11 a7 3e 42 36 ad 3e 30 09 e0 3d
       0.14014846 0.3263017 0.33830458 0.109392524
000140 5b fa a0 3c b9 d9 e4 3c 30 55 e4 3d b6 4e 8f 3d
       0.019650629 0.02793585 0.11149061 0.06997435
000150 8b d5 fd bc 0a 85 6c bd bc 07 14 3c 6c 9c c5 3d
       -0.030985614 -0.057744063 0.009035047 0.09648976
000160 ec c4 2d 3e 52 19 01 bd ac 23 88 bc 3d 2f b6 bc
       0.16969651 -0.031518288 -0.016618572 -0.022239322
000170 aa d5 0c be 37 47 19 3c aa 4f bf 3c 1c e5 13 3d
       -0.13753381 0.009355358 0.023353416 0.036107168
000180 11 da 31 be b0 dd b7 be 59 2f ad bd 90 5b 4f 3e
       -0.17368342 -0.35911322 -0.084562965 0.20249772
000190 0f 19 d7 bd 81 19 07 bd 91 c2 c3 3b 27 d7 1d bd
       -0.105028264 -0.032983307 0.005974122 -0.038535263
0001a0 a1 4c 97 bd 03 0f e4 bb db 71 1e bc ba 34 fb bb
       -0.07387663 -0.0069597973 -0.0096707 -0.0076661976
0001b0 fa a4 f4 3d b8 53 0b 3e c6 97 c9 3c 6c a6 93 3a
       0.11945529 0.13606155 0.024608504 0.0011264808
0001c0 01 18 0b be bf e7 d2 3c a4 dc f6 3d 71 ef 90 3d
       -0.13583376 0.02574527 0.120538026 0.0707692
0001d0 92 b8 73 3e d8 ce ac bd 75 56 60 bc 7b b0 07 be
       0.23800877 -0.0843789 -0.013692488 -0.13250916
0001e0 56 84 6b 3d 1a e7 96 3e 86 5b d6 be ef 5f 08 bf
       0.057499252 0.29473191 -0.41866702 -0.53271383
0001f0 ed 61 2a be fa 97 d8 bd f0 8f 74 be 48 72 5e be
       -0.16638918 -0.10575862 -0.23883033 -0.21723282
000200 78 8a 90 be 43 a9 04 3d 3e 16 23 3d 5c c0 0a ba
       -0.28230643 0.032387983 0.039816134 -0.0005292946
000210 22 87 31 be 54 90 9e bd c4 a6 3c be c7 75 1b 3e
       -0.17336705 -0.07742372 -0.18422991 0.15181647
000220 03 ac 1e 3d d7 db cf 3c f8 ae 5e bd fd 84 08 3e
       0.038738262 0.025373382 -0.054366082 0.13331981
000230 f3 10 9c 3d 4c cc 9e 3d ab 05 d0 3d df 7a 23 bd
       0.0762042 0.0775381 0.10157331 -0.0399121
000240 1b c8 b1 3d 7d da 18 be 94 44 30 3d 84 f0 50 3e
       0.08680745 -0.14927097 0.04303415 0.2040425
000250 65 97 b7 3b ab d7 bf be c7 07 22 3c 73 16 5f 3e
       0.0056027644 -0.3746923 0.00988955 0.21785907
000260 2c 20 81 3e ff e5 84 3e 2b 91 a0 3d 83 36 48 bd
       0.25219858 0.25956723 0.078401886 -0.04888011
000270 fa aa d0 bb 3c 81 2c 3e 2f 9c bb bc 8f 0f 04 3e
       -0.0063680382 0.16846174 -0.022901623 0.1289656
000280 bb 16 18 be 1e 80 02 be 0c a6 9a bd 70 92 35 3e
       -0.14852421 -0.12744185 -0.07551202 0.17731643
000290 5d 76 1f bd fc 02 3e ba 2c 03 c6 bb e6 78 c0 be
       -0.03893124 -0.00072483695 -0.0060428586 -0.37592238
0002a0 5b 38 aa bb 82 ab c9 3d 07 30 d8 3d f9 af 44 be
       -0.0051947064 0.09847166 0.105560355 -0.19207753
0002b0 54 96 24 bf ab df a0 bc a8 68 f3 3e f6 04 b3 3c
       -0.6429188 -0.019637903 0.47540784 0.021852951
0002c0 3a 30 34 be 20 8f 0c be c5 ea ed bd 80 51 0b be
       -0.17596522 -0.13726473 -0.11617044 -0.13605309
0002d0 f2 40 3a 3e 9e 99 ed 3c 69 1b de bd 9c 4e c0 bb
       0.18188837 0.029003914 -0.10845072 -0.005868746
0002e0 19 cf 1a be 6a 06 5a 3e 50 ca dc 3d d7 4b 94 3d
       -0.15118064 0.2129151 0.107807755 0.07241028
0002f0 52 30 31 bd f6 2c e0 3b 24 ce 32 3e 46 fa e6 3d
       -0.043258972 0.0068412973 0.17461449 0.112782046
000300 8d a7 01 3e f9 c1 af 3d 49 1c 7c 3a 49 63 d5 bd
       0.12661572 0.08581919 0.0009617252 -0.10419328
000310 ee 64 e8 bc e6 e8 b2 3c a1 27 3a 3d de 19 1c be
       -0.02836844 0.02183957 0.04544795 -0.15244243
000320 95 36 2e 3d e7 71 0f be ba 06 55 be 5a 86 1e be
       0.042532522 -0.14008294 -0.20803347 -0.15480939
000330 5b 9e 35 be 41 3a f9 3d b7 b5 38 3c 54 a3 43 bd
       -0.17736189 0.12169314 0.011273793 -0.047763184
000340 13 84 4c bd 72 0f 21 be e5 e1 5f 3e 85 dd 21 3e
       -0.049930643 -0.15728548 0.21863516 0.15807159
000350 0c 7c d1 3c 12 9d 46 3c 88 7e e0 3c bd 60 16 3e
       0.025571845 0.012122409 0.027404085 0.1468534
000360 d0 92 c1 3d b2 d9 c4 3d 4d f3 9e 3d 87 dd 94 3d
       0.094518304 0.096118346 0.0776125 0.072688155
000370 a7 1f 93 bd 72 ec c5 bd 0a 4b 25 3d 45 d1 b1 39
       -0.071837716 -0.09664239 0.040354766 0.0003391599
000380 7d 9f 5f bd 94 fa 4b bd 32 92 0e be 6c 21 3c be
       -0.05459546 -0.049799517 -0.13922957 -0.18372124
000390 90 1c d8 bd 60 3e f5 bd ba 77 be 3d 9f fe 1b 3d
       -0.10552323 -0.11974788 0.0930018 0.038084622
0003a0 fc e2 2a be b7 6e 96 bd 12 27 1b be 4e 33 44 3e
       -0.1668815 -0.07345336 -0.15151623 0.19160196
0003b0 ed c8 08 3e 64 02 fb 3c 5c 0c f4 3c 17 b4 10 3e
       0.13357897 0.030640788 0.02979105 0.14131199
0003c0 12 ec 76 3d ef 0f 10 3d f2 8b 6e 3d 61 06 d5 3c
       0.060283728 0.035171445 0.05823893 0.026004018
0003d0 45 2c d4 3d 06 b1 90 bd 63 38 01 3d 45 fd 86 3e
       0.10360006 -0.070650145 0.031547915 0.26365104
0003e0 58 4e ab bd aa 56 f9 be 9f c5 da 3b d9 ed 8a 3c
       -0.08364552 -0.48698932 0.0066763903 0.016959118
0003f0 e5 a0 19 be f8 69 ae bd 6e dc eb bd ec ed 21 3e
       -0.15002783 -0.08516306 -0.11516653 0.15813416

fc1.bias f4 [120]
000000 43 f1 00 bd ce a2 9d 3a c8 ec 8d bc ec c5 f0 39
       -0.031480085 0.0012026669 -0.01732482 0.0004592383
000010 7d 4c 97 3d 41 2d 98 3c 98 e6 3a 3c 7a c5 92 3c
       0.07387636 0.018576266 0.011407517 0.01791643
000020 2e 7e 64 bd 1c 5a 85 3c db 5e 3b 3d 76 44 c5 bb
       -0.055784397 0.016278319 0.045744758 -0.006020124
000030 2a 10 e0 3c 85 19 5b bc ed 0e c1 3c 0c 77 45 3b
       0.027351458 -0.013372784 0.023566687 0.0030130772
000040 b2 dc b3 3c ad b0 d0 3c f6 bd 91 bd 55 c2 2e bd
       0.021955822 0.02547487 -0.0711631 -0.0426658
000050 60 c6 15 3d 6c a8 84 3c eb e3 92 3c dd 54 03 bc
       0.03656614 0.016193591 0.017930945 -0.008015838
000060 8f aa 1c 3d 58 31 b9 bd b4 fc 73 3d d0 f6 22 bd
       0.038248595 -0.09042615 0.05956717 -0.03978616
000070 ab 3e 57 3d 0d 7e 6f 39 00 5b 2a bd 5d 1f 0c 3b
       0.05255 0.00022839774 -0.04159069 0.0021380999
000080 06 5a b7 3d 85 00 38 bd d2 37 a6 bc 93 25 78 bd
       0.089527175 -0.04492237 -0.02029029 -0.06058271
000090 08 f5 28 3d e2 4f c5 bc c8 5a 88 bd 6d e3 b9 3c
       0.041249305 -0.024085943 -0.0665794 0.022691453
0000a0 30 a3 9a bc 92 31 f8 ba 9a f5 93 bc d3 36 c2 bb
       -0.018876642 -0.0018935672 -0.018061448 -0.0059269457
0000b0 cc 7f b4 3d 85 66 a2 bd 40 2a fe bc 9a 22 9b 3c
       0.08813438 -0.0792971 -0.031026006 0.018937398
0000c0 45 42 49 bd 1c 32 3d 3d b5 fa be 3c c8 65 64 bd
       -0.049135465 0.046190366 0.023312906 -0.05576113
0000d0 1e 76 f8 bc 40 2c fa 3a 24 30 00 bd c9 7e e1 3b
       -0.03032976 0.0019086674 -0.03129591 0.006881569
0000e0 d6 b2 90 3b 8c 97 b5 bd 2e c8 03 bd 09 2d 7f 3d
       0.00441585 -0.08866796 -0.032173328 0.06229881
0000f0 5e 26 14 3b 18 30 3a 3d 43 09 2b 3d ab 29 f2 3c
       0.0022605876 0.045456022 0.04175688 0.029560884
000100 00 f9 f0 ba 87 4f 3c 3d d8 6d e4 bc ca 7a b5 bc
       -0.0018384755 0.04597428 -0.027884409 -0.022153277
000110 9a fe 36 bb 1b 15 08 bd d7 1b 86 3c 95 7b 1d bd
       -0.002792275 -0.033223253 0.016370697 -0.038447935
000120 ce 2b 05 3c bc da 37 3d 29 c3 3c 3d 5d 43 07 bd
       0.00812812 0.044886336 0.046084557 -0.033023227
000130 89 b0 ce 3c 7e c0 e9 bc 24 ba 8f 3c 07 ee 62 3d
       0.025230663 -0.02853417 0.017544813 0.05540278
000140 47 01 13 bd 45 04 3a 3c 20 02 24 bc ae 1f 8c bd
       -0.03588989 0.011353557 -0.010010272 -0.0684198
000150 d9 69 e9 3b 67 ae 7b 3b 54 1d 71 bd f3 16 4f bd
       0.0071232137 0.0038403512 -0.05886586 -0.050558995
000160 4b 49 bc bc 3a ba 27 bd 0e 2a 80 bb 95 f9 97 bd
       -0.022984168 -0.040949084 -0.0039112633 -0.07420651
000170 00 fc 0b bc 5b b0 82 bb 2e 85 94 bc 10 44 38 3c
       -0.008543968 -0.0039883084 -0.018129911 0.011246696
000180 c6 58 9e 3c 14 d9 75 3d be 04 fe bc 28 e1 3e 3d
       0.01932944 0.060021475 -0.03100812 0.046601444
000190 87 bf c5 bc 8e dc 9c 3c f4 58 44 3d f7 23 50 bb
       -0.024139179 0.019148137 0.047936395 -0.0031759718
0001a0 17 e7 d5 3d c7 ce fe bc 8f 99 09 3d b9 65 97 ba
       0.104444675 -0.031104458 0.03359371 -0.0011550701
0001b0 22 be 87 3d 85 1f 6d bd 1a 18 3c bd 56 f1 cf 3b
       0.06628062 -0.057891387 -0.045921423 0.006345908
0001c0 fe be 57 bc 12 0e c6 bc 56 fc 25 bd 7e af 55 3d
       -0.013168095 -0.024176631 -0.04052385 0.052169316
0001d0 3e 2c 7e bd 61 c2 0b bd 91 1f 8b 3d 5b 3b bd 3b
       -0.06205391 -0.03412092 0.0679313 0.005774898

fc2.weight f4 [84, 120]
000000 4e cb d2 3c dd c3 cc bd ac d8 dc bd 06 52 20 bd
       0.025731709 -0.099982955 -0.107835144 -0.039140724
000010 0f ec f3 bd 81 06 14 be 99 9d 09 3e 5a 87 e9 bd
       -0.11910259 -0.14455606 0.13439025 -0.114027694
000020 bd 50 ad 3e f8 1c 9d be 58 4d c3 3b b8 1e 4d 3e
       0.3385066 -0.30686164 0.005960148 0.2003125
000030 29 81 4b 3e a5 8b a2 be 62 78 17 3e f9 59 95 be
       0.1987349 -0.31747165 0.14792016 -0.29170206
000040 42 a4 5b 3e 76 30 9c 3e 20 c9 0d 3c a7 1b b0 3d
       0.21449378 0.30505723 0.008653909 0.08599024
000050 0b 7e 61 bd b5 df 22 3e 1b 42 54 3c ea 4e d8 3d
       -0.055051845 0.1590565 0.012955214 0.10561927
000060 de b8 fa bc 90 bf 2b be 49 e9 2c bd 06 e7 48 3e
       -0.03060573 -0.16772294 -0.042214666 0.19619378
000070 ae c7 cd 3d 1d 5d 1c be d8 86 6e 3d ce 69 71 bd
       0.100478515 -0.15269895 0.058234066 -0.058938794
000080 7e 28 25 bc e5 df 39 3e cc b8 c5 be 7d d6 11 bd
       -0.010080455 0.18151815 -0.3861755 -0.035604943
000090 2a 12 48 3e 61 59 c5 3d 91 99 97 3e 88 4f a0 3d
       0.19538179 0.09636188 0.2960935 0.078276694
0000a0 91 5c 10 3d 0a e0 ce 3c f9 ca f9 3d 68 dd 54 3d
       0.03524453 0.025253315 0.12196917 0.051968962
0000b0 1d 6b fe bd 80 94 8c 3d f5 2a 30 bf a2 4e e9 3d
       -0.12422774 0.068642616 -0.6881555 0.11391951
0000c0 e1 49 c8 3d 3d 64 0a bd 79 04 c8 be 2a 41 81 be
       0.09779716 -0.033787 -0.39065912 -0.2524503
0000d0 d0 8e 60 be a3 84 60 be d6 6b ad bd a4 18 9d 3d
       -0.21929479 -0.21925597 -0.08467834 0.076707155
0000e0 07 02 f9 3e e7 7c 3e bd 57 80 67 be 35 4e 99 3e
       0.4863436 -0.046505835 -0.22607552 0.2994248
0000f0 54 9e 72 3e 50 50 23 be d7 41 ce 3d c8 65 a6 3c
       0.2369321 -0.15948606 0.10071152 0.020312205
000100 a3 20 9b 3e 1f 8e 7c ba a1 10 93 3e 55 3c b8 3e
       0.30298337 -0.0009634215 0.28723624 0.3598353
000110 78 af 0b be 36 38 1b be 66 0a 5c 3e d7 f4 be bc
       -0.13641155 -0.15158162 0.21488342 -0.023310108
000120 a4 33 43 3e 25 19 c9 3e d4 50 a9 3d fc ae e4 bd
       0.19062668 0.39276996 0.0826737 -0.11166188
000130 a8 85 92 be 14 b8 2a be c2 48 a7 3e 6a 3c fd bc
       -0.28617597 -0.16671783 0.32672697 -0.030912597
000140 bf 69 62 be 07 8b 30 3d 30 dc 46 3e 28 6d 19 3e
       -0.22110651 0.043101337 0.19419932 0.14983046
000150 f9 81 b2 3e 71 f6 57 be 39 2f 23 3e e7 f1 cd 3b
       0.34864786 -0.21090104 0.15935983 0.0062849405
000160 15 fb 89 be f8 7a a2 bc 3a 8d cf 3d 86 30 0b bf
       -0.26949373 -0.019834027 0.10134359 -0.54370916
000170 2c 37 36 3d 32 58 76 3e 16 8e be bd 0e 84 1f be
       0.04448621 0.24057081 -0.093044445 -0.15577719
000180 51 42 65 be 60 9e 0c 3c de fb 3e bd 15 b6 06 3f
       -0.22388579 0.008582681 -0.046626918 0.52621585
000190 b0 5c 2b 3e ef d8 68 bd 41 51 52 3e e4 e1 a8 be
       0.16734576 -0.05684751 0.20538808 -0.3298484
0001a0 4c f9 eb 3d cc bf 83 be 58 a4 2d be 86 55 df 3d
       0.11522159 -0.25732267 -0.16957223 0.10904984
0001b0 97 33 bd bd 2a 91 7d 3d a7 18 40 3d 29 06 db bd
       -0.092383556 0.061906017 0.04689851 -0.10694534
0001c0 d0 8b 03 3f dd 67 b9 bd 5f c1 c5 bc 06 8e 92 3b
       0.5138521 -0.090530135 -0.024140058 0.004472497
0001d0 b1 93 c2 be 91 2a 0e 3e 0f a3 3a 3d 6f 9d 7c 3e
       -0.38003305 0.13883425 0.04556566 0.24669431
0001e0 ca 98 8e be 5a da 08 3e d2 1b a6 3e dd a3 ca bb
       -0.27850944 0.13364545 0.324431 -0.006184085
0001f0 19 55 8a be da 8b 57 be b1 e0 45 bf 2e af 30 bf
       -0.2701805 -0.21049443 -0.77295977 -0.69017303
000200 4b 8e fb 3d a7 7f cd 3c 67 bc 87 bd 18 4d e2 3c
       0.122829996 0.025085283 -0.06627732 0.027624652
000210 8a 0a cb bb a8 78 5a 3d b7 12 51 3e c5 a6 a8 bb
       -0.0061963247 0.053337723 0.20417295 -0.0051468336
000220 66 49 89 3e a4 e3 47 3d c4 66 8a 3e e0 a9 c7 be
       0.2681381 0.04880108 0.2703153 -0.38996792
000230 a4 30 d5 bb 6d 10 c4 be 94 6f 5c 3e 54 fb 88 3c
       -0.0065060426 -0.38293782 0.21526939 0.016721405
000240 4c 4c bc 3d 3f 75 a0 be 72 9f 6b be 56 f8 b8 3e
       0.0919424 -0.31339452 -0.23010042 0.36126965
000250 ab 8c 36 be 4c 51 e6 3d 2c ac e2 bd c4 9f 5c 3e
       -0.17827098 0.11245975 -0.110679954 0.21545321
000260 a7 45 61 be 5f 67 83 3e 4a 1a f8 3d e1 2a 6c bf
       -0.21999227 0.25664803 0.12114389 -0.9225293
000270 ba 4b 51 3e ab 2e b9 bd cc a5 29 3f 12 44 ef 3d
       0.20439044 -0.09042104 0.6626861 0.11682905
000280 d3 8b e8 3c 88 4b 8c 3e 0d 22 31 bf 0f fb 21 3e
       0.028386986 0.27401376 -0.6919258 0.15818428
000290 91 3a 9d be 59 ca d8 bd 9d fe 8b be 77 be 5e 3e
       -0.30708745 -0.1058547 -0.27342692 0.21752344
0002a0 d4 9d 60 bc e5 55 26 be 41 5e 1d bd 1f ca 9f bd
       -0.013709504 -0.16243704 -0.038419966 -0.078022234
0002b0 e8 a9 9b 3d b5 b8 dd bd 59 0a 92 3e 11 a3 4f be
       0.076007664 -0.10826246 0.2852352 -0.20277049
0002c0 18 54 b9 3c b7 e1 81 be 0b 5b 40 3e 30 6f 89 3d
       0.022623107 -0.2536752 0.1878473 0.067106605
0002d0 2b 12 8c 3d 10 21 3c 3d cc 31 c5 be e2 fd 94 3e
       0.06839403 0.04592997 -0.38514555 0.29099947
0002e0 62 d6 be 3d 67 c5 0e 3e 30 c1 8b 3e cb f8 04 3f
       0.09318234 0.1394249 0.27295828 0.5194213
0002f0 0e eb 1c be fb 8c 1e be d3 30 ca bc cd 07 bc be
       -0.15324041 -0.15483467 -0.024681484 -0.36724702
000300 45 9c 96 be 45 8f 5c 3d 99 b8 3c bf ad 76 cd 3d
       -0.294161 0.05384757 -0.73719174 0.10032401
000310 7d 38 55 be 08 dc 4b 3d 07 ce 25 3f 90 73 7c 3e
       -0.2082233 0.049770385 0.647675 0.24653459
000320 2a d7 b6 3d a7 0d a1 3e 8f 04 ee 3d 21 29 37 bd
       0.08927758 0.31455728 0.11621963 -0.044716958
000330 78 25 24 3e c4 d7 d2 bd 70 7c 04 3f 45 aa b1 3d
       0.16029918 -0.1029506 0.51752377 0.086750545
000340 59 b1 69 bb 34 4f 64 be 2a 8f 61 3e 99 06 a3 be
       -0.0035658686 -0.22295839 0.22027269 -0.3184097
000350 5e 63 8a be e6 43 78 bf 41 ed 0c be c8 51 38 3d
       -0.27028936 -0.96978605 -0.1376238 0.044999868
000360 c1 6e 12 3d c6 d7 02 bd 1a de 34 3e 66 8e 01 3e
       0.035750154 -0.03194406 0.1766285 0.12651977
000370 5a 5b 83 be c6 df 8e 3c cd 8d 37 bf 22 05 b1 3d
       -0.25655633 0.017440688 -0.71700746 0.08643557
000380 72 d8 26 bf b6 ce a2 be 02 b6 00 3e 49 27 be 3d
       -0.6517402 -0.31798333 0.1256943 0.09284837
000390 6d 0f 19 be 79 4b cb 3e 4c a5 de 3e 8d 04 3d 3d
       -0.1494729 0.3970602 0.43485487 0.046146918
0003a0 6f 11 92 3c da 20 a9 3d 74 6c 5b 3d b9 5c 23 bd
       0.017830579 0.08258219 0.053570226 -0.03988335
0003b0 0a 42 91 bd d5 ca ed bd a2 ff 88 3b d1 95 fb bd
       -0.07092674 -0.11610953 0.0041808644 -0.122844346
0003c0 fa 39 45 3d 15 65 12 3e 1d 2f 80 bc b9 79 4a be
       0.048150994 0.14296372 -0.015647465 -0.19772996
0003d0 46 e6 d8 3c b1 22 90 3e 27 db ff 3e e5 47 52 3d
       0.02647699 0.28151467 0.49971887 0.051338095
0003e0 ff 37 92 3e c2 9b 74 3e 17 0c 58 be 44 9d 13 3d
       0.28558347 0.23887542 -0.21098362 0.036038652
0003f0 df d5 e8 bd 6b 2e b1 3d 97 7f 65 be a5 f9 35 3e
       -0.11368918 0.08651432 -0.22411953 0.17771013

fc2.bias f4 [84]
000000 96 22 b0 bd f5 4b 0e b9 88 62 ab bd fe 70 bd bc
       -0.08600347 -0.00013570471 -0.08368403 -0.023125168
000010 4a 71 84 3d ba 55 cd 3d b0 24 b8 bd 3d 93 2a 3d
       0.06466921 0.10026117 -0.089913726 0.041644324
000020 ee 38 9e 3d 6f 44 0e 3e 60 e6 84 3d 10 1c 4e bd
       0.07725702 0.13893293 0.06489253 -0.05031973
000030 4a 20 2b bd 80 b1 db 3d b7 ff d8 3d a2 b5 8d 3d
       -0.04177884 0.10727215 0.10595649 0.06919409
000040 4e 6e a1 bd 75 98 b5 bd 9f 51 f2 bc cb c2 59 3d
       -0.07882367 -0.088669695 -0.029579936 0.053164285
000050 f3 c9 a0 bd 79 36 b5 bb 07 73 0d 3d cf ff c0 3d
       -0.07851019 -0.0055301753 0.034533527 0.094237916
000060 2f 84 8c 3d 5a b9 a3 3c a3 9c 66 bd a7 73 73 3b
       0.068611495 0.019985843 -0.056301724 0.0037147792
000070 e8 e5 97 3d a2 90 10 3b bf 9d 1d bd ec 02 aa bc
       0.07416898 0.0022058864 -0.038480517 -0.020753346
000080 f9 a2 c4 3d aa 85 0d bd 5c b1 4b bd b6 72 14 bd
       0.09601397 -0.0345513 -0.04972969 -0.03624221
000090 0f 58 88 3d bb 4f 53 38 6a 9c b1 bc b6 9f 06 3c
       0.06657421 5.0380575e-05 -0.02168103 0.008216789
0000a0 38 13 32 bc af 20 de 3b 7b 54 84 3d 79 05 b8 bd
       -0.01086884 0.0067787985 0.06461426 -0.08985419
0000b0 5e af 4b bd d6 51 2c 3d 77 10 b2 3d 27 81 29 3d
       -0.04972779 0.042070232 0.08694547 0.041382935
0000c0 9b 91 25 bd eb e4 89 bc 5e c2 ee bd 14 51 0a 3d
       -0.040422063 -0.01683279 -0.11658166 0.03376873
0000d0 ab ae e4 3d 4b a0 84 bd 9d c8 cd 3d 53 f9 00 3e
       0.11166128 -0.06475886 0.100480296 0.1259511
0000e0 90 c1 0d 3d e6 af 8e 3d c2 5b bd 3d 8d 4f 9f 3c
       0.034608424 0.06967144 0.09246017 0.019447112
0000f0 dd 07 70 bc c6 c6 2b bd 65 d7 16 be 08 0c 50 bd
       -0.014650312 -0.041937612 -0.14730604 -0.050792724
000100 bc 65 82 3d d6 8d ac bd b0 4b a6 3d 32 a6 fd bd
       0.063670605 -0.084254906 0.08119905 -0.12385215
000110 e3 ab 6b 3d 4a 2d e0 bc fa 83 c1 3c 9e c0 4b bd
       0.05753697 -0.027365346 0.023622502 -0.04974424
000120 2e 12 e9 bb 46 ab 32 3d ef dc dc 3c aa 38 61 3d
       -0.007112763 0.04362037 0.026960818 0.05498568
000130 44 78 6b 3d 92 d4 05 3d 6d cc 5c bd 23 3c 3a bd
       0.05748774 0.032673426 -0.053905893 -0.045467507
000140 f1 39 db bc 0f 15 d2 3d c5 41 f3 3d 21 a8 0b 3d
       -0.026761027 0.10257923 0.11877779 0.034095887

fc3.weight f4 [10, 84]
000000 09 8d 9e 3b 70 df d6 3e a2 91 91 3d ae 70 1c 3e
       0.00483859 0.41967344 0.071078554 0.15277359
000010 ba 8b 0f 3e 02 4d da bd a0 fd 1b 3e 1a f1 d3 bd
       0.14018145 -0.10659219 0.15233469 -0.10348721
000020 14 5f 0c be 3c 68 42 be 01 2d 00 3e be 49 67 3e
       -0.13708144 -0.18985075 0.12517168 0.22586724
000030 bd 9a 09 bf e2 0d 85 3d 57 4f de be a9 9c be 3c
       -0.53751737 0.064967886 -0.43419906 0.02326806
000040 80 18 92 3e 29 fd 72 bc 0f 1f a7 3d ce e0 ac bd
       0.28534317 -0.014830866 0.08160221 -0.084413156
000050 d0 69 13 bf 72 9f 16 be 57 19 04 bf be c5 b3 be
       -0.5758333 -0.14709261 -0.51601166 -0.35111803
000060 6c dd ad 3e 9a ab 37 3e 99 a0 4a 3e a9 77 e6 be
       0.33957994 0.17936555 0.19787826 -0.45013168
000070 43 63 0e 3e f1 a3 bb be 51 05 0d 3e 29 31 e7 be
       0.13905053 -0.36648515 0.1377156 -0.45154694
000080 0c 23 e6 be 2b 1b 18 3e cd e8 8b 3e 22 b3 38 be
       -0.44948614 0.14854114 0.2732605 -0.18037084
000090 24 99 16 3c 10 8a 2d 3e 13 20 9c be 19 82 17 3e
       0.009191785 0.16947198 -0.3049322 0.14795722
0000a0 df 4e 5f 3c 6c 0d ea be 40 97 90 3e 52 db fa 3d
       0.013629644 -0.45713365 0.28240395 0.12248863
0000b0 d8 27 01 3e e2 24 8f 3e 39 ee 28 3e 22 05 55 be
       0.12612855 0.27957827 0.16497125 -0.2080274
0000c0 3c 80 34 3e 28 78 53 be 20 06 5f be a5 1f 01 3d
       0.17627043 -0.20651305 -0.2177968 0.03152432
0000d0 60 d5 dd 3d 42 bd 14 bf 76 5a c0 bd bf fa 60 3d
       0.10831714 -0.58101285 -0.09392254 0.05492663
0000e0 55 1e 0f be 8e a5 96 bd a6 fc 0a bf 7e 44 81 3e
       -0.13976415 -0.07355796 -0.5429176 0.25247568
0000f0 2d fa 4c bd fd 62 ae be 03 8c 98 3e b2 6d f1 3e
       -0.050043274 -0.34059897 0.2979432 0.47154003
000100 e7 b4 e4 be fb c5 a2 3e 31 30 0f 3e 03 d0 7f 3e
       -0.44669268 0.31791672 0.13983227 0.24981694
000110 da 45 cb 3d 63 e6 07 be 30 f4 d6 be 80 d6 a4 bc
       0.099254325 -0.1327148 -0.41983175 -0.020121813
000120 1a 45 2b 3d 27 67 0e 3e 4d 4d 2f 3e 0a c5 1d be
       0.041813947 0.13906537 0.17119332 -0.15407196
000130 fc c4 15 3d 33 78 dd be 25 2f c1 3d 24 fb 3c be
       0.036564812 -0.43255767 0.0943282 -0.18455178
000140 37 66 44 3d 6f 6a 68 bd 24 fa 3b be dd 83 da be
       0.047949042 -0.056742128 -0.1835714 -0.4267873
000150 04 5f c4 be 0e d7 4c 3d 3c 36 41 3e 5f 61 0d bf
       -0.3835374 0.05000978 0.18868345 -0.552267
000160 b3 96 67 be c2 61 3d bd 30 95 93 be 9b 19 e2 3e
       -0.22616081 -0.046235807 -0.2882476 0.4416016
000170 4d 72 2e be e0 44 b6 be 57 8b 1b bf 93 00 08 bf
       -0.1703579 -0.35599422 -0.6075949 -0.53125876
000180 73 9d 0a bf 79 bb 99 3e e3 c5 4e be 61 ba cf 3d
       -0.541465 0.30025843 -0.20192675 0.10142971
000190 a7 14 a4 be 43 10 63 be 22 68 97 bd 73 ac 10 be
       -0.32047006 -0.22174172 -0.07392909 -0.14128284
0001a0 be f0 2c bf 9e 9c 0a 3c 1d 4d e1 be 57 be c2 be
       -0.67554843 0.008460192 -0.44004145 -0.38035843
0001b0 10 8f e3 bd 97 4f a8 3e bc d1 c9 be 0c 6d 06 3f
       -0.111112714 0.32873222 -0.39417827 0.5251014
0001c0 60 7b 25 3e 9f 5c 3c bd 54 de 21 3e 9b a2 84 3e
       0.16160345 -0.045986768 0.15807468 0.25905308
0001d0 02 df 53 be dd 05 01 bf 0e 31 dd be 26 4f ce 3d
       -0.2069054 -0.5039957 -0.43201488 0.1007369
0001e0 f4 1a 64 3e 51 1c 73 3e 93 71 ab 3e 68 b4 f6 3d
       0.22275907 0.2374127 0.33485088 0.120461285
0001f0 85 79 00 bf 92 c1 ed 3e 8a cb f3 be 60 75 a2 3d
       -0.50185424 0.46436745 -0.47616225 0.07932544
000200 f0 5d f5 3d 4e dd 7b 3d bd 52 d6 3d 70 3d 6a be
       0.11980808 0.06149035 0.10465 -0.22874999
000210 74 57 12 bf bc 13 33 bf c2 b6 56 be 8e e9 3d 3e
       -0.5716469 -0.6995199 -0.20968154 0.18546125
000220 b0 17 c7 3d 09 00 90 3e 67 2e 14 bd 59 03 a8 be
       0.09721315 0.28125027 -0.036177065 -0.32815054
000230 af 63 b7 3e d3 43 b5 3d c9 7e 11 3d 6e 4d 06 bf
       0.3581824 0.08850827 0.035521302 -0.524619
000240 39 34 8f 3e 21 9d 17 3f 86 5c 80 3e 46 40 23 be
       0.2796953 0.59224135 0.2507059 -0.15942487
000250 36 ac 2d 3e 4f 62 9f 3e 8c 10 a7 3d 81 17 86 be
       0.16960225 0.3112969 0.08157453 -0.26189807
000260 ec 08 5b 3d 64 32 a9 bc c5 fe 57 3e ce c1 04 3e
       0.053475305 -0.020653911 0.2109328 0.12964556
000270 a4 41 5e 3e f1 51 4f 3e 31 79 37 3e 47 6e e1 bd
       0.21704727 0.20246102 0.17917325 -0.11007362
000280 e6 d6 89 3e 8c 90 66 3e 7f 06 0a 3e 3c 47 0c 3f
       0.26921767 0.22516078 0.1347904 0.54796195
000290 c1 77 4a 3e 2b a7 2c 3f 27 9e 1a 3f cc c7 60 3d
       0.19772245 0.6744258 0.6039757 0.05487804
0002a0 f9 c0 dd be 05 30 18 3f 6f cd fa bd 6d d6 c8 3d
       -0.4331129 0.5944827 -0.122462146 0.098065235
0002b0 9c 72 7f 3e 30 ba ab be 4b 00 e8 3c 09 90 8f 3e
       0.24946064 -0.33540487 0.028320452 0.28039578
0002c0 e9 d0 46 be 96 4a 81 be e9 9d ef be 13 c7 18 3e
       -0.1941563 -0.25252217 -0.46800163 0.14919691
0002d0 19 bd 83 3e 97 ec 5b bd a6 8b c8 3e 85 d5 e8 3c
       0.25730208 -0.053692427 0.39169043 0.028422127
0002e0 c4 d7 44 bc 28 91 7b be c2 26 e2 bd 68 b3 90 be
       -0.012014333 -0.24567091 -0.11042549 -0.28261876
0002f0 7a 03 06 3e 9e c0 6a 3e e5 29 d2 3d 09 c1 7a 3e
       0.13087264 0.2292504 0.10261897 0.244877
000300 c4 12 96 3d 86 5c 38 bf bf 11 c9 be d9 6f 18 be
       0.07327798 -0.7201618 -0.39271352 -0.14886416
000310 33 cb 18 3e e9 a5 a0 3e 81 72 bb 3d c0 4a 40 be
       0.14921264 0.3137658 0.09152699 -0.18778515
000320 3b 64 ef 3b 47 5b 51 bc d1 90 82 3e 3a 6e 88 3e
       0.0073056496 -0.01277811 0.2550111 0.26646596
000330 00 54 5f 3e d6 83 ef 3c 53 97 0b bf e0 2b 86 3c
       0.21809387 0.029237669 -0.5452778 0.016378343
000340 4d a5 0d 3e f2 88 74 be ac fb 07 3e bd 8b b8 3e
       0.13832588 -0.23880365 0.13279599 0.36044112
000350 47 00 df be 0b 54 d4 be 5f 4f a1 3d 22 21 c7 3e
       -0.435549 -0.4147037 0.07876467 0.38892466
000360 d1 0e da be 97 a1 1c bf 34 06 ea bd ea 59 21 3d
       -0.4258943 -0.61184067 -0.114269644 0.03939239
000370 4f 80 19 3c 84 a1 81 be 34 bc ce be 85 65 1e bf
       0.00936897 -0.2531854 -0.40377963 -0.61873657
000380 f0 e1 4b 3e a1 17 9c be fa be df 3e 04 eb 97 be
       0.19910407 -0.30486777 0.4370039 -0.2967149
000390 a4 cf bb 3e 42 1a 62 3e eb 3d f7 be c1 fd 05 bf
       0.36681855 0.22080329 -0.48289427 -0.5234032
0003a0 b6 bb 09 bf bc 86 30 bf 43 aa 0a 3e 58 3b 88 3e
       -0.5380205 -0.6895559 0.13541512 0.26607776
0003b0 00 94 f5 3d 1f 6d 90 bd 1c 94 b0 3e 7e 60 fc 3d
       0.119911194 -0.07052063 0.34487998 0.12323092
0003c0 25 a3 b4 3d 29 05 90 bd 9e b9 66 3e e7 8e 91 be
       0.0882018 -0.07032234 0.22531745 -0.28429338
0003d0 ea a8 26 3e 14 b1 22 3e e2 47 09 bf 34 c5 11 be
       0.16275373 0.15887862 -0.5362531 -0.14235383
0003e0 d0 e8 8e 3d 52 40 9e 3d ef b3 17 3d bc 79 64 bd
       0.06977999 0.07727112 0.037036832 -0.055780157
0003f0 1f d8 37 3e 04 c1 1b bf 9c 49 17 3e 1e ed 8f 3d
       0.17953537 -0.60841393 0.14774173 0.070276484

fc3.bias f4 [10]
000000 19 bb 7a 3d 1e 2c da 3d cf 9c 9a 3d dc 46 2b 3c
       0.061213586 0.10652946 0.0754944 0.010453906
000010 a6 67 ec bd 77 a8 2e 3d 97 58 34 bd 23 8e 21 3c
       -0.11543207 0.04264113 -0.0440298 0.009860548
000020 25 31 bb bd a1 8c 44 bd
       -0.09140233 -0.047985677
